models/20221206-fc-3/model.ckpt (torch, 886261 bytes, 16 tensors)

encoder.1.weight f4 [128, 784]
000000 b1 1f e9 3c 27 80 97 bc 6e 90 b1 bb 00 27 a3 3c
       0.028457494 -0.018493725 -0.0054188287 0.019916058
000010 ce ff c1 bc 93 01 e9 3c b7 1b 20 ba ee 8b 0d bc
       -0.023681547 0.028443133 -0.00061076455 -0.008639319
000020 ee 7c 52 bc e5 87 62 bc 4b 09 0d 3d 30 9f 89 bc
       -0.012847168 -0.013826345 0.03443269 -0.01679954
000030 b3 2f 71 3c be 1e f0 bc 10 06 aa bc 93 e8 ea bc
       0.014720845 -0.029311534 -0.020754844 -0.028675353
000040 c1 7d e2 3c 31 b4 ef bc 0a 69 9f bb 65 f6 9d 3c
       0.027647855 -0.029260727 -0.0048648166 0.01928253
000050 7c 08 e4 3c a5 4b 1d bb 01 a5 fb 3c 5a 66 ba bc
       0.027836077 -0.0024001386 0.030718328 -0.022753883
000060 81 b6 40 bc ea 0c 07 3c 3c e2 7e 3c 4a e3 a5 3a
       -0.011762262 0.008242825 0.015556868 0.0012656238
000070 e5 ac 97 3c 63 b1 dc 3c c0 19 85 bc dc dc e2 bb
       0.01851506 0.026940053 -0.01624763 -0.006923301
000080 fc 1f 35 bc d3 3b 81 3c ca 01 9c 3c 3c 61 ba bc
       -0.011054989 0.015775597 0.019043822 -0.022751443
000090 63 86 bf 3b 7f eb 91 3c 17 76 02 3d 06 c7 44 bb
       0.0058448776 0.017812489 0.0318509 -0.0030025854
0000a0 0d 0f 82 bc 58 36 51 3b 32 85 50 bc 65 7c 88 bc
       -0.015876317 0.003192326 -0.012727069 -0.016660878
0000b0 51 35 42 ba 82 c2 9c 3c 41 40 c9 3c 7c d2 8c 3c
       -0.00074084575 0.019135717 0.024566771 0.01719021
0000c0 80 d0 0a bc f0 6a a3 bc 37 50 22 3c c0 d5 83 bb
       -0.008472562 -0.019948453 0.00990682 -0.0040232837
0000d0 b7 36 33 3c 15 7d 87 bc ee 8c 15 bb 2a da 48 3c
       0.010938338 -0.016539136 -0.0022819596 0.012259046
0000e0 8a a3 96 3b ee 0e fb 3b 7c 4a 7e 3c 4a a2 c4 3a
       0.004597132 0.007661692 0.015520688 0.0015001979
0000f0 80 04 29 bc 35 fb 83 3c e7 47 c2 bc 83 08 a5 bc
       -0.010316014 0.016110996 -0.023715926 -0.02014566
000100 52 1e d3 3c 81 50 02 bd 11 20 8f 3e e8 3e 8e 3e
       0.025771294 -0.031815056 0.27954152 0.2778237
000110 bc b6 8c 3e 72 61 9a 3e 7e a1 c3 3d b9 19 f3 3c
       0.27483165 0.3015247 0.095522866 0.029675351
000120 ae 61 7e 3c e3 55 c0 3c fc 44 0a bd e5 81 55 3c
       0.015526218 0.023478454 -0.033757195 0.013031458
000130 42 3e de bc ed 74 d9 3a 26 1f f2 bc 8e cc 81 bc
       -0.027129296 0.0016590633 -0.029555868 -0.01584461
000140 dc af 1c bc 57 1c 34 bc 00 69 10 bd 37 01 0f bd
       -0.0095634125 -0.010993085 -0.035256386 -0.034913268
000150 6a 64 39 3c 2e 6b c5 bb 91 88 b1 3c 7c 1c 70 bc
       0.0113154445 -0.0060247397 0.021671565 -0.014655229
000160 a3 32 48 3d b0 ce 27 3e a7 02 19 3e cd 10 f4 bc
       0.048876416 0.16387439 0.14942418 -0.029793167
000170 ef 21 ce 3c a3 f9 3d bd a8 e3 0c bd cf c3 03 3e
       0.025162665 -0.04638065 -0.034396797 0.12867664
000180 08 b3 e2 3d f6 4d 03 3e c5 32 14 bc e9 37 08 be
       0.11069304 0.12822708 -0.0090453075 -0.13302578
000190 11 e0 87 bd 14 52 ac bd c4 c5 8a bd 87 6d 5f be
       -0.06634534 -0.08414093 -0.06776002 -0.21819125
0001a0 c6 0e 66 bd b6 77 85 bc 87 b6 c8 bd 4b 97 b0 3b
       -0.056166433 -0.016292434 -0.09800439 0.0053891293
0001b0 9d f5 b0 bd 87 88 99 3c a0 a8 86 3c b3 30 a5 3c
       -0.08640597 0.01874186 0.016437829 0.020164823
0001c0 b3 38 77 3c 0e 49 84 bd 95 eb 50 be e8 0f 35 3e
       0.015089202 -0.064592466 -0.20402367 0.17681849
0001d0 21 6a c4 3d 80 ab ea bd 75 05 23 be bb 90 ce 3c
       0.09590555 -0.11458492 -0.1592005 0.025215497
0001e0 d8 eb 87 bd 5a cb 8a 3d dd 30 21 3e 49 8b 1f 3e
       -0.066367805 0.067770675 0.15741296 0.15580477
0001f0 4c f3 0c 3e a0 7f e3 3d 29 88 04 3e 7a 13 cc 3d
       0.13764685 0.11108327 0.12942566 0.09964652
000200 51 97 8d ba 59 f5 3d 3d 1c c3 85 3d db 15 40 3d
       -0.0010802542 0.04637656 0.06531355 0.046895843
000210 d7 8f a8 3c 2a 46 c2 bd 40 01 82 bc bd 39 25 be
       0.0205764 -0.09486039 -0.015869737 -0.16135307
000220 38 01 3f be 9a aa ca 3d 84 87 91 3d c7 2d 21 bd
       -0.18652809 0.09895821 0.07105926 -0.039350297
000230 db 5e 00 bd f4 82 0f bd d6 f1 53 bd 3d 88 6e 3d
       -0.03134046 -0.035036996 -0.051744305 0.058235396
000240 bc 9d 88 bd 33 49 29 be 0f 4d 24 3d 9a 61 a8 bc
       -0.066707104 -0.1653183 0.04011255 -0.020554353
000250 b7 4c 85 bc 69 d7 b4 3b 92 28 84 3d fb 1d 2d 3c
       -0.016271932 0.005518843 0.06453051 0.01056623
000260 ed 0b 9e bb 9c 9c 38 bd cb 09 46 3d 33 7e 45 3d
       -0.004823199 -0.04507123 0.048349183 0.048216056
000270 4b 5f de bb df 4f 64 bc d8 3a 3f 3c 6d c9 d5 3d
       -0.006786262 -0.013935058 0.011671744 0.104388095
000280 56 de 09 3d b8 bc e6 3c ac fe e3 3c 5e 2a c4 bc
       0.0336593 0.02816616 0.027831398 -0.023945983
000290 f8 51 cf bd e7 6d 23 3d 73 ec ad 3c 0e 96 e1 3d
       -0.10123056 0.039899733 0.021230912 0.11014949
0002a0 01 76 51 3a f5 9e ee 3a 50 34 7f 3d ea 20 cb 3c
       0.0007990301 0.0018205332 0.06230575 0.024795968
0002b0 25 8e ae 3d 1e c7 9c 3b e4 f9 af 3d d4 00 37 bc
       0.08523206 0.004784479 0.08592585 -0.011169631
0002c0 d1 5e 4d 3d c2 49 97 3d 40 3e c9 3d af b6 18 bb
       0.050139252 0.07387115 0.09826326 -0.0023302247
0002d0 07 e3 8e bc 3e e9 2e bc 56 7f 15 3d 84 dd 4c 3c
       -0.01744224 -0.010675726 0.03649839 0.012503985
0002e0 a4 37 10 3d 48 08 e2 3c a3 81 74 3d 83 b4 b3 3d
       0.035209313 0.02759184 0.059693944 0.08774664
0002f0 9b 25 a8 3d 4e 93 5f 3d d5 b0 d5 3d 47 f1 77 3c
       0.08210298 0.05458384 0.10434119 0.015133209
000300 71 4b 01 3d 29 cf 90 bd 41 1e dd 3d 6f 10 81 be
       0.031566087 -0.07070763 0.10796786 -0.2520785
000310 05 f2 b3 3d 23 f9 79 bd 6b 4c 18 be b3 bd f1 bd
       0.08786396 -0.06102861 -0.14872901 -0.118037604
000320 05 53 10 3d ae d4 59 3a 0a c9 40 bc 91 77 69 3d
       0.035235424 0.0008309585 -0.011766681 0.056998793
000330 75 11 91 3d f6 dc 52 3d fa 3e a0 3d 79 15 e0 3c
       0.07083408 0.051480256 0.07824512 0.027353989
000340 82 20 d7 bc 02 88 d7 3c d3 16 3d 3d 94 e7 79 3c
       -0.026260618 0.02630997 0.046164345 0.015252966
000350 df bf 41 3b a0 6e ff 3c 91 86 19 3d 1c 6e 46 3d
       0.0029563827 0.03118068 0.03748185 0.048444852
000360 71 14 5b 3d 2c d0 05 3d 29 93 c9 bc ee 8d c0 bd
       0.05348629 0.03266923 -0.024606304 -0.09402071
000370 b4 f7 2d be f3 1c 02 be d1 b1 4e bd f2 29 b3 be
       -0.16989022 -0.12706356 -0.050462548 -0.3499294
000380 ae b9 08 3e 6a 19 2d 3d 3b cf 32 bb 5b e1 3a bd
       0.13352081 0.042260565 -0.0027284164 -0.045625072
000390 f1 67 79 3c 98 6e d3 3c 4e ff 34 3d bd 31 35 3d
       0.0152225355 0.025809571 0.04418879 0.044236887
0003a0 79 d1 95 3c 9e 54 ab 3c 7b 69 81 bc 22 a0 38 bc
       0.01828836 0.020914372 -0.015797367 -0.011268647
0003b0 af 4d 6a bd 5e 3c 90 bd 2c 70 2d bc 31 11 c1 bb
       -0.05720299 -0.07042764 -0.010585826 -0.005891942
0003c0 e1 73 a6 3c a5 63 82 bb 79 79 84 3b 0d 12 91 3d
       0.020318927 -0.0039791637 0.004042801 0.07083521
0003d0 a7 58 34 3d 82 97 bc bc dc 40 3f bd eb ee 35 bd
       0.044029858 -0.023021463 -0.046692714 -0.044417303
0003e0 19 a6 ae 3d 2e 57 05 3e d3 e1 0e bd 00 5c 7c 3e
       0.08527774 0.13021538 -0.03488333 0.2464447
0003f0 44 5b 9d 3d cd 5c be 3d b3 92 ce bb 40 9c db bc
       0.07683423 0.09295044 -0.006304109 -0.026807904

encoder.1.bias f4 [128]
000000 f7 48 73 3e 02 8e 9e bd a3 e5 ae 3c 26 25 aa bb
       0.23758303 -0.077419296 0.021349734 -0.0051924167
000010 10 ac 4f 3c 6d bf cb 3d 18 c6 5c 3d 15 ce 7b 3e
       0.0126753 0.09948621 0.053899854 0.24590333
000020 fd 7c d6 bb bc 61 94 3e 58 3e 2c 3e ac 5a b1 3e
       -0.0065456615 0.28980815 0.16820657 0.3463949
000030 6d 35 c5 3c 7e 13 3e bc ac 16 b1 3c 18 38 a5 3d
       0.024073327 -0.011601327 0.021617256 0.0806734
000040 d1 f1 21 3e 40 07 fa 3d fa 78 cc 3c 3f 91 70 bc
       0.15814902 0.12208414 0.02496003 -0.014683067
000050 67 71 83 bc 8a 9e bf bb 42 a0 46 bd 74 98 cf 3e
       -0.016045285 -0.0058477568 -0.048492678 0.40546
000060 b3 51 ba 3d 0c 93 80 3e 12 0e 18 3c 28 9a 73 3e
       0.09097614 0.25112188 0.009280698 0.23789275
000070 b9 65 c4 3d 14 4d 9b 3e 24 2c a7 3c 5f 94 9e 3d
       0.095897146 0.30332243 0.02040679 0.07743143
000080 c6 90 eb 3d 83 a1 19 bc 8d 2a e8 bc 38 bd b0 3e
       0.11502223 -0.009376886 -0.028340602 0.34519362
000090 f7 17 69 3e c8 54 35 3e 8c 47 10 3e fe ec bb 3d
       0.22763048 0.17708123 0.14089793 0.09176062
0000a0 39 03 10 3e 94 d2 01 bd cf 2d d5 3d 25 d0 1d ba
       0.1406373 -0.031694964 0.10409128 -0.00060200907
0000b0 a7 a5 6c 3d e5 17 50 3e 5c 47 06 bb 84 c1 4d 3e
       0.057775166 0.20321615 -0.002048931 0.20093352
0000c0 ee f5 45 3d 6b f7 bd 3d 56 f4 f4 bc f4 e0 b4 3d
       0.04833024 0.09275707 -0.029901665 0.08831969
0000d0 f4 fe 70 bc 6a 26 91 3c 72 57 f6 bc 47 2b 9f 3e
       -0.014709223 0.017718513 -0.030070994 0.31087705
0000e0 f9 39 9a 3d 5e 97 6b 3d 85 bd ae 3c 70 9b bb bb
       0.07530589 0.057517402 0.021330604 -0.0057253167
0000f0 c5 6f 95 3e 2c 8a 47 bb 6a 33 71 3e 5b cb 12 3e
       0.29186836 -0.0030447347 0.23554769 0.14335386
000100 3d 0d 09 bd ca 11 d9 3b 77 83 3b bc 22 58 e1 bc
       -0.03345989 0.006624435 -0.011444918 -0.027507845
000110 7e ed 39 3e 5b c7 d1 3d a9 eb a7 3e d6 8a a5 3d
       0.18157002 0.10243102 0.32796982 0.080831215
000120 3f 9d 48 be 0e 1d 43 3e 2d a4 2a 3c 53 9b c7 3d
       -0.19591235 0.19054052 0.010415119 0.097464226
000130 47 9e 0d 3d 94 aa c4 3e 6c 56 28 bc 35 2b 29 bd
       0.034574773 0.3841139 -0.010274511 -0.04130097
000140 b3 2e 80 3e 8c e6 68 3d 8a 62 a2 bd ac a2 d6 3e
       0.2503563 0.05686049 -0.07928951 0.41920984
000150 54 72 c1 bb dc 74 de bc 6c d8 11 3e 52 f8 42 3d
       -0.0059035216 -0.027155332 0.14242715 0.047600098
000160 b0 13 97 3d d5 54 eb 3d e9 12 fd bc 1b 04 6c bc
       0.07376802 0.1149079 -0.030892806 -0.014405276
000170 e0 dc 8b 3e dc 85 16 3e 16 39 9e 3e 9e 9e 53 3c
       0.27316952 0.14699501 0.30902928 0.012916235
000180 bc 46 80 3e ad 6b ab 3e 88 99 fb 3d e3 d2 31 3d
       0.25053966 0.33480588 0.12285143 0.043414008
000190 31 f9 85 3e e1 5d 50 3e 27 cd c2 3e d4 66 dd 3d
       0.2616668 0.20348312 0.38047144 0.108106285
0001a0 dc 21 80 bd 5e 2f 85 bc de d0 98 3d d2 9b 00 be
       -0.06256458 -0.016257938 0.07461713 -0.1255944
0001b0 f1 c6 bf 3d 61 8c 44 3e 6c 9c 47 3e 14 9a 8f bc
       0.09364117 0.19194175 0.19493264 -0.017529525
0001c0 25 6c 1f 3e 93 08 29 3e 1e 60 27 bc a6 7f 49 be
       0.15568598 0.16507177 -0.010215787 -0.196776
0001d0 dd 1b 0c 3e 13 52 09 3e 1a 3a 36 bd 64 d2 3d 3e
       0.13682504 0.13410215 -0.044489004 0.18537289
0001e0 ad 81 28 3b c3 8c 03 3e 17 57 d5 bc 8c 6b b6 3d
       0.0025712058 0.12846665 -0.026042504 0.08907232
0001f0 f7 50 4f 3d da e6 b6 3e 8b 1d 28 3d fe 3c 8c bc
       0.050614323 0.35723 0.0410438 -0.017118927

encoder.3.weight f4 [64, 128]
000000 2f 84 09 be 02 9f 32 bd c8 f2 05 bd e2 f4 88 bd
       -0.1342933 -0.043608673 -0.032702237 -0.06687333
000010 63 ef 04 3d 05 55 a5 3d 4e 47 3a 3c d7 31 86 bd
       0.03245486 0.08072857 0.011369539 -0.06552475
000020 77 43 22 bc b9 e0 a0 bd c3 b2 04 3d 72 12 44 3d
       -0.00990378 -0.078553624 0.032397043 0.047869153
000030 cb 50 2c be c4 72 89 bd 19 9f da bc 32 ad 71 bd
       -0.16827695 -0.06711343 -0.026687192 -0.059003063
000040 54 d2 9b 3d d2 0a b8 3c e5 be 9a bc 48 ac ba 3c
       0.07608476 0.022466097 -0.018889854 0.022787228
000050 42 7c e6 39 79 a0 4b 3d 8c b2 08 bb 8a fa ab 3c
       0.00043961598 0.049713586 -0.0020858375 0.02099349
000060 5b df 7a 3e cb f8 89 3d ea e7 a5 3d 2a f0 2f 3d
       0.24499266 0.067369066 0.08100875 0.042953648
000070 f6 a1 9b 3d f8 57 5c 3d ca 9e 27 3d 1d 83 c5 3d
       0.07599251 0.05379483 0.040922917 0.096441485
000080 51 5d 03 3e d1 a8 67 3d 0c 50 09 3d fd 4b 13 bc
       0.12828566 0.05655748 0.033523604 -0.008990285
000090 44 ce 9b bd f2 43 91 3d 17 2e 07 bd 1b f7 02 3d
       -0.076077014 0.07093038 -0.03300294 0.03197394
0000a0 b9 06 51 3d cc b0 99 3d 4d 78 25 3c c0 7d 53 be
       0.0510318 0.075044245 0.010099483 -0.20653439
0000b0 eb 5e b8 3c 72 4a 62 bc 8c 69 9c bd ea 4f 8b 3d
       0.022506198 -0.013811694 -0.07637319 0.06802352
0000c0 6f 3f ef 3c f4 45 ee 3d a9 0c 30 3d bb 2a 4a 3d
       0.029205052 0.11634436 0.042980824 0.049357157
0000d0 a8 e8 e6 3b a5 0f 83 3b ee be 6f 3c 97 d7 58 bc
       0.0070467778 0.0039996677 0.0146329235 -0.013234994
0000e0 76 c4 24 bd 7e 91 86 3d 66 2a 80 bd e2 48 97 bd
       -0.040226422 0.06570719 -0.06258087 -0.07386948
0000f0 d7 93 01 3e 56 3c a4 3d 06 14 a6 bc 79 b0 99 bd
       0.12654053 0.08019321 -0.02027322 -0.075043626
000100 82 c6 96 3d 76 39 00 3d b8 d4 a3 bb 9c 2b 7e 3d
       0.07362081 0.0313048 -0.0049997233 0.062053308
000110 78 f2 f3 3b f9 14 a4 bc 83 f3 7f 3d b0 a6 ea bd
       0.007444676 -0.020029532 0.06248809 -0.11457574
000120 b3 bf dc 3d ab 1a b8 bd 10 e5 07 3e c8 4c 40 3d
       0.10778751 -0.089894615 0.13270974 0.046948224
000130 ce 56 ff bc 8b 2d 8b 3d e8 25 ae bb 93 37 27 3d
       -0.031169321 0.06795796 -0.0053145774 0.040824484
000140 36 f6 f2 3c fe 5d b3 bc 0c 91 c4 3c 8f bb 11 3e
       0.029658418 -0.021895405 0.023994945 0.14231704
000150 6a 4b 80 3d 14 f7 c3 3d 49 68 86 3c 14 f1 cc 3d
       0.06264384 0.09568611 0.016407149 0.100069195
000160 0b 12 4a 3c 65 cf 77 3d 70 77 3a 3d 58 35 f2 bb
       0.012333403 0.06050052 0.04552406 -0.007391613
000170 be 08 10 3d 27 96 d8 3b f3 54 16 bc ee 23 9a 3d
       0.035164587 0.0066096964 -0.009175527 0.07526384
000180 de f3 b7 3d 95 e0 8b 3d fc 52 a0 bc 72 ef 44 3b
       0.08982061 0.06829945 -0.01957082 0.0030049947
000190 c4 62 66 3d 49 2c 59 bd e7 a5 f7 bd 4b 28 b9 3d
       0.056246534 -0.05302075 -0.1209219 0.090408884
0001a0 a7 be bf 3d e5 54 81 3d 5f 96 b4 3a 03 44 0e 3b
       0.09362536 0.063150205 0.0013777724 0.0021708019
0001b0 df 98 2a bd d5 3a 17 bd db 18 6e bd 7f ab c4 3d
       -0.041649695 -0.03692134 -0.058129173 0.09603023
0001c0 4e 60 de 3c c4 b8 55 bd 71 28 02 3d 51 05 11 3e
       0.027145531 -0.05217816 0.03177685 0.14162184
0001d0 45 11 87 3d ef 3b 23 3b 7d 11 d9 3c fa 9f 56 bd
       0.06595091 0.002490755 0.026497597 -0.05239866
0001e0 43 bf f8 bc f7 17 2a 3d da a8 8d 3d 8b e1 6f bd
       -0.030364638 0.04152676 0.069169715 -0.058564704
0001f0 f4 a3 41 bd 8d 43 0a bb 16 1b d3 3c 07 b3 8a bc
       -0.0472755 -0.0021097392 0.025769752 -0.01693107
000200 62 6e 9a 3c b1 cd a0 bc 75 58 e7 bc 3d af aa bd
       0.018851463 -0.019629331 -0.028240422 -0.08334205
000210 ef b9 66 bd 7e 41 b0 bd 72 67 ae bd 6e 15 66 3d
       -0.056329664 -0.08606242 -0.085158244 0.05617278
000220 0b ba e2 3c 12 49 b0 3c a1 94 13 bd 86 8c 99 3d
       0.027676603 0.021519218 -0.036030415 0.07497506
000230 78 89 ac bc 8e 5b 91 3d 58 ae 9c bc be 56 a7 bd
       -0.021061644 0.07097541 -0.019126102 -0.08170842
000240 e9 99 7f 3d 3d 06 97 bd f9 9e ab 3d f0 c8 fb bb
       0.06240264 -0.07374237 0.08379931 -0.0076838657
000250 e0 82 92 3d 54 da b1 3d 20 12 6d 3d 9d 36 8e bd
       0.07153869 0.08684221 0.057878613 -0.069440104
000260 db 9c 62 bd 7f 03 de 3c 5d 92 99 3d 5a f2 35 ba
       -0.05532537 0.027101276 0.0749862 -0.0006940715
000270 b3 be 56 bc 25 37 24 bd 2e 3a 2b bd f1 24 2e bd
       -0.01310699 -0.040091652 -0.04180353 -0.0425157
000280 7b 47 04 bd d7 1a 0a 3d 1d 81 8f 3b c4 56 01 bd
       -0.03229473 0.033717003 0.004379405 -0.031576887
000290 49 e6 f3 3c af 1c 78 bd 80 7a 9e bd ac 34 11 bc
       0.029772894 -0.06057423 -0.07738209 -0.008862656
0002a0 08 db 72 bc 7c e1 51 3d 8f d8 a4 bd f5 0c 12 3d
       -0.014822729 0.05124043 -0.08049118 0.035656888
0002b0 12 e4 b4 3c 62 07 d8 3c 12 09 0d 3d 4b 89 0a bd
       0.022081409 0.026370708 0.03443248 -0.03382234
0002c0 83 c0 98 3c 94 01 45 bd 5c 11 d6 bb a8 fb c3 bc
       0.018646484 -0.04809721 -0.006532831 -0.02392371
0002d0 39 46 2d 3d a6 e5 56 3d 7a c7 b4 bc 37 cf c0 bd
       0.042303298 0.052465104 -0.022067774 -0.09414523
0002e0 8d bd 3a 3d a6 c8 64 bd 40 94 39 bc 81 0b 63 bd
       0.045590926 -0.055855416 -0.011326849 -0.055430893
0002f0 cb 56 83 bb 90 87 ad 3d ea 19 dc bc 5a 33 df 3b
       -0.0040081493 0.08473122 -0.026867826 0.0068115415
000300 f6 33 44 bc a8 5c 1d 3d 10 00 80 3d 8c 4a 83 bd
       -0.011975279 0.038418442 0.06250012 -0.06410703
000310 8b 00 92 bd f2 66 c8 bd 78 50 e3 ba b0 d5 1c 3d
       -0.0712901 -0.0978526 -0.0017342707 0.038289726
000320 53 6f a4 bb fd 17 2d bc 23 c4 20 3d 0a c3 d5 bd
       -0.0050181537 -0.010564801 0.03924955 -0.104375914
000330 a3 0b d6 bc 12 c4 a3 3d 0c 71 5f bd 97 37 75 bd
       -0.026128596 0.07996382 -0.05455117 -0.059867468
000340 ac 72 80 3d 8e fb ac 3d c2 d6 8c 3d fd cd a3 3d
       0.06271872 0.08446418 0.06876899 0.079982735
000350 7a da 1f 3d cd 17 86 3d f5 6f f6 ba bf af e7 bc
       0.039026715 0.065475084 -0.0018801676 -0.028282044
000360 2d f5 99 3c a3 bb 7d 3d e1 1b 8a bd 79 b7 63 bb
       0.018793667 0.061946522 -0.06743599 -0.003474681
000370 eb ee 81 3d 3a 92 88 bd 4e 19 9c bd 52 34 94 3c
       0.06344398 -0.066685155 -0.07622014 0.018091355
000380 83 cb 35 bd bc 34 c3 bd 78 7a 25 3d 00 7e 4c bd
       -0.044383537 -0.09531543 0.0404 -0.04992485
000390 f9 d4 96 bd 83 8f 72 bd e0 3a 44 bd c8 14 75 bd
       -0.0736484 -0.059218895 -0.04790771 -0.05983427
0003a0 00 9a 84 bd e1 93 27 bd f2 a9 c0 bd 32 70 ff bc
       -0.06474686 -0.040912513 -0.094074145 -0.031181429
0003b0 c0 55 cd bd e2 d5 b6 3b c0 69 6b 3d e9 2d 9f bd
       -0.10026121 0.005579696 0.057473898 -0.077724285
0003c0 ff 37 d9 bd b0 e8 ba bd 63 2a 5c bd db ae 9c 3c
       -0.106063835 -0.09126413 -0.05375136 0.019126346
0003d0 01 c4 bf bc da 3d 8f bb 0d 51 df bc e3 64 4a bd
       -0.023408892 -0.004371387 -0.027260328 -0.04941262
0003e0 9d 18 57 bc b5 ed 95 bd 2b a5 7a 3b 06 f4 80 3c
       -0.013128427 -0.0732073 0.003824542 0.01574136
0003f0 1f 17 b4 bd 09 a4 0b 3d 51 5f 16 3c f6 e9 6c 39
       -0.087934725 0.034091983 0.009177999 0.00022593871

encoder.3.bias f4 [64]
000000 dd 0f a4 3d 0e 27 c9 bd 98 f8 39 3e 76 31 49 3d
       0.08010838 -0.09821902 0.18161237 0.049119435
000010 46 b6 fc 3d 47 bc 13 3e 2e 4e ce 3d af 57 22 3e
       0.123394534 0.14427291 0.10073505 0.15853761
000020 7a 33 9b 3a 3e 71 38 3e d0 54 d3 be ab 5c b2 bd
       0.0011840903 0.18011948 -0.41275644 -0.08709081
000030 6a 4c 2a 3e 1d 73 39 3e bb 7e 08 3e 48 3c 24 3e
       0.16630712 0.18110318 0.13329594 0.1603862
000040 e6 9d f4 3d a1 e1 8e bc c7 65 a3 3d 4b c1 bd bc
       0.11944179 -0.017441573 0.07978397 -0.023163458
000050 73 a5 14 3f c2 20 1b 3e 0f b3 78 3d 17 42 5b bd
       0.58064955 0.15149215 0.06071764 -0.053529825
000060 40 c4 ec bd 1a 7b 1a 3e 67 50 3e 3e de c5 97 39
       -0.11560869 0.15086022 0.18585359 0.00028948387
000070 77 a6 7e 3d 2c e0 3d bc c2 87 af 3c 93 f4 5d 3d
       0.062170472 -0.011589091 0.021427039 0.054188322
000080 fa 1f 2e 3d da 63 b8 3d 96 87 be 3e 4a bc 16 3e
       0.042510964 0.0900342 0.3721282 0.14720264
000090 50 60 04 bd d8 1e 8e 3d 7c 09 a1 bd 3c fb c3 3d
       -0.032318413 0.06939477 -0.07863137 0.095694035
0000a0 d3 ff 39 3d 2c f4 55 3e 5c c0 1e 3f 76 3d 3e bd
       0.04540999 0.20893925 0.6201227 -0.046445332
0000b0 6f a3 6b bd ee cc 2a 3e 6c 24 fc bc 18 a7 a0 3e
       -0.05752891 0.16679737 -0.030779086 0.31377482
0000c0 4b 1a 43 3e 02 06 4f 3e 2f 8b 90 3d 59 de b4 3e
       0.19052999 0.20217136 0.07057797 0.35325888
0000d0 35 bb 3b 3e e1 07 41 3e b7 d2 8b bc 80 57 90 3c
       0.18333133 0.18850662 -0.01706825 0.017619848
0000e0 d2 93 b9 3d 76 6c 88 3d d9 a2 ba 3d 0a c2 85 bd
       0.090613976 0.06661312 0.09113092 -0.06531151
0000f0 30 b2 c4 bd d0 bb df 3e e9 76 09 bd 4d 81 2a 3e
       -0.09604299 0.43697977 -0.033560667 0.16650887

encoder.5.weight f4 [12, 64]
000000 88 96 be bc 80 4e 76 3d 10 c8 c9 3b fd f2 0f be
       -0.023265138 0.060133457 0.0061578825 -0.14057536
000010 21 96 28 3d bf a2 a5 3d f7 39 b1 bd fa b6 04 3e
       0.0411588 0.08087682 -0.08653634 0.12960425
000020 1d 85 df bd c4 8c 7c 3b fa 1c 66 bc 91 b0 f7 3d
       -0.10914061 0.0038536051 -0.0140449945 0.12094224
000030 7f ea 6b bd ea ac b1 bd e3 19 e5 bd 47 0c 85 3d
       -0.05759668 -0.08675559 -0.11186578 0.06496482
000040 79 99 ae 3d 85 eb c7 bd f4 52 6d be f8 9a 09 3e
       0.08525366 -0.09761719 -0.23176175 0.13438022
000050 44 9a 48 be 6d 6a 03 be d0 76 c5 bd 8f a5 bb 3c
       -0.19590098 -0.12833567 -0.09641802 0.022906093
000060 f9 a9 a7 3d f7 2e 7b 3d 9f e1 e8 ba 4b bb d1 bc
       0.081867166 0.061324086 -0.0017767436 -0.025602004
000070 eb 03 99 3c 1f c8 47 3d 0a 99 7c bd 7e c2 3e bc
       0.018678626 0.048774835 -0.061669387 -0.01164305
000080 95 f5 05 be e7 54 09 be 03 07 f1 bd 62 e2 d8 3d
       -0.13081963 -0.13411294 -0.117689155 0.10590054
000090 fa e4 1c 3c bf cf fe bc 22 f3 8e bd 38 be 67 bc
       0.009576077 -0.03110492 -0.06979968 -0.014144473
0000a0 db b8 84 3d 0b 1e 68 3d a8 5a 80 3c 03 51 5b bd
       0.06480571 0.056669276 0.015668228 -0.053544056
0000b0 7c 9f c1 bd ae 8a cc bb 1e a8 83 3d 3c 77 a1 3d
       -0.09454247 -0.006242118 0.0642855 0.0788407
0000c0 a4 07 b6 3d 9a 64 cf bb 40 01 c4 3c 5b 11 06 3e
       0.08888176 -0.0063291313 0.023926377 0.13092558
0000d0 a6 c8 eb bd ea 04 ff bd 01 6a bf bd 37 5e 50 3d
       -0.1151288 -0.12452109 -0.093463905 0.0508711
0000e0 01 9f 9d ba 11 b6 11 ba 41 8b 0a 3e 24 33 41 3d
       -0.0012025536 -0.0005558441 0.13529684 0.047167912
0000f0 d8 10 f3 bc e1 bd 0c be b6 24 cd 3d 9c 6c 65 bd
       -0.029671118 -0.13744308 0.10016768 -0.05601178
000100 75 25 bd 3d 30 be 40 3c 26 dc eb bd b7 2d ef 3c
       0.0923566 0.011764094 -0.11516599 0.029196603
000110 6e b4 ae 3c 00 c1 50 bd cf 66 31 3d f4 99 62 3d
       0.02132627 -0.05096531 0.043310937 0.055322602
000120 d6 41 e0 bd fb e0 b5 3d 6d bc 09 3b 6f b5 e0 3d
       -0.10950057 0.08880802 0.0021016852 0.10972106
000130 21 30 1e bc 62 e7 a5 3d 8d f9 be bd 1e b6 82 3d
       -0.0096550295 0.081007734 -0.09324942 0.06382392
000140 52 06 6e 3d a0 10 3c bd 91 07 45 bd 38 59 d9 3d
       0.058111496 -0.045914292 -0.04810292 0.1061272
000150 c7 29 3a bc ea d0 95 3d e1 31 85 bd 42 9f 13 3c
       -0.0113625 0.07315238 -0.06503654 0.009010138
000160 bc b9 02 3d 23 d5 2e bc ed a7 f0 bd 5a 06 06 bd
       0.03191541 -0.010670933 -0.11750779 -0.0327209
000170 92 bb 0b bc 36 b0 96 bd d8 83 69 bd 8f 2c 8b bc
       -0.008528607 -0.07357828 -0.0570105 -0.01698902
000180 a2 1c 30 3d ed 22 0f be 9b ab fe bd 85 87 04 be
       0.042996056 -0.13978167 -0.12435075 -0.12942322
000190 b9 67 10 bd 4c 6d b8 3d ad a8 cd bd 0b 84 f9 ba
       -0.035255168 0.09005222 -0.10041938 -0.0019036544
0001a0 8e 14 a9 3c 7a 9d 09 be 62 b1 d2 b8 db 3f db 3d
       0.020639684 -0.13438979 -0.000100466204 0.10705539
0001b0 11 a0 1d bd 0b f7 ab bc 67 c6 f1 bd bc 47 97 bd
       -0.03848273 -0.020991823 -0.1180542 -0.07386729
0001c0 9b 9b a5 3c 90 94 da bc 44 50 ed bd 31 1c cb bd
       0.0202158 -0.026682168 -0.11587575 -0.099174865
0001d0 2b bf 41 bd d1 0c 09 bd 81 d0 0d bd 8f ce f5 3c
       -0.047301453 -0.03345949 -0.034622673 0.030005721
0001e0 4f c5 3e bd 89 63 91 3d 88 82 d3 3d 9c 93 9b 3d
       -0.046574887 0.07099063 0.10327631 0.07596514
0001f0 b7 54 4e bd 63 7b af 3d b8 72 df bd e4 74 20 bd
       -0.05037376 0.08568456 -0.10910553 -0.039173976
000200 81 10 33 bd 08 47 d2 bd 88 db 71 3d 77 54 30 bd
       -0.04371691 -0.102674544 0.059047252 -0.043049302
000210 8a 09 1b bd f6 42 63 bc 9e e0 46 bc d0 56 ed 3c
       -0.037850894 -0.013870945 -0.012138514 0.02897206
000220 de 8c 3c bd c9 ee eb 3c 4d ba 42 bd 8c 75 ad bc
       -0.04603278 0.028800385 -0.04754095 -0.021174215
000230 7c 9a 86 bd f1 68 04 be 08 46 d1 3d 2f e4 b9 bd
       -0.06572434 -0.12930657 0.102184355 -0.09076726
000240 83 a7 b5 3d 3e d7 ad 3d fb 88 32 3d 3d 33 a2 3d
       0.08869841 0.0848832 0.043587666 0.07919929
000250 df 37 6c 3d 69 8a 03 3c 0d b0 6d 3d 44 88 cd bb
       0.05767047 0.008028605 0.058029223 -0.0062723476
000260 de 96 d6 bd f3 8d e9 bd 60 3e 84 3d 9f f8 2c 3d
       -0.104779944 -0.11404028 0.064572096 0.04222929
000270 b0 93 84 bc 3e 1a ed bd d5 72 03 bd d9 4e 59 3d
       -0.016183704 -0.11577271 -0.032091934 0.05305371
000280 04 80 24 bd 48 29 c3 bd 3c ca e5 3c ec 97 9c bc
       -0.040161148 -0.09529358 0.028050534 -0.01911541
000290 69 7f 22 3d e7 f7 98 bd 40 51 73 3b d7 32 38 bd
       0.03967229 -0.074691586 0.0037127286 -0.04497036
0002a0 79 29 b9 3d d3 36 f3 bd 7a 6d a2 bd c3 76 95 bd
       0.090411134 -0.11875691 -0.07931037 -0.072980426
0002b0 ff 6d 10 bd ae 48 05 be 72 9f b9 bd 7e 6b a9 3d
       -0.03526115 -0.13016006 -0.09063615 0.08272456
0002c0 21 87 59 3c ab 0c a8 bd df cb 2f 3d d1 fd 67 bc
       0.013276846 -0.08205541 0.042919036 -0.014159636
0002d0 34 6a b7 3d ef 1a 12 be 4f dc 8b bb 15 d3 96 bd
       0.089558035 -0.14268087 -0.004268206 -0.073644795
0002e0 f3 49 b6 3d 17 9b dc 3d 57 59 81 3d 2b ed 9f bd
       0.089008234 0.107717685 0.06315868 -0.07808908
0002f0 6f f6 41 bd f6 b0 70 bd e3 b6 b2 bd 40 79 35 3d
       -0.047354158 -0.058762513 -0.08726289 0.044305086
000300 62 15 c1 bd fd 96 a3 3d 47 a5 97 bb 2d 71 22 bd
       -0.094279066 0.07987783 -0.004627857 -0.039658714
000310 c1 20 95 bd f3 a1 1e bd b5 23 f1 3d 8d 3b 43 bd
       -0.07281638 -0.038728666 0.11774389 -0.047664214
000320 41 e5 8e bd 88 e7 bf bd 38 1f 74 3e f5 91 8f bd
       -0.069773205 -0.09370333 0.23840034 -0.07010261
000330 76 f8 cf 3c 85 77 86 bd c0 2c 14 be fa 29 60 3c
       0.02538703 -0.06565765 -0.14470196 0.013681883
000340 ce a8 00 bd c3 df 0d be 44 24 59 bd 84 a5 de 3e
       -0.031410985 -0.1385489 -0.0530131 0.43485653
000350 08 65 b3 3d ee ec 64 3e f1 1a 24 bd cb d1 af 3d
       0.087595046 0.22356007 -0.040064756 0.08584937
000360 d9 a2 ba bd 72 b0 db 3d ee 7c 45 3e cc 67 c1 3d
       -0.09113092 0.10727014 0.19285938 0.09443626
000370 13 b9 ae 3c 78 47 be 3d 73 ad 97 bd 92 2b e9 3d
       0.021328485 0.09290975 -0.0740613 0.113852635
000380 96 b2 25 3e d8 08 e1 bd f4 c6 46 3e 76 22 d2 bd
       0.16181406 -0.10988015 0.19411832 -0.10260479
000390 78 60 ab be 1e 17 99 bd 06 a2 15 bd 6d 18 37 3e
       -0.33472037 -0.074751124 -0.03653147 0.17880411
0003a0 f6 64 99 3d e9 db 43 3e 3f 7d f4 3d 5b 42 ba 3d
       0.0748996 0.19126858 0.11937951 0.090946876
0003b0 3d d6 91 bd e8 86 b6 3d 33 4e 6f 3c 23 93 b4 be
       -0.07120941 0.0891245 0.0146060465 -0.35268506
0003c0 d3 ce 29 3e da 54 9b 3d 55 36 6b 3d 93 af a5 be
       0.16582803 0.075845435 0.057424862 -0.32360515
0003d0 f3 fa d3 3d 37 19 11 3e 13 d9 0a 3d 1d 58 86 bc
       0.10350599 0.14169775 0.033898424 -0.016399438
0003e0 85 65 77 3e a3 5e ec ba 3b ef e1 be 02 5e 5b bc
       0.2415982 -0.0018033575 -0.4412783 -0.013389112
0003f0 45 6c f9 3d 15 3a 0a bf 02 e5 e0 3d 86 17 48 bd
       0.12178854 -0.53994876 0.1098118 -0.04885056

encoder.5.bias f4 [12]
000000 54 0c a6 3b 67 30 b9 3d 0a 2d 38 bc 35 cb e9 3d
       0.0050673876 0.09042435 -0.011241207 0.11415712
000010 49 84 de 3d e3 b7 eb 3d 99 5b 04 3d cd 35 fd 3c
       0.10865075 0.11509683 0.032313917 0.030909443
000020 fc de fd 3e fd 19 9c 3d e1 83 0c be 77 aa 5a bc
       0.49584186 0.07622144 -0.13722183 -0.013346306

encoder.7.weight f4 [3, 12]
000000 3b b3 56 3e 07 4b 01 bd b4 10 0a be 94 dd a0 be
       0.20966808 -0.031565692 -0.13482934 -0.3141905
000010 c2 5b b5 3e 7a bc 48 3e 88 b2 7a be 6c b3 a9 3e
       0.35421568 0.19603148 -0.24482167 0.331447
000020 d0 16 40 bd 0b 68 8c be 22 22 0d be bc 9e 82 3e
       -0.046896756 -0.27423128 -0.13782552 0.2551173
000030 51 cf 34 be 78 1e cf bc 4e b1 26 3d f1 da 9d 3e
       -0.1765721 -0.025283083 0.040696435 0.30831102
000040 11 45 1e 3d 29 c2 87 3e 9c 0b 5e 3e e3 95 51 3e
       0.038640086 0.2651532 0.21684116 0.20467333
000050 78 da fe be 98 ee 73 3d 4d 48 58 bd 8e 17 ab be
       -0.49776053 0.059553713 -0.052803326 -0.33416408
000060 a2 9a 78 bd 8f 29 e6 3c b1 ac 36 3e ad 52 0d bd
       -0.060694344 0.028095989 0.17839314 -0.034502674
000070 15 75 23 3f df 3a 9a be 69 f0 94 3e 68 58 36 3c
       0.6385053 -0.3012304 0.29089668 0.011129476
000080 da df 3b be 3c b7 6b 3d a4 dc 1a bc f8 ab 96 be
       -0.18347111 0.057547793 -0.009452019 -0.29428077

encoder.7.bias f4 [3]
000000 e5 3b 61 3d 10 7c 86 3e dd 7d 82 3d
       0.05498876 0.26266527 0.06371663

decoder.0.weight f4 [12, 3]
000000 1a 99 e0 3e 90 2f a2 3d 10 b9 df be fa 6f 23 be
       0.43866807 0.07919228 -0.4369588 -0.15960684
000010 c5 94 14 3f 59 8d 17 bd 86 6c 8a be 76 b7 fe 3e
       0.58039504 -0.037000034 -0.27035922 0.49749345
000020 77 a5 45 3d 09 01 0e 3f 86 5a 2e be b8 2c b0 3d
       0.048253503 0.5547033 -0.1702672 0.086022794
000030 74 f4 7f 3e 55 d0 ab 3e 61 fa 22 3f 73 eb d2 3c
       0.24995595 0.33557382 0.636633 0.025747037
000040 a4 ab 98 3e 2a e7 1b be 1b 21 6e 3e a5 1d 58 be
       0.2981845 -0.15224901 0.23254816 -0.21105058
000050 64 da 07 bf de e0 f6 be 3f 79 11 be be 7c 1e bf
       -0.5306761 -0.48218435 -0.14206408 -0.6190909
000060 43 23 94 3e 8a b0 f1 3e 88 ea 05 bf 27 c8 21 3f
       0.28933153 0.47205 -0.5231099 0.63196033
000070 95 41 ab bc 8d a5 d1 3e 2b f6 d0 bd 84 1f ea 3e
       -0.020905295 0.40946618 -0.10203203 0.4572717
000080 3e 99 96 be d6 32 bc 3d 07 f9 35 be 21 e9 70 3f
       -0.2941379 0.09189384 -0.17770778 0.94105726

decoder.0.bias f4 [12]
000000 c1 a4 ba be 94 fe 1c bf 8d 65 99 3e 41 0e f6 be
       -0.36453822 -0.61325955 0.2996029 -0.4805775
000010 ef 45 db 3e 3f e5 10 bf 64 fd 13 bf 5d 4d 10 3f
       0.42826793 -0.565998 -0.5780852 0.56368047
000020 0f d8 db 3e 6f bd 16 bf 46 0d 45 3f 59 eb 37 3f
       0.42938277 -0.588828 0.7697338 0.7184349

decoder.2.weight f4 [64, 12]
000000 4b 4f 3a bc 1a 63 57 be 19 49 6c bf 8b ef 55 3e
       -0.011371444 -0.21033898 -0.9229904 0.2089216
000010 f8 fa 0b bf 2b bc 28 bd bd 1b 10 3f a1 e0 94 3e
       -0.5467982 -0.041195076 0.56292325 0.29077628
000020 47 a2 3b 3c b7 86 80 be 19 e3 89 be a9 7d 2c be
       0.011452264 -0.2510278 -0.26931074 -0.1684481
000030 83 f7 64 bd e4 aa 5b bf b0 5d 11 bd 2f 4b 41 3e
       -0.055900108 -0.85807633 -0.035489738 0.18876337
000040 58 62 87 be ad 48 7c be 4b 0a 19 3e 01 85 ae be
       -0.26442218 -0.24637099 0.14945333 -0.3408585
000050 2b 5f 6f bc ee 44 32 3e 6f ba a7 bb fc 79 10 3e
       -0.014610092 0.17409107 -0.00511866 0.14109033
000060 6f d8 98 3e 6f 88 00 3e 7f 0d 82 be 66 60 d6 3e
       0.29852626 0.12552045 -0.25400922 0.4187042
000070 c1 32 3e bd 31 9e 93 be cd a0 a6 3e b8 ed 4d be
       -0.04643512 -0.28831628 0.32544556 -0.20110214
000080 7b 5a f1 3d af a8 b0 3e 40 ab 0d 3e 8f a4 bb 3e
       0.11784836 0.34503695 0.13834858 0.36648986
000090 48 95 e5 3d 23 95 d3 be 3a e5 d1 bb 54 d0 cb 3e
       0.11210114 -0.4132472 -0.0064054998 0.3980738
0000a0 34 de 94 3e 1a c3 f0 bd 62 a6 9b 3e 93 8a 5b be
       0.29075778 -0.11755963 0.30400378 -0.2143958
0000b0 5b 6e 2a bc d4 06 89 3e ad e2 84 bd 65 5a bc be
       -0.010402287 0.26763022 -0.064885475 -0.36787716
0000c0 d6 0b ce 3d 9c 9f 64 3e 3b 99 36 3e c4 4a 80 be
       0.10060851 0.22326511 0.1783189 -0.25057042
0000d0 1f 1b fd be 69 d4 4f 3e 58 00 19 3e 2d 54 90 be
       -0.49434754 0.20295872 0.14941537 -0.2818922
0000e0 ee d0 52 3e d8 15 07 bf 71 94 b8 3e f4 b6 3b 3e
       0.20587513 -0.52767706 0.36050752 0.1833151
0000f0 50 ab b2 bd f9 0f 51 3d f8 ce 2e be cc 51 27 bd
       -0.087240815 0.051040623 -0.1707114 -0.040849492
000100 e8 89 f0 bd 5b c7 70 3d c6 7e 61 be 52 02 a9 3d
       -0.117450535 0.05878387 -0.22021016 0.08252396
000110 4a a4 2d be 25 d9 3c 3c f0 56 8c be 80 e2 16 bd
       -0.16957203 0.011526381 -0.27410078 -0.0368371
000120 34 6e 5a 3d 08 f4 95 bd f6 b2 0f 3e 34 19 a4 bc
       0.053327754 -0.07321936 0.14033112 -0.020031549
000130 dd d6 95 3e 33 59 44 bd 46 f7 52 be 4d 4f 28 be
       0.2926549 -0.04793663 -0.2060214 -0.16436501
000140 37 a6 ac 3e 2c 01 d5 be bd fb 31 bd a0 1c ee 3d
       0.33720562 -0.41602457 -0.043452967 0.116265535
000150 9f a5 90 be a0 54 6d be 43 98 11 be 46 8f 7f bd
       -0.2825136 -0.23176813 -0.1421824 -0.062392496
000160 98 1e 92 be d0 68 b9 bd 1e a5 29 be 71 93 99 3d
       -0.28538966 -0.090531945 -0.16566893 0.07498825
000170 71 de e3 3d 79 1f 06 be 89 ac de bc 06 99 87 3e
       0.11126412 -0.13097943 -0.02718188 0.26483935
000180 61 1a 77 be 89 38 56 be e3 0e 3f bd 26 a8 cb be
       -0.24131157 -0.20920004 -0.046645056 -0.39776725
000190 c9 38 8d 3e f6 81 86 3e 33 89 c0 3d c9 45 60 be
       0.27582386 0.26271027 0.09401169 -0.21901621
0001a0 b6 38 8d 3e 28 ee 9f bd a2 15 59 3e 33 d5 ea 3d
       0.2758233 -0.078090966 0.21199659 0.11466446
0001b0 d5 36 a6 3d b6 38 75 be 7c d8 8f be 98 dc 4e 3d
       0.08115927 -0.23947415 -0.28094852 0.050503343
0001c0 60 8b b1 bd 16 eb fb 3d 87 7f 93 3e 26 e3 15 be
       -0.08669162 0.123006985 0.28808233 -0.14637432
0001d0 2b be 99 bc 5d fc 52 3e 97 74 96 3e 60 be ae bd
       -0.018767437 0.20604081 0.29385826 -0.08532405
0001e0 f1 4d 0f 3d b8 b2 da 3d c8 20 1a be c8 18 ca be
       0.03498644 0.10678619 -0.15051568 -0.39472032
0001f0 3d 05 a3 3e e3 a5 8c be 1a ce 52 be 96 32 07 bd
       0.31839934 -0.27470312 -0.20586434 -0.033007227
000200 26 e7 e7 3d 4f 9d 99 3c 6c 5f ae 3e 49 04 21 be
       0.11323385 0.018751768 0.34057176 -0.15724291
000210 c5 84 80 be 69 28 22 3e 56 05 a0 3e ea 81 00 bc
       -0.25101295 0.15835728 0.3125407 -0.007843474
000220 1b ed bb 3d 6c ed 2e 3e cd 2a 66 be d0 72 c1 be
       0.09176084 0.17082757 -0.22477265 -0.37782907
000230 79 68 9d 3e b2 b2 6f be b7 4d a1 3d f5 5d ed 3e
       0.3074377 -0.2340801 0.07876151 0.46360746
000240 6d a6 25 3e 4d 76 f9 be 1a 40 73 3e 60 21 d9 bd
       0.16176768 -0.4872307 0.23754922 -0.10602069
000250 cc bf 30 3e f8 a3 a0 be 07 0c 5d be da f5 d1 3c
       0.17260665 -0.31375098 -0.2158662 0.025629926
000260 e2 f7 71 3e 2b 8a 44 bd 18 09 12 3e d3 8f 34 be
       0.23629716 -0.04798333 0.14261281 -0.1763299
000270 77 e7 86 3e 02 67 1a be fe f1 c9 bb 95 3a c6 bd
       0.2634847 -0.15078357 -0.006162881 -0.096791424
000280 28 78 0d bf 4b 61 5e be a8 04 a9 3e 59 3f c8 bc
       -0.5526147 -0.21716802 0.33011365 -0.024444269
000290 e4 56 96 3e b1 e4 8d 39 8f 0c b3 bc 97 fd b9 3d
       0.29363167 0.00027064004 -0.021856574 0.090815715
0002a0 0d 79 78 be 2e 27 01 3f 02 47 87 3e 92 e7 c1 be
       -0.24264927 0.5045041 0.26421362 -0.37871987
0002b0 2b 59 d6 bc ff 97 cb 3e d9 0e 66 3d 19 7c f5 bb
       -0.026165565 0.397644 0.056166504 -0.0074916002
0002c0 1e 0a 92 3e 10 93 29 bd bb e9 81 3e ff a8 83 be
       0.28523344 -0.041400015 0.25373635 -0.2571487
0002d0 e4 2c 83 3e 85 7b 83 3d 2a cf 1c 3d 3a 2b 2b be
       0.25620186 0.06420044 0.038283505 -0.16715708
0002e0 b2 c9 26 be c3 b1 34 3e c2 dc 5c be b2 80 99 3d
       -0.16287878 0.17645936 -0.21568587 0.0749525
0002f0 7c 82 75 be 90 8c 93 bc a1 b2 43 bd 17 15 cb 3c
       -0.23975557 -0.018011361 -0.047777776 0.02479033
000300 e3 f5 8b be e5 00 d3 bc 8b 30 04 be 51 6f a4 bd
       -0.27336034 -0.025757262 -0.12909143 -0.080290444
000310 3e d6 dc 3e c8 e5 4e 3e 84 e9 2d 3e ce 94 13 be
       0.43132204 0.20204842 0.1698361 -0.14412233
000320 a5 81 73 3e 26 f2 92 3e 4a 80 71 3e 16 c8 84 3d
       0.23779924 0.2870037 0.23584095 0.06483476
000330 20 66 28 be 30 a6 a8 3e cb aa 81 3e 9e bd 54 3e
       -0.16445208 0.3293929 0.25325617 0.20775458
000340 47 35 9e be e4 55 02 3e 89 a8 15 3e cc 00 9b 3d
       -0.30900022 0.12728077 0.14615072 0.07568511
000350 ee f9 d7 3d b3 31 2b 3c a0 5b 1c be 2d c8 23 bf
       0.10545717 0.010448861 -0.15269327 -0.6397732
000360 02 1c ea 3d 1f 99 28 bf 3d 44 e3 3d 60 6e b2 be
       0.11431123 -0.65858644 0.11097 -0.34849834
000370 c3 bb 81 be 36 ba 76 be 63 84 87 bc bb cb 09 3f
       -0.25338563 -0.24094471 -0.01654262 0.53826493
000380 ba 29 5e be 7e 2d 76 be f9 f9 19 bc 68 ac 04 be
       -0.21695605 -0.24040791 -0.009397977 -0.12956393
000390 c0 52 6d 3e 9b f9 02 3e 59 bf 23 3e 2e c8 05 bf
       0.23176098 0.1279053 0.15990962 -0.52258575
0003a0 4c d7 98 bd 5d f4 98 3e 06 ab 1d 3e 51 5b c7 bd
       -0.074629396 0.29873934 0.15397272 -0.09734214
0003b0 c4 ce e6 3d fd 60 b3 be 40 72 4c 3e 2d 7c 31 3d
       0.11269906 -0.35034934 0.19965458 0.043331314
0003c0 92 8f 16 3e 0d 48 d1 bd 6a 18 ec bd 84 a3 23 3e
       0.14703205 -0.10218821 -0.11528094 0.15980345
0003d0 8d 4c b2 3d 30 89 7e 3e 29 20 15 3e 0f 36 91 3e
       0.08706007 0.2485702 0.1456305 0.28361556
0003e0 82 2e 53 3b 10 c6 75 bd a3 52 8c bd c7 cf 01 3f
       0.0032223766 -0.06000334 -0.06851699 0.5070767
0003f0 87 45 8a bd 9b 4d 61 3d 80 fb 2a be f5 63 b8 bd
       -0.067515425 0.05500565 -0.16697502 -0.0900344

decoder.2.bias f4 [64]
000000 47 7a 88 3e 57 a7 f0 3e 9b b7 9f be 2c d8 b8 3e
       0.2665579 0.4700267 -0.31194767 0.36102426
000010 f3 25 fe bd e4 27 91 be df ad c5 3e e5 90 6e be
       -0.12409582 -0.28350747 0.38609216 -0.2329746
000020 a5 10 bb 3e 71 fe d3 3d b0 71 61 3e 28 1e 56 3e
       0.36536136 0.10351265 0.22016025 0.20909941
000030 45 fd 5f 3e 68 1a 8e 3e c1 40 b2 be 09 65 85 be
       0.21873958 0.2775452 -0.34815028 -0.26053646
000040 e0 d7 a1 bd 7a ac fb be f5 1c b8 3e 59 9c 46 3d
       -0.07902503 -0.49155027 0.35959592 0.04848895
000050 e5 d9 fa be 06 6a 51 3e f3 e5 47 3e 56 87 84 be
       -0.48994365 0.20450601 0.19521312 -0.25884503
000060 44 48 96 3e a2 b7 37 be 3c 01 c8 3e 28 bf ee 3e
       0.2935201 -0.17941144 0.39063442 0.46630216
000070 86 0e f0 3d 25 32 3a 3e 83 08 b1 3e c4 37 14 be
       0.1172152 0.18183191 0.34576806 -0.14474398
000080 f3 ae 88 3d 99 12 a6 3e 2d 64 b7 be ef 55 74 be
       0.06673994 0.32436064 -0.35818616 -0.23860906
000090 59 ef 98 3f 95 25 b5 3e dc 6e cf 3d 7a ed 4a 3d
       1.1948043 0.35380235 0.101285666 0.04954288
0000a0 be fa c5 3e c2 02 d4 3e c6 51 01 3e dd f0 35 3e
       0.38667864 0.41408354 0.1262885 0.17767663
0000b0 7e 8c ac be be b2 3b 3e 3d 3b 35 3e c8 1a c3 3e
       -0.33700937 0.18329903 0.17698379 0.3810637
0000c0 0e 38 cd be 83 97 eb 3d be b7 98 3e 3d ac 41 be
       -0.4008183 0.11503508 0.29827684 -0.1891336
0000d0 0c a5 00 bd a8 9d a1 3e 27 3a 93 be 76 ac ab bd
       -0.0314074 0.31565595 -0.28755304 -0.08382504
0000e0 d0 2d ef be 9a 4f 0d 3e c3 2b 65 bd eb e4 f8 be
       -0.4671464 0.13799897 -0.055949938 -0.4861215
0000f0 0d f4 08 bf 0f 63 09 3f 7e 13 66 3e 2e 77 31 bf
       -0.5349739 0.53666776 0.22468373 -0.6932248

decoder.4.weight f4 [128, 64]
000000 7b d0 bd 3d 20 bb d5 3d 72 e1 4c 3b 81 68 c8 be
       0.0926828 0.10436082 0.0031262306 -0.3914223
000010 45 cd 7d 3e c0 63 33 3d 6d c9 1c 3e f0 ef 4d 3c
       0.24785335 0.0437963 0.15311213 0.012569413
000020 16 d3 5b bd fd 66 4b be 1d 5a 4d 3d 1e 05 54 3d
       -0.053668104 -0.19863506 0.050134767 0.051762693
000030 71 ad 30 bd 29 10 02 bd f0 95 e5 3d b8 85 a8 bd
       -0.043134157 -0.031753693 0.11210239 -0.0822863
000040 b0 e7 52 bd 03 ed 55 3e e2 6d 1c 3d a4 ab 36 3e
       -0.051490486 0.20891194 0.03819073 0.17838913
000050 81 fc 87 be 5a 0c e2 3d 51 66 87 3d 31 da dc 3e
       -0.26559833 0.11037512 0.06611312 0.43135217
000060 f4 77 f6 3d cf bd b9 3e 82 a2 12 3d 4c 11 21 3e
       0.12034598 0.36277625 0.03579951 0.15729254
000070 65 12 a7 3d 7a 7e f7 bd 83 5e 0d 3e 77 cf 4b be
       0.08157805 -0.1208467 0.13805585 -0.1990336
000080 0d e1 e1 3d c5 fd ae bd e7 ec 99 bc fb 30 6b bb
       0.11029253 -0.085444964 -0.018789722 -0.003588735
000090 e1 ea 13 3f e8 7b f2 3d d0 19 f8 3d 63 df 4f 3e
       0.5778027 0.118400395 0.12114298 0.20300059
0000a0 44 23 9f be 8a 1b a2 bd a9 4f 8a be 48 07 2f bd
       -0.31081593 -0.07915409 -0.270139 -0.042731553
0000b0 16 40 6e 3d 1c 5a 92 3e 07 7f 18 3e 5d 98 90 bd
       0.058166586 0.28584373 0.14892207 -0.07060311
0000c0 de d0 76 be f1 a0 52 bf aa b2 85 3d 30 74 7f 3e
       -0.24103114 -0.8227683 0.06528218 0.24946666
0000d0 37 58 2c 3f d9 70 cd 3e 5e 60 12 bd 9a 03 42 bd
       0.67322105 0.40125158 -0.035736434 -0.047366716
0000e0 e8 38 f1 3d e9 e5 ce bb 41 ab cf 3d d4 be 65 be
       0.11778432 -0.0063140285 0.10140086 -0.22436076
0000f0 2b e6 76 3e 02 29 10 3f ac 10 c5 bd 66 8f 36 bf
       0.2411124 0.5631257 -0.096223205 -0.7131256
000100 90 df 18 3e 1a e5 34 be 67 43 87 3d 1c 0f 3b 3d
       0.14929032 -0.1766552 0.06604653 0.045668706
000110 fa 04 f3 3d d0 d6 cb bc 81 e3 a9 3d 00 6e 15 bd
       0.118661836 -0.024882704 0.08295346 -0.036481857
000120 08 c4 fe 3c 1f 23 0f 3c 28 ef 8e 3d 25 05 ed 3c
       0.031099334 0.008736401 0.06979209 0.028933117
000130 31 35 e7 3d fe 78 21 3d e6 23 66 3d 98 96 96 3d
       0.11289442 0.039422028 0.05618658 0.07352942
000140 8b 53 d4 3d 8d 05 a0 3d 8f b3 d2 bc a1 64 2d bd
       0.10367497 0.07813559 -0.025720386 -0.042332295
000150 96 18 16 bd 1d f0 bf 3d 49 04 40 bd d9 1d ac 3d
       -0.03664454 0.0937197 -0.046879087 0.084041305
000160 22 ff 07 3d 01 d9 11 3d 77 c0 13 3d 9e 24 85 3d
       0.033202298 0.03560734 0.03607222 0.06501125
000170 b2 71 3d bd 98 85 f3 3c 7b 08 10 3d 43 3f e5 bd
       -0.046251006 0.029726788 0.035164338 -0.11193707
000180 e4 fd 93 3c ef bd 81 3d 99 9b 41 bd 23 ab 5f bd
       0.0180654 0.06335055 -0.04726753 -0.054606568
000190 d0 41 12 3e 0a ea 2e bd 7e 7c af 3d 27 67 70 be
       0.14282918 -0.042703666 0.08568667 -0.2347685
0001a0 ca 72 0f bd 58 53 8c bd 48 a7 d1 3c bf 27 15 3e
       -0.03502158 -0.06851834 0.025592461 0.14565943
0001b0 14 d7 86 bd 10 2f a2 be 5f 00 08 3e 00 3d a1 3b
       -0.06583992 -0.3167653 0.13281392 0.004920602
0001c0 43 02 9d bd e7 e2 f2 3d 5f e7 dd 3d 62 5f bd bd
       -0.07666447 0.118596844 0.10835146 -0.092467085
0001d0 53 2b 0a bd 50 5e 7c 3e 09 4d 55 3d 12 c3 2d bd
       -0.033732723 0.24645352 0.05207542 -0.04242236
0001e0 fa 66 9a bd a2 79 d6 bd af b9 d4 bd f7 11 07 be
       -0.075391725 -0.10472418 -0.10386979 -0.13190447
0001f0 77 5a 8d bd 9a f5 40 3c e1 9d 46 bd 34 05 a6 be
       -0.069020204 0.011777306 -0.04849041 -0.32425845
000200 35 b5 c9 be cb a6 f6 3d eb 24 89 bc 82 8f 89 bd
       -0.39396062 0.12043532 -0.016741237 -0.06716825
000210 4a f7 e5 bd 58 36 bf 3d e3 61 e4 3d f8 74 fe bc
       -0.11228807 0.09336537 0.11151483 -0.031061634
000220 d9 22 a1 3d fd 3f de 3d 36 4b d2 3a da c3 d2 bc
       0.07867975 0.108520485 0.0016044143 -0.025728155
000230 67 7a 5f bd 01 34 a8 bd fa 2f b3 bc 00 40 65 ba
       -0.05456009 -0.08213044 -0.021873463 -0.00087451935
000240 d0 f5 92 bc a1 c9 8d bd 37 79 56 3e f2 6f 4b 3d
       -0.017939478 -0.06923223 0.20944677 0.049667306
000250 fd 12 3b be 2a 2f 0b 3e a9 94 a6 bd 45 d1 88 3d
       -0.18268962 0.1359221 -0.081338234 0.0668054
000260 7f a4 bb 3d 14 70 a2 3d d3 da f8 3c 83 5a 0d 3c
       0.091622345 0.079315335 0.030377781 0.008627537
000270 ac 8a d4 3d 91 41 8c bd e6 89 69 bd 68 20 52 be
       0.10378012 -0.06848443 -0.057016276 -0.20520175
000280 43 09 a8 3d a5 cf 09 bd d4 14 74 bd e0 44 2a ba
       0.082048915 -0.03364529 -0.059590176 -0.00064952485
000290 10 5d 96 3e ef d9 83 3c 45 01 68 3e 2d 9c 47 3e
       0.29367876 0.01609513 0.22656734 0.1949317
0002a0 a0 41 ec 3d 21 7c 5b bd d0 28 96 bd 83 fe c2 3d
       0.115359545 -0.053585175 -0.07332003 0.095212005
0002b0 f5 d6 26 bc 14 72 df be b9 a9 d3 3c 61 a7 a0 3d
       -0.010183086 -0.43641722 0.025837766 0.07844425
0002c0 c0 e5 3b 3d 08 7f 86 bd fb 1b ef 3d 81 ad 59 bd
       0.045873404 -0.06567198 0.11675259 -0.05314398
0002d0 cf 43 8c 3e f2 61 0a 3d e5 29 ed 3c f2 1b 85 be
       0.27395484 0.033784814 0.028950641 -0.25997883
0002e0 07 3c ab 3d c3 3d ea 3d 9d fd c7 3d 7d 19 35 3d
       0.08361059 0.11437561 0.0976517 0.04421376
0002f0 18 41 46 3e 83 e4 9b 3d c1 88 aa bd 18 56 db 3d
       0.19360769 0.076119445 -0.08326865 0.107097805
000300 78 13 16 3e 01 a1 b6 3d 72 54 e2 3d ee 7a 9f 3d
       0.14655864 0.08917428 0.11051263 0.07787119
000310 b8 7a ae 3d 60 1a 5a bc b3 89 80 3d 1a 08 97 bd
       0.085195005 -0.013311952 0.06276264 -0.07374592
000320 15 49 e3 3d e5 3b d8 3c 01 db 9f 3d 0f 79 bd 3d
       0.11097924 0.026395747 0.078054436 0.09251606
000330 2e 44 4e bd 8d 6d f1 3b c6 72 ce bd 4c 33 54 3d
       -0.05035799 0.007367796 -0.10080485 0.051806733
000340 e9 ef 4c 3c 49 d8 1c bd e0 fd 10 3e 9b cd 7f 3d
       0.012508371 -0.038292203 0.14159346 0.06245194
000350 62 d1 6f be 59 18 61 3d 16 73 ba 3d 27 e8 93 3d
       -0.23419717 0.05495486 0.09103982 0.07222014
000360 b7 7b b6 3d f1 46 d2 bd 50 ca e9 bc 99 b2 a0 bc
       0.089103155 -0.10267437 -0.028538853 -0.019616412
000370 d7 b7 ce bd 0b 90 aa 3d c6 3b 35 3e 4e a4 6a be
       -0.100936584 0.08328255 0.17698583 -0.2291424
000380 32 c5 b1 bc 1e 2e f1 3c 61 e9 92 3d 4b 32 bb 3d
       -0.021700475 0.029440936 0.0717342 0.09140452
000390 e2 f1 e4 bd 4d f5 db 3b 2c 4f b4 bd d5 20 2b be
       -0.11178948 0.0067125917 -0.08804163 -0.16711743
0003a0 8d 59 88 3d 2d 47 72 bc 89 42 be 3d d7 e9 16 3d
       0.066577055 -0.014787477 0.09290034 0.0368441
0003b0 e0 a7 d7 bd ce 59 b1 3e 7d f1 15 bd 77 e9 0e 3d
       -0.105300665 0.34638828 -0.036607254 0.03489062
0003c0 70 90 15 be 8e 44 de 3d e8 7e 44 3c 88 3c 38 be
       -0.1460588 0.108529195 0.011993147 -0.17991841
0003d0 0a 85 ec 3c 85 35 07 be ef e3 28 bd d2 7a 7f be
       0.028872032 -0.1320401 -0.041233 -0.24949196
0003e0 ba 27 95 3d 12 7f 6a bd 41 a1 ce bd 71 c3 34 3b
       0.07282968 -0.05725009 -0.100893505 0.0027582312
0003f0 be e9 eb bd d8 ae 05 be dc ec ee 3c f0 64 f8 bd
       -0.11519192 -0.13054979 0.029165678 -0.12128627

decoder.4.bias f4 [128]
000000 5f d8 51 3d 00 28 2a 3e 4b 56 0d 3e f5 5d 2d 3e
       0.05123174 0.16616821 0.1380245 0.16930373
000010 ab 46 c1 bd 30 4a 17 3e a0 a2 cc 3d dc e0 c3 bd
       -0.09437307 0.14774394 0.09991956 -0.09564373
000020 cf 68 d6 3c c0 ce a3 3d 1c 64 9f bd 28 73 ae bd
       0.026173024 0.07998419 -0.07782766 -0.08518058
000030 89 81 2a 3e f7 fe 4e 3e 2b 68 ea 3d 24 9e 1d 3c
       0.16650976 0.20214449 0.1144565 0.009620223
000040 f3 87 d5 3e 7e 79 46 be ba 00 f1 3c 4a 66 32 be
       0.41705284 -0.19382283 0.029419292 -0.17421833
000050 8d 41 88 be 28 27 28 bd d4 7c 35 3e 65 a1 5e be
       -0.2661251 -0.041052967 0.177234 -0.21741255
000060 49 a6 2a 3e 7a 4e 83 bd 5f 25 30 3c 1a 8e 05 3d
       0.16664995 -0.064114526 0.010751097 0.03260622
000070 f6 cc ad 3d 4b 64 36 3e fa e9 81 ba ae 71 23 bf
       0.08486359 0.17811696 -0.0009911649 -0.63845336
000080 a9 4f 04 3e 2b 76 57 3d 1a 5a 70 bd 98 26 12 bd
       0.12921013 0.052602928 -0.058679678 -0.035681337
000090 0f b0 d3 3d 91 e7 25 3e 88 52 85 3c e4 f6 3f bb
       0.10336315 0.16201617 0.016274706 -0.0029291445
0000a0 d9 3b 43 3e 9d c9 b6 3d 52 8a 76 3e 51 b9 41 3e
       0.19065799 0.089251734 0.24076203 0.18918349
0000b0 2c 65 9c be 90 b8 4a be d2 e7 eb bd 7d 59 87 3c
       -0.30545938 -0.19796968 -0.115188256 0.016522164
0000c0 88 38 ad be 6e 5d e5 bc 16 29 99 3d 94 9d 02 3e
       -0.33832192 -0.027998652 0.0747854 0.12755424
0000d0 bb 68 eb 3c bb 16 8e 3d de 99 7a be 0a 88 a4 be
       0.028736463 0.06937929 -0.24472758 -0.3213504
0000e0 80 bd f4 bd 88 c3 96 3e d6 f1 f8 3e 8c 7c 7b 3e
       -0.11950207 0.29446054 0.48622006 0.2455923
0000f0 a2 2f 34 3e 90 ca c7 3c 00 0f 34 3d 4b ea 84 bc
       0.17596295 0.024388582 0.043959618 -0.016225
000100 04 5b dc 3e a0 ec 65 bd e0 b0 a3 3d 26 27 58 be
       0.4303819 -0.056133866 0.079927206 -0.21108684
000110 58 2d 3e be a7 d8 c1 bc 80 56 7e 3e 52 59 ef bd
       -0.18571985 -0.023662878 0.24837685 -0.116869584
000120 56 f6 99 3d 43 bf 59 bd d0 95 70 be 61 02 a1 3e
       0.07517688 -0.053160917 -0.23494649 0.31447127
000130 98 6b 0a bd 4a c4 4f 3d 07 f8 12 3e a8 41 9b be
       -0.033794016 0.050724305 0.14352427 -0.3032353
000140 ef c0 21 3e 7d 0c cc 3c aa ef 08 3e 09 ae d7 3d
       0.15796255 0.024908299 0.13372675 0.105312414
000150 54 3a 52 3e da dd 37 be 00 3c 5f bc dc 7f bb bc
       0.20530063 -0.17955723 -0.013625145 -0.022888117
000160 94 44 e4 3d 30 71 52 3d 1b c5 da 3d 20 ec dd 3d
       0.11145893 0.051377475 0.10682126 0.10836053
000170 5e 1f 66 3d 12 99 e3 3d 3d 9c 30 3e f2 96 ce 3e
       0.056182258 0.1111318 0.172471 0.40349537
000180 96 34 a8 3e 88 a2 be 3d cb df d3 bc 9b 81 23 3e
       0.3285262 0.09308344 -0.025863549 0.1596741
000190 a2 f7 07 3e 34 bd 9b be ba 85 fc 3d 6a 6e 1c 3e
       0.13278058 -0.30417788 0.12330194 0.15276495
0001a0 5f e9 6e 3b 87 98 17 be 1c 56 32 bd 35 37 05 3e
       0.0036455018 -0.14804278 -0.04353915 0.13009341
0001b0 1e 9c 4a 3d 13 08 91 bc 94 dc 92 b9 4b ce 0c 3e
       0.04946529 -0.017704045 -0.00028011634 0.1375057
0001c0 b1 e6 96 bd 82 5e 09 3e 64 17 05 3d 9f e9 fd 3d
       -0.0736822 0.13414958 0.03249301 0.12398075
0001d0 b6 3d 20 3f 10 a8 d7 3d 8c 8c ea 3d 8b ce 60 3d
       0.62594163 0.10530102 0.114525884 0.054884475
0001e0 eb 6a 89 bd 44 18 cd 3c fc f4 bc bd 92 83 9e 3d
       -0.06709846 0.025035985 -0.092264146 0.07739939
0001f0 57 be fe 3d e0 9f 0a 3d dc ed 5b 3e 4b cb aa be
       0.12438648 0.033843875 0.21477455 -0.33358225
