models/cnn/lightning_logs/version_1/checkpoints/epoch=2-step=81.ckpt (torch, 89527 bytes, 39 tensors)

encoder.0.weight f4 [16, 1, 3, 3]
00000000: 4648 10bc 0468 af3e b4ed 373d 0be1 2b3e
00000010: ecf9 d7bd d98c c43e c139 14be 2d51 a63e
00000020: 18c8 863e 8d43 7ebe d0ad aa3e 52a6 cabd
00000030: 8007 ef3d e230 7a3e be8d 8bbd d6ff ca3c
00000040: 5356 5a3e 02f0 d33c 87f5 a0be c464 98be
00000050: ac86 fcbd 2c12 c13d f613 52be 1bd8 51be
00000060: f67e 63be 8301 5abe 36fa 41be 72ba e63d
00000070: 5e4e 1d3e d9c0 963e aeab af3d 4435 893e
00000080: 6939 8bbe d66d bf3d 55b9 f4bd f7d7 81bc
00000090: 7b2e 2dbe 9434 9abe 872c b33e 7601 2fbe
000000a0: 985e 613e b5e3 903c 5aad 863e 1f1d 51be
000000b0: f581 43be 8fcc d5bd aa0c 4ebd 7144 743e
000000c0: 95e5 ea3d 8ac1 21be 92e4 f9bc 93c4 8d3e
000000d0: 4458 88be 37be e7bd e28a 11be f909 9b3c
000000e0: 80bf 86be 3731 b73e d54e 85bd 4a34 44be
000000f0: ee97 ba3e 6264 e33d 3bc3 c43d 3b6b f8bd
00000100: 40fd 873e a16b 903b 601f ca3d 9e69 573d
00000110: 854c adbd 86e8 953e 6134 e03d 2999 ff3d
00000120: 2525 53bd 4baf 5a3e 491f 21be 49e5 c3bd
00000130: a0d7 aebb 5e21 ca3e 2f0c 253d 69d2 b33d
00000140: f690 48be f85f 4a3e dbe3 963e e276 0c3d
00000150: 7768 c93e 18c2 a63e 9e38 ec3d 04ae a03e
00000160: dbce 7dbe 8ad5 9f3e b56e f43d 67d8 0e3e
00000170: 7bd7 eb3c 8756 883e df40 ea3d dae2 e33d
00000180: 1250 913d 5e0b 023e 777c e43d d392 84be
00000190: 9dc7 b43e 4a4e c33e 5766 da3d 788e cb3e
000001a0: 01fe 68be 08a8 b43e 4341 5b3e c6bc dabd
000001b0: 6cac b13e b11f 183e 6bce ad3e cddd 913e
000001c0: 240b ed3d a6ca ae3e c35a 2cbe e1a6 953d
000001d0: 58e7 3a3e a68d 953e 928c 4fbe e85f 183e
000001e0: ca7f 45bd 93f7 453d e2d8 c9bc 462d a73e
000001f0: f808 0ebe 08c6 95bc 7248 b1be 554e 88be
00000200: a892 693e d9c7 16be 6b22 983d cdcc a5bd
00000210: 39d0 35be c580 403e 00b8 883e 6fe3 a1be
00000220: 916e dd3d ba7a 6bbe ef06 43be 1ec7 39be
00000230: d613 30be 2316 ab3d e1f6 253e f10e 873e
-0.008806294 0.34259045 0.044904426 0.16785066 -0.10545716 0.38388708 -0.14475156 0.32483807
0.26324534 -0.24830456 0.33335733 -0.09895004 0.116713524 0.2443271 -0.068141446 0.024780195
0.21321993 0.02587128 -0.31437322 -0.29764378 -0.12330374 0.09427294 -0.20515427 -0.20492594
-0.222164 -0.21289639 -0.18943104 0.1126603 0.15361926 0.29444006 0.08577667 0.2679845
-0.27192238 0.093471214 -0.11949412 -0.01585005 -0.16912262 -0.3011824 0.3499491 -0.17090401
0.22008741 0.017686704 0.26304132 -0.20421265 -0.19092543 -0.10439407 -0.050305046 0.23854233
0.114695705 -0.15796486 -0.030504499 0.27689037 -0.2662984 -0.113155775 -0.14213136 0.018925654
-0.26317978 0.35779735 -0.06509177 -0.19160572 0.36444038 0.11103131 0.0960755 -0.121298276
0.26560402 0.0044073616 0.098692656 0.05259096 -0.084618606 0.29278964 0.109474905 0.12480385
-0.051549096 0.21355931 -0.1573459 -0.09565217 -0.005335763 0.39478582 0.040294822 0.08780367
-0.19586548 0.19763172 0.29470715 0.034293063 0.39337513 0.32569957 0.11534236 0.31382763
-0.2478594 0.31217605 0.11935178 0.13949738 0.028789273 0.26628515 0.114381544 0.11127253
0.0709535 0.12699649 0.11156552 -0.25893268 0.35308543 0.38145667 0.10664051 0.39757133
-0.22753145 0.35284448 0.21411614 -0.10680537 0.3470186 0.1485584 0.33946547 0.28489533
0.115743905 0.34138983 -0.16831498 0.0730722 0.18252313 0.29209632 -0.20268467 0.14880335
-0.048217572 0.04833181 -0.02463955 0.32651728 -0.13870609 -0.018282905 -0.34625584 -0.26622263
0.22809851 -0.14724673 0.0742844 -0.08095703 -0.17755212 0.18799122 0.2670288 -0.3161883
0.108121045 -0.22996035 -0.19045614 -0.18142363 -0.17195067 0.083538316 0.16207458 0.26378587

encoder.0.bias f4 [16]
00000000: 373f 1c3e d5df 2abe 7fd9 a2bd 9c37 633e
00000010: c679 873e 7be8 e73d 957b 88be bbdb 073c
00000020: 1934 c9bd 1efe a03e 7199 9a3e c78c 013d
00000030: c155 81bd a446 d73d 7afa 403e 9f3e fcbc
0.1525849 -0.16686948 -0.0795164 0.22189182 0.26460093 0.11323639 -0.26656786 0.008292134
-0.0982439 0.31443876 0.30195192 0.031628396 -0.063151844 0.105115205 0.18845549 -0.030791579

encoder.3.weight f4 [8, 16, 3, 3]
00000000: 9612 753d 1c05 eb3d a4fb a43d 0d0a 04bc
00000010: fe65 833d 3658 da3d ae0d 9a3d 0f9a c13d
00000020: 3d05 96bc 88f5 4d3d 2357 433d 6c4b 7f3d
00000030: f9be 07bd 1d0e 2b3d de02 973d f0f4 873d
00000040: 8d82 f03d 3716 40bc 2fd7 933d ccd2 f4bc
00000050: 6cd6 ff3c d8c6 173d a240 593d 54bc 8fbd
00000060: 28f6 4cbc 045f a0bd e4a1 bebc bf8f 513d
00000070: 5395 3d3c 0531 e63d 2985 be3b a28f 0d3e
00000080: 00ca 4b3d 2b88 e23d 7015 563c 2864 0d3e
00000090: d286 6b3d b215 af3d c8be d73d 6d54 98ba
000000a0: 8f27 ef3d 6f15 cd3d 462a d53c b617 4b3d
000000b0: f367 013e 2131 823d 300b 183e 8b74 8f3d
000000c0: 7df5 853d 1fd9 c33c 7d30 1c3e 4e39 f83d
000000d0: 6a91 543d dbe6 103e 8276 943c ee48 623d
000000e0: 2f79 803d bf20 893d f859 f73c 1c47 c73c
000000f0: 3917 b73c 19bc 0b3e e087 5b3d 4d88 b83d
00000100: 02f7 d13c 8a1b 833d 60cc 7b3d ff0a d13b
00000110: 309f dd3d 70e2 773b 3525 f83d 24f6 343d
00000120: 5cea 85bc 70d0 a43d 4ec5 603d c4f4 f63c
00000130: 12a2 0d3e fa7f d53c 1708 c0bc 56dc a33c
00000140: 5494 26bd 48ec f23c e139 5c3d ba4d 093d
00000150: bbc1 c43d 8849 0c3d 4038 f13d f794 e63d
00000160: 1895 14bc 9c09 0d3e 3751 cf3d 410c 943d
00000170: d496 673d e2a0 b93c 0224 0d3e 844b 8b3d
00000180: ea41 003d 5adf 363d 3c9f a83d e33d e6bb
00000190: 6f4c f63d ebcf f23d 7d54 033e c2de b43d
000001a0: 01cb 013e 5c95 833d d4c8 ea3d 66cf 323d
000001b0: 76e7 8e3c 41a3 953d 33d0 853b 6ae3 b23d
000001c0: e1af 033e e00c e83d bb71 f73c a017 143e
000001d0: a3ad 3b3d d47b 463d a046 333d 4095 fb3c
000001e0: c030 163e a521 ee3c dd87 ef3c 5869 453c
000001f0: bbe9 a23c 03a7 b43b 2f6c 0a3e b4e7 d83d
00000200: 04b0 e13c e657 f93d 9a4a 7e3b 5b6b 913d
00000210: 96ac 9d3d 211b 633d 45c8 db3c 33ef 803d
00000220: d1be a03d 8798 033e 6e54 9e3d 0f3b 523d
00000230: 2758 6d3d 0f32 db3d 77c8 653d db1e 3ebd
00000240: c213 043d 8920 d53d 6a45 fa3c 0b4c 8fbc
00000250: 23a4 883d 423a c63b ab16 87bc d986 de3c
00000260: 44d2 403d 2ef3 4dbd 17e8 113e a5eb b23d
00000270: eb8b 60bd 7619 163e 437e f8bb 344c 4fbd
00000280: f227 153d a9cf 32bd a4c4 a2bd 789c 243d
00000290: ac9b cfbc 50ed 833c 8d7f 28bd 1d19 9e3c
000002a0: 308a e6bb 102e 8e3c d855 213d adde d33d
000002b0: c589 873d f9c2 1d3e 866c 9e3d 108d ca3c
000002c0: 9f53 aa3d 123c 9a3d d934 91bc 2ffc 81bd
000002d0: 34ac e13d 50a5 fa3d 0077 c83d a900 a13c
000002e0: afa9 123e 2687 1c3e b298 9c3d df3b 903b
000002f0: 10f2 323a 244a 0b3e 86dd 3c3d be65 a73d
00000300: 09b6 9c3d 8390 2d3e 48e6 fc3d 9176 2c3d
00000310: 7fab 693d e8f1 a53c ba14 9e3d 1e5b f93c
00000320: 48a4 85ba 3854 8bbc c3db 073e 8b24 4dbd
00000330: 3af6 40bd 1f65 193d 1a1e 753d 165d 27bd
00000340: 1eb4 bc3d 6182 d53d 86a5 0b3d 1c2b b33d
00000350: 9cd6 dc3c 7ea0 f53c 55dc 063e 8c2c 983c
00000360: a045 c53d 55d0 233e 5487 a03d 46a0 353d
00000370: f139 333d bd49 8a3d ca77 323c 7165 dd3d
00000380: 15f9 babc 080a cf3d 7184 de3d e676 183e
00000390: 807c 0d3b 8d33 1c3c 8b85 22bd 8973 4abd
000003a0: 814b 7dbb ab4c 97bc 3470 743d 5056 833d
000003b0: 00d5 c83d 7708 383d 6043 cf3d 5561 ac3d
000003c0: 2ac2 e2bc 7e02 9b3c ca3b 173d ebda 8d3c
000003d0: 4bc7 173c 28cd 393c 28b8 d83b 40d2 bc3d
000003e0: 70d2 01bd 92f0 373c d3ef 4b3d acf6 38bd
000003f0: 666c 1bbd 1dd6 1c3e b722 0c3e 9618 4e3d
0.059832178 0.11475584 0.08055809 -0.008059037 0.06415938 0.10661356 0.075221404 0.094532125
-0.018313045 0.050282985 0.047690522 0.062327787 -0.03314111 0.041761506 0.07373594 0.06638515
0.117436506 -0.011724046 0.072187774 -0.029885672 0.031230174 0.037054867 0.053040154 -0.070183426
-0.01250986 -0.07830623 -0.023270555 0.051162478 0.011571246 0.112398185 0.005814214 0.13824323
0.04975319 0.11061128 0.013066635 0.13807738 0.05750162 0.0854906 0.105344355 -0.001162184
0.11677467 0.10013854 0.026021134 0.04958316 0.1263731 0.06357027 0.14848018 0.07004651
0.06540964 0.023907242 0.15252872 0.12120305 0.05189649 0.14150564 0.018122915 0.055245332
0.06273114 0.06695699 0.030194268 0.0243259 0.02234994 0.13645972 0.053596377 0.09010372
0.025630478 0.06401737 0.061474204 0.0063794847 0.10821378 0.0037824176 0.12116472 0.04418005
-0.016347103 0.08047569 0.054875664 0.03014601 0.13831356 0.026062 -0.023441358 0.020002525
-0.0406688 0.029653683 0.053766135 0.03352139 0.09607264 0.034249812 0.11778307 0.112588815
-0.00906875 0.13773197 0.101229124 0.072289 0.056540325 0.022659723 0.13783267 0.06801513
0.03131286 0.0446466 0.082334965 -0.0070264204 0.12026297 0.118560635 0.12825198 0.0883155
0.12675096 0.064249724 0.11464086 0.04365482 0.017444354 0.07306529 0.004083657 0.08734782
0.12860061 0.11330581 0.030205598 0.14462137 0.04581989 0.048457935 0.043768525 0.030710816
0.14667034 0.029068777 0.02923959 0.012049042 0.019886842 0.0055130734 0.13517831 0.10591069
0.027549751 0.121749684 0.003880179 0.071005546 0.07698934 0.055445794 0.026828894 0.06295624
0.07848895 0.12851153 0.077309474 0.051325854 0.057945397 0.10702907 0.05609938 -0.046416145
0.032245405 0.10406596 0.030550677 -0.017492315 0.066719316 0.0060494253 -0.016490301 0.02716391
0.047075525 -0.050280742 0.14248691 0.08736352 -0.054820936 0.1465815 -0.007583411 -0.050609782
0.036415048 -0.04365507 -0.079476625 0.040188283 -0.025342785 0.01610437 -0.041137267 0.019299084
-0.007035516 0.017355949 0.039388508 0.103452064 0.06618074 0.15406407 0.07735543 0.024725467
0.08316731 0.07530989 -0.017725395 -0.06346928 0.11019173 0.12238562 0.097883224 0.019653635
0.14322542 0.1528593 0.07646312 0.0044016684 0.0006826231 0.13602501 0.0461097 0.08173703
0.07651908 0.16949658 0.1234861 0.04210526 0.057048317 0.020256951 0.07718797 0.030438956
-0.0010196054 -0.017007932 0.13267426 -0.05008368 -0.04710982 0.037449952 0.05984316 -0.040860258
0.09214042 0.104252584 0.034093402 0.08748457 0.026957802 0.029983755 0.13169987 0.01857593
0.096324205 0.15997441 0.07838312 0.0443423 0.04375643 0.06752346 0.010892818 0.10810364
-0.02282385 0.10109335 0.10865105 0.14889106 0.00215891 0.009533775 -0.039678138 -0.04942659
-0.003864974 -0.018469175 0.059677318 0.06412947 0.098062515 0.044929948 0.10120273 0.08417002
-0.027680475 0.018922087 0.036922254 0.017316302 0.009263824 0.011340417 0.00661375 0.092197895
-0.03169483 0.01122679 0.04978926 -0.04515712 -0.037945174 0.15316053 0.13685118 0.050316416

encoder.3.bias f4 [8]
00000000: 3e16 763d 846e db3d a62c 8c3d 9ef4 dc3d
00000010: 591f 4e3c ebee d33d 7cd5 eb3d 7060 7d3d
0.060079806 0.107144386 0.068444535 0.107888445 0.012580716 0.10348304 0.11515328 0.061859548

encoder.7.weight f4 [2, 32]
00000000: bb6c 393d c339 9fbd e347 9e3c 1c3b 2dbe
00000010: dbb0 18be 7221 15be b4ac b73d 780d 70be
00000020: b352 9fbd 8a4e 45be 896b 45be 5c6c 573d
00000030: 737a 1abe a0f4 2dbe fb22 01bd 3554 883d
00000040: bf2a d03d c458 ba3c 9cf7 b83d 4aaf febd
00000050: e2d9 ce3b 0d2a 68be cf25 09be 3ecd 4bbe
00000060: f352 e1bd 37af 08be e017 14be 0c83 2bbd
00000070: 0823 2bbe 911e 86bd 8e52 53be 8da0 fdbd
00000080: 2989 de3d 287d 503e 6587 4f3e 5d17 8e3c
00000090: 26db febc 6613 063d c3e9 4d3e 5092 0a3d
000000a0: b727 b6bc 31c1 133e 96ef 20bc 0665 223e
000000b0: cba9 813e cf32 583e 2a91 cb3d b40d 7bbd
000000c0: 5553 a4bb aa25 92bc e5f1 cc3d 13f0 133e
000000d0: 4025 783e 3e8b 713e 418f a03d d0d1 723e
000000e0: 530e 7ebc e244 d83d c628 c13d ab8f aebd
000000f0: e142 ca3d b499 603d 9419 98bc f28a 7e3d
0.04526971 -0.07774689 0.019321388 -0.1691708 -0.14911215 -0.1456354 0.089684874 -0.23442638
-0.077794455 -0.19268242 -0.19279303 0.052593574 -0.15085773 -0.16987848 -0.0315275 0.06656686
0.10164403 0.022747405 0.09031603 -0.124357775 0.0063125947 -0.22672291 -0.13393329 -0.19902512
-0.110021494 -0.13348089 -0.14462233 -0.041873023 -0.16712582 -0.06548799 -0.20636961 -0.12384138
0.10866005 0.20360243 0.20266493 0.017345125 -0.031110357 0.032733344 0.20108704 0.03383094
-0.022235734 0.14429165 -0.009822747 0.1585885 0.25324854 0.21113132 0.09939797 -0.061292365
-0.0050148168 -0.017840225 0.10007075 0.1444705 0.2423296 0.23588273 0.078398235 0.2371285
-0.015506345 0.10560013 0.09431605 -0.08523496 0.098760374 0.054834083 -0.018566884 0.062144227

encoder.7.bias f4 [2]
00000000: 83f3 d8bd 113d 133e
-0.10593321 0.14378764

decoder.0.weight f4 [32, 2]
00000000: fd7c 0e3f b4e5 2cbf b9d8 3ebf 39af 643e
00000010: d1a7 3b3f dcb9 743e 9f9f 2c3e 1c7d af3e
00000020: 5446 36bf 8536 f8be c56e e4bd e312 3b3f
00000030: 05af 3cbd bf11 183f f85c 423f 8d09 153e
00000040: ff15 ccbe 41be c9be 8169 49be 0eb6 e73e
00000050: 44d9 c3be 5fde 9d3e e074 01bf f29d 9bbe
00000060: 1775 fbbe e39a 85be b00c a13e 72d5 d53e
00000070: f826 14bf 6abf ef3e cfaa f23e 88cd b0be
00000080: 6d30 6ebe 26f5 c43c 2439 bb3e 3c2f afbe
00000090: 9afa 983e e4a3 293f 37b4 7a3e de3e 4e3d
000000a0: a81e 23be 44b4 edbe ef10 fbbe 391c 36bf
000000b0: 75b7 3abe dfea dbbe 4fa9 c4be 9afd 223f
000000c0: eac3 d8be 19e8 373f d9a7 0e3f a5f4 293f
000000d0: a2c5 683e c94a 23bf cfed 30bf 677b 143f
000000e0: c054 8dbe 66ed 2ebf 7271 803e 90f8 ec3b
000000f0: 8eb9 fc3e 7012 413d 2f70 dd3d cb30 413f
0.55659467 -0.67538 -0.7454944 0.22332467 0.7330294 0.23899025 0.16857766 0.34275138
-0.7120106 -0.48479095 -0.1115394 0.73075694 -0.04606535 0.5940208 0.7592311 0.14554425
-0.39860532 -0.39402965 -0.19669153 0.45256084 -0.38251698 0.30833718 -0.5056896 -0.3039394
-0.4911277 -0.26094732 0.31454992 0.41764408 -0.5787196 0.46825725 0.47395942 -0.34531808
-0.2326066 0.024042677 0.36567032 -0.34215724 0.29878694 0.662657 0.24482809 0.050352924
-0.15929663 -0.46426594 -0.49036357 -0.71136814 -0.18234046 -0.4295263 -0.38410422 0.63668215
-0.4233697 0.7183853 0.55724865 0.6638892 0.22731641 -0.6378599 -0.6911287 0.580008
-0.27603722 -0.6833099 0.25086552 0.0072317794 0.49360317 0.047136724 0.10812413 0.7546508

decoder.0.bias f4 [32]
00000000: 28f9 0cbf cd18 843e e1b0 e6be 6199 e9be
00000010: c081 80be 49aa 113f 20a7 03bf efd9 59be
00000020: 81bd 1fbf 8b16 d2be eec2 843d 9a4c 2abe
00000030: 1ece 1c3f 54a4 993e 870c 3e3f 1c5e 4e3d
00000040: 602b a23e 0e01 44bf 5334 0cbf 1d87 f83e
00000050: 57fe 1c3f 529e 2fbf c6fa ac3e e18b 263f
00000060: 05ac 313f f57c b13e 69e3 2cbf cc28 d53a
00000070: a3c7 35be 2f7d d2bd 49df 35bf 539c 7e3e
-0.5506768 0.25800171 -0.45056823 -0.4562483 -0.2509899 0.5690046 -0.5142689 -0.21274541
-0.62398535 -0.41032824 0.064824924 -0.16630784 0.6125201 0.30008185 0.74237865 0.05038272
0.31673717 -0.7656411 -0.5476734 0.48540583 0.6132559 -0.6860095 0.33785075 0.6505719
0.69403106 0.34665647 -0.675345 0.0016262769 -0.17751937 -0.10277783 -0.7104383 0.2486432

decoder.2.weight f4 [8, 16, 3, 3]
00000000: 89de bbbd 7aca 20bd a7ec e8ba f55a 04bd
00000010: ed2d c7bd b9c2 283e e6c1 67bd ac5f 11bd
00000020: bb36 f33d efc6 8abd e9f1 9f3d ce57 0abe
00000030: 6ad7 9bbc d699 efbc bb99 61bd 3fc3 4dbd
00000040: d849 c43b 294b 023e 3d52 cfbd aa42 b43d
00000050: 0f40 073d dcf9 2bbd 909c 04bd a28c 2fbd
00000060: 8a6e 7d3c db6a 963b a038 463d 0be0 93bc
00000070: d08c dbbd 44d3 c6bd f6f6 d8bd 631a f7bb
00000080: 50f9 903d 09be 0dbe d982 9dbd 604c 0fbb
00000090: 9dc0 90bd b176 f13d a9fd 0abd 9e01 e0bd
000000a0: 209c 74bd 0846 a13d 659c 25bd ffc9 683d
000000b0: 207c cfbb 8062 5d3c 19af 15be b7b4 853c
000000c0: 5416 1cbd 8492 79bd 8a13 ba3d e402 b4bd
000000d0: fe90 bfbd 295b 42bc 2602 c33d 6381 953d
000000e0: b799 92bc f18a 763d c08a 6fbd bd98 1e3d
000000f0: 98a9 c6bd 9763 53bb a13f f03d 247c bebd
00000100: 4be9 d4bd 9257 28bd 3934 5abc 011e 33b9
00000110: 56e3 d63d 5412 993d 4a5a fdbd f82b b93d
00000120: 6978 29bd 5d5b 96bd f154 99bd 904d 923c
00000130: 2924 a03b 26e6 413d a973 8cbd 8f7d 113d
00000140: 6e02 d43d fdcc e2bd 321d 1d3e 6981 67bc
00000150: c49e bdbd c1d4 01bc 9008 853d ed65 c9bd
00000160: 0e6a 25bd 75f7 49bc e644 c9bc b9f8 543d
00000170: 006a 05bd 7781 f8bd a415 3cbd 0b70 60bd
00000180: 2102 83bd 83ba 21bd 0fa8 68bd cde1 21be
00000190: 4ab3 06be 44e3 aebd 12c3 f5bd c085 d1bc
000001a0: 0064 65bd 5595 e6bd e5cf c5bc 139f ddbd
000001b0: a62d 47bc 9e5d a7bd 0cbc b1bd 620a 23be
000001c0: c868 493c 147e c23d c24b 423d 4e54 0dbc
000001d0: ec7a ff3b cd7f 17be aff7 1dbe 01c3 08be
000001e0: ef7a 5ebd 879c 81bd 97c6 9fbd af62 1cbe
000001f0: d5ad 16bd 668f 483d e747 20bd 7c49 86ba
00000200: 660b d03d 1a9f 00be 0bc7 00bd 759c fb3d
00000210: 37cf f9bc ab65 9bbd fe35 a23d 30f5 08be
00000220: 4463 bcbd 43fe 5a3d 4575 33bd 7c97 92bd
00000230: 614e 823c e780 b33c 5933 1e3d 188f 92bd
00000240: aeb1 853d b8e3 953d bddd aabd 01a9 d23d
00000250: e654 ccbc e128 fd3c 860d dfbd 50c7 683c
00000260: 782e b5bc d636 ec3d 66ce 1b3e 5647 43bd
00000270: 6923 fdbd ea90 323c 988c 6dbd 0bf8 cfbc
00000280: 7db4 cfbc a295 df3d 4361 9c3d 417f fd3d
00000290: c518 d73d 8204 96bc a3f3 e43c 9d8d 6fbd
000002a0: 488f c5bc 1aa6 163d d2c0 22be 2a48 e3bb
000002b0: 5e49 a73d a0db f03c 3ca8 29bc 1be6 5dbd
000002c0: 81b9 ec3d 270e 73bd 3868 d2bc e3cc 173c
000002d0: bb76 52bd 42b9 ff3d 7d82 553d 83cd 843d
000002e0: e87c 02bc 5d18 033e 079d 23bd ac22 6e3d
000002f0: d3fc 28be 747c cf3b d36b 8ebd b150 243e
00000300: c813 ecbc a429 be3c 90d7 1d3e 91a2 723c
00000310: c0e3 70bd 3078 0cbe 1759 bc3c 2b48 c23d
00000320: 6bd8 f73d 327f 1abc 6f7f 81bd 7d9c f9bd
00000330: 4748 233c 45de 18be dc39 fb3d 10f5 c6bd
00000340: ea62 96bb 0eaf 39bd d8ec 223b e08d 323d
00000350: 31d3 213d 82c9 57bd c3dd 8fbd bfbb a93d
00000360: d916 7c3d c5a2 253d 6061 25bd 7ef3 343d
00000370: 58d9 1f3d 37d0 d8bc f728 00bd 919c 95bd
00000380: 7893 003e f373 0dbd 1db6 153e 5c76 34bd
00000390: 4bf3 2d3d d022 8c3d d3ef 203e 4c12 cabd
000003a0: 8a50 7abc a7d7 9abc 56d8 4b3c b597 363d
000003b0: e17c 86bd aefd 85bc 265a 523d 46eb 03be
000003c0: 76b0 d3bd a985 753d 43a9 c3bc e684 aebb
000003d0: 3b32 963d ffb7 b3bc 3036 b2bb 0c83 ddbc
000003e0: 95ec 93bd e219 ef3d cf00 be3b a9c3 82bd
000003f0: 7993 6d3d 4406 99bc 3824 cfbc e69d 873c
-0.091733046 -0.039255597 -0.0017770723 -0.032313306 -0.097255565 0.16480531 -0.0565814 -0.03549163
0.118756734 -0.06776225 0.078098126 -0.13510057 -0.019023616 -0.02924816 -0.05507825 -0.05023503
0.005990248 0.12723984 -0.101231076 0.08801778 0.033020075 -0.04198633 -0.032375872 -0.042858727
0.015468249 0.004590375 0.048393846 -0.018051168 -0.10720217 -0.097082645 -0.10593979 -0.0075409873
0.070788026 -0.13842024 -0.07690973 -0.0021865591 -0.07067988 0.11790217 -0.033933315 -0.109378085
-0.059719205 0.078746855 -0.040432353 0.056833263 -0.0063319355 0.013512254 -0.14617576 0.016321523
-0.03810723 -0.060930744 0.09085758 -0.08789614 -0.09353827 -0.011862555 0.09521894 0.07300069
-0.017895563 0.0601911 -0.05848193 0.03871988 -0.09700316 -0.0032255405 0.11730886 -0.09301022
-0.103960596 -0.04109914 -0.013318115 -0.00017081948 0.1049258 0.07474199 -0.12370737 0.090415895
-0.041374598 -0.07341645 -0.074869044 0.01785925 0.004887123 0.047338627 -0.06857998 0.035520133
0.10352026 -0.11074255 0.15343168 -0.014129975 -0.09258798 -0.00792426 0.06495774 -0.09833894
-0.040384345 -0.012327065 -0.024568986 0.051995013 -0.032571793 -0.121340685 -0.045919076 -0.054794353
-0.063968904 -0.039484512 -0.0568009 -0.15808792 -0.13154331 -0.08539441 -0.12000097 -0.025576472
-0.05600357 -0.112589516 -0.024146983 -0.108213566 -0.0121568795 -0.08172153 -0.08678445 -0.1592193
0.012293048 0.09496704 0.04743553 -0.008626057 0.007796636 -0.14794846 -0.15426515 -0.13355638
-0.054316457 -0.06328683 -0.0780155 -0.1527202 -0.036786873 0.04896488 -0.03913107 -0.0010245289
0.10158424 -0.12560692 -0.031439822 0.12285701 -0.030494316 -0.07587751 0.079204544 -0.13374782
-0.09198621 0.05346514 -0.04381301 -0.071577996 0.015906515 0.021912051 0.038623188 -0.07156199
0.0652803 0.073188245 -0.083430745 0.10286141 -0.024942826 0.030903282 -0.10891251 0.014207676
-0.022116885 0.115338966 0.15215454 -0.047675453 -0.123602696 0.010898808 -0.05799541 -0.02538683
-0.025354618 0.10917212 0.07635739 0.123777874 0.10502771 -0.018312696 0.027948206 -0.058484662
-0.024116173 0.0367795 -0.15893868 -0.006936093 0.081682906 0.0294016 -0.010355052 -0.054174524
0.115588196 -0.05933967 -0.025684461 0.009265157 -0.05138276 0.12486507 0.052126396 0.06484511
-0.00796435 0.12802263 -0.039944675 0.058138534 -0.16502695 0.0063319746 -0.069541596 0.16046406
-0.028818026 0.023213215 0.15414262 0.014809267 -0.05881095 -0.13717723 0.0229917 0.09486421
0.12101825 -0.00942974 -0.06323134 -0.12188051 0.009965963 -0.14928539 0.12266895 -0.09714711
-0.004589428 -0.04533296 0.0024860408 0.043592334 0.03950805 -0.052682407 -0.070247196 0.08287763
0.061545227 0.040438432 -0.040376067 0.044177525 0.039025635 -0.026466472 -0.031289067 -0.07305253
0.12556255 -0.034534406 0.14620252 -0.04405819 0.04246835 0.068425775 0.15716486 -0.09866771
-0.015277991 -0.01890166 0.012441715 0.044578273 -0.065667875 -0.016356315 0.051355503 -0.12882718
-0.10336392 0.05994192 -0.023884421 -0.0053259013 0.073337995 -0.021938322 -0.0054385886 -0.027040027
-0.07222859 0.11674859 0.0057984362 -0.063849755 0.05800197 -0.018679745 -0.025285825 0.016554784

decoder.2.bias f4 [16]
00000000: 7d5c 053d 829f 0c3d 8cee a43d e32f fd3d
00000010: 8d86 9d3c 74f4 2f3d 08b8 7d3d 20ae 01bd
00000020: 9e85 383d 4d2d 263c 970e c93c 1270 9c3c
00000030: dd89 dfbc 0e80 bb3d 64b9 a03d ad7f c43c
0.032558907 0.034331806 0.08053312 0.12362649 0.019229198 0.042957738 0.061943084 -0.0316602
0.045049302 0.0101426365 0.02454309 0.019096408 -0.027287418 0.09155284 0.078478605 0.023986662

decoder.4.weight f4 [16, 8, 5, 5]
00000000: 1abc ef3b 59ed c4bc 2cca 14bd 33d1 d0bc
00000010: 9fc6 bf3b 22b8 5fbd b87b 973b ced8 fd3c
00000020: 990c 3fbc 2b7a 6d3d bd07 d33c 46fa 58bd
00000030: 63c4 f73b 7562 3dbd dcf0 873c 1576 18bd
00000040: 5e51 08bd 2f4f 45bc 0bba cfbc 7d4f a23b
00000050: 71e6 213d e18a a83c 2636 4cbd b001 aebb
00000060: 46bd 983d 2aca 5c3d 9e97 503d 100a 313d
00000070: 04ff 803d 56e8 b23c daab d63c 9242 1b3e
00000080: 3a1b 6e3d eee5 1d3d a789 fa3d db23 e13d
00000090: 26e9 cb3d 12ae e93d 8e28 d93d 2035 db3c
000000a0: 9aa9 44bd aca4 543d fe2d c43d cffb 7c3d
000000b0: 7497 94b9 e68e a3bd 7527 72bd 8821 823c
000000c0: acbd a23d 8d5a 67bd c7d3 463d 5feb 32bc
000000d0: ba28 593d ce8e 9f3b 7453 2b3d b829 81bd
000000e0: f149 363c f46b c73c 7590 f6bc a63a bdbc
000000f0: 2c37 62bd 1ac2 d03c ca65 673d 34fd ea3c
00000100: a78a 943d 9bfd 1e3d b8ee 94bd 7356 a43c
00000110: 70f1 1e3d 61a3 7b3d a3fb f03c 14c2 9c3c
00000120: 98b5 33ba 3e30 7bbd 66fb 473d 3a1d f63c
00000130: 77b5 723d 292d 14bd 7862 613a 200c f93c
00000140: af5c 2d3c 67e6 613d dfab 643d 3807 053c
00000150: ef6b f23c 9723 34bd 4743 8b3c feb2 183d
00000160: 9010 47bd 8896 b73c 45ff 48bd 4716 a1bd
00000170: 8ff5 d53c 321d af3d ce10 32bd 05aa 91bd
00000180: c535 8a3b 15c9 9cbd 6d8a 8abd 5a60 23bd
00000190: 512b 823c 9e0a e43d 1558 3b3d de31 6b3c
000001a0: 49fe 343b 692d 8d3d 8757 3d3d 373c c83c
000001b0: 6e5e de3d f871 b53b 4b8d 31bc 0689 103e
000001c0: 34a7 073d bf83 df3c 040c 063e df79 123c
000001d0: 99bf 833d df2f a43c a738 a63d 215b 663d
000001e0: d138 cc3a 439d 32bd 6587 27bb 8b12 bd3d
000001f0: 0a52 15bd 9e8e eebc 68d1 84bc 7830 5dbd
00000200: f924 7fbd aafd cfbd f83e 4fbd e481 2b3d
00000210: 7cce 32bd 570c 263d 8191 83bd cbfc c33d
00000220: 4c3f df3d d728 3a3d 690a 4cbd 6e0b ba3c
00000230: 3b53 fb3d fc8b fe3d 7493 c53d c81f 35bc
00000240: 9400 953d 3f1b 483d 69d1 6f3d f95e bb3d
00000250: 1a61 5eba cf74 83bb 4b15 493d d1d9 813c
00000260: aade 0bbc 8a34 0fbd aa09 afbd b44f fa3d
00000270: 1ad0 8e3d 9842 1b3e 5c11 773d ba21 5e3d
00000280: 18b0 e53d 3abd bd3d b049 bd3d 9458 a13c
00000290: c65a 87bb 7721 7fbb ff1e 7a3d b7ca c53d
000002a0: 2073 663d 933a 883d 55ce 4f3d c0e5 d23c
000002b0: b236 ec3d 0863 ad3d 1e7b fd3c 52bf 4dbd
000002c0: 1d8e 7dbc e15a 5e3c bc1b 0fbb 724c c93c
000002d0: be7d 91bd fb82 1b3d a46d cabd 7a66 24bd
000002e0: cfb0 b5bd 7288 01bd d013 38bd 96a3 afbd
000002f0: 2b30 d33b 35d3 91bd 1045 19bc 92eb 873d
00000300: 44f8 473c f023 9fbc e01a 26bc b476 e23c
00000310: 6391 2f3d d4f5 e13c a126 273d 243a 0cbd
00000320: 8e8e 0abd 7719 703d feea 003d 31f7 98bc
00000330: c2f2 d9bb 7312 8b3c ad14 94bc 1fd2 843d
00000340: 0dff 0ebd 9dee c93b e5a9 d4bc c280 02bd
00000350: 1d69 293c 49e8 053d 01fb 71bd 4da7 813d
00000360: 7ab6 5e3c 8b67 583c b325 4cbd 44c0 7dbd
00000370: 7f9d 90bd be8d c0bc c513 67bd 9e2e 87bc
00000380: f47f 84bd 1246 4ebc 1912 2c3d 1088 a43d
00000390: 9d12 ca3c c19b 91bd 2e04 123d d199 ea3d
000003a0: 9a90 163d 8002 ee3d 61cc 233e c8aa aeb7
000003b0: e46d a83d 4da5 703c 4073 0c3d 00c6 d93d
000003c0: d36d 8e3d c659 813d f0d4 7cbc 339d cb3d
000003d0: 8d89 9abc 985c 63bd 147f 4b3d 9f99 573d
000003e0: f812 9dbc 2bb9 303d fc04 c33c b665 77bc
000003f0: c0d3 08bb ee3d 2c3d 2cf9 d33d fac6 8b3c
0.0073161246 -0.024038957 -0.03632562 -0.025490379 0.005852535 -0.054618962 0.0046229027 0.03098717
-0.011660718 0.057977837 0.025760526 -0.052973054 0.007561253 -0.046236474 0.016594343 -0.037221987
-0.033280723 -0.012042805 -0.025357267 0.0049533234 0.039526407 0.020574035 -0.049856327 -0.0053102598
0.07457976 0.053903736 0.050925843 0.043222487 0.0629864 0.021839302 0.026204992 0.15162113
0.058131434 0.038549356 0.12233286 0.10993167 0.09956579 0.114101544 0.10603438 0.02675873
-0.048013307 0.051914856 0.09579085 0.06176358 -0.000283416 -0.0798624 -0.05911966 0.01588513
0.07946333 -0.05648284 0.04854181 -0.010920375 0.053017356 0.0048693186 0.041827634 -0.06306785
0.011126027 0.024343468 -0.03009818 -0.023099255 -0.055228397 0.02548318 0.056493558 0.02868519
0.07253008 0.038816076 -0.072720945 0.020060753 0.03880447 0.061435107 0.029416865 0.019135512
-0.00068553677 -0.061325304 0.048823737 0.030043233 0.05925509 -0.03617588 0.0008597742 0.03040129
0.0105811795 0.05515137 0.05582797 0.008119397 0.029592482 -0.043979254 0.016999854 0.037280075
-0.04859978 0.022410646 -0.04907157 -0.07865577 0.026118068 0.085504904 -0.043473057 -0.07112507
0.0042178356 -0.07655541 -0.06764684 -0.03988681 0.015889795 0.111348376 0.0457383 0.014355151
0.0027617386 0.06893427 0.04622605 0.024442775 0.10857855 0.005537268 -0.0108369095 0.1411477
0.03311844 0.027284501 0.13090521 0.008940189 0.06433029 0.020042358 0.08116274 0.05623925
0.0015580897 -0.043607008 -0.002556288 0.092320524 -0.03645519 -0.02912074 -0.016213134 -0.0540013
-0.06229112 -0.101558045 -0.05059716 0.04187192 -0.04365395 0.040539112 -0.06424237 0.09569701
0.10900745 0.045449104 -0.049814615 0.022710528 0.12271734 0.12429044 0.09647265 -0.0110549405
0.07275501 0.04885411 0.05854932 0.09148974 -0.0008483097 -0.0040117274 0.049092572 0.015850933
-0.008536974 -0.034962215 -0.08546765 0.122222334 0.06973286 0.15162122 0.06031929 0.054231383
0.11215228 0.09264608 0.092425704 0.019695558 -0.004130694 -0.0038929859 0.061064716 0.096578054
0.056262136 0.06651797 0.050733883 0.025744319 0.1153387 0.08466154 0.030942496 -0.050231285
-0.015475777 0.013571472 -0.00218366 0.024572585 -0.071040615 0.03796671 -0.098841935 -0.04013679
-0.08871614 -0.031624265 -0.04494077 -0.085761234 0.006444951 -0.07120363 -0.009354845 0.06636728
0.012205187 -0.019426316 -0.010138243 0.027644493 0.04286326 0.02758304 0.040808324 -0.034235135
-0.033827357 0.058618035 0.031474106 -0.018672558 -0.0066512534 0.01697657 -0.018076265 0.0648539
-0.034911204 0.006162478 -0.025959918 -0.031861074 0.010340002 0.032692228 -0.059077267 0.06330738
0.0135933105 0.01320828 -0.04984064 -0.061950937 -0.0706129 -0.023505088 -0.056415338 -0.016501721
-0.064697176 -0.012589948 0.042009447 0.08033764 0.024667079 -0.07109786 0.035648517 0.114551194
0.036758997 0.116215706 0.15995933 -2.0821943e-05 0.08224085 0.014687848 0.0342896 0.10633469
0.06954541 0.06315951 -0.015431628 0.09942093 -0.018864417 -0.055508226 0.049681738 0.05263674
-0.019174084 0.04314534 0.023806088 -0.015099933 -0.0020878166 0.04205125 0.1035026 0.017062653

decoder.4.bias f4 [8]
00000000: 6e84 dcbd ee21 323d 0248 5dbd 7d46 26bd
00000010: c7d5 323d 76ed 363d 4b25 cf3d 6d50 aa3c
-0.107674465 0.04348939 -0.05402375 -0.040594567 0.043660905 0.044660054 0.10114535 0.020790303

decoder.6.weight f4 [8, 1, 2, 2]
00000000: a13c bb3e 4690 a53d 42a6 1e3e 005e 763e
00000010: 36d8 9fbe 58a7 0b3e c88f 89be c200 1fbd
00000020: 1be7 fc3e e30c 5a3e 563c a33e 7523 f13e
00000030: 2c44 08bf 4825 b93e 4a71 91be 9168 a9bd
00000040: 056c e7be c46c 063e 0848 95be 7e66 9cbd
00000050: 238a edbe 8fbb 4fbe abd5 ae3e c66a a8be
00000060: 0c85 92be 5511 033b 1c09 193d 9621 02bf
00000070: d258 9ebe 7272 fa3d c18a 863e 5745 e13e
0.36569694 0.080841586 0.1549311 0.24059296 -0.31219643 0.13638055 -0.2686751 -0.038819082
0.4939507 0.21293978 0.3188197 0.47097364 -0.5322902 0.36161256 -0.28406745 -0.082718976
-0.451996 0.13127428 -0.29156518 -0.07636736 -0.46394452 -0.20286392 0.3414739 -0.32893962
-0.28617132 0.0019999344 0.037362203 -0.508325 -0.3092714 0.1222886 0.26277736 0.43998215

exp_avg f4 [16, 1, 3, 3]
00000000: 5696 38b8 248e c4b8 f9df 02b9 44f3 39b8
00000010: b34e edb8 809b 15b9 6c63 72b8 9979 03b9
00000020: 0b0d 09b9 edd5 beb8 b160 2eb9 63cc e4b8
00000030: 0865 0db9 994b 4ab9 c801 bbb8 b114 28b9
00000040: 56ad 37b9 6c06 78b8 0000 0000 0000 0000
00000050: 0000 0000 685c 4930 0000 0000 0000 0000
00000060: 0000 0000 0000 0000 0000 0000 6d96 05b9
00000070: ddeb 0ab9 a17d 70b8 368d 19b9 73d0 f5b8
00000080: 9ddc a4b7 c07a 17b9 a805 bbb8 1ed0 44b6
00000090: 1c3a 4e37 e7be d5b7 71e4 c3b8 7206 3fb7
000000a0: b22e 4ab8 9b0a aab8 47a4 25b8 24c2 46b8
000000b0: ea8e 52b8 be60 ccb8 7fde 77b8 aca0 50b8
000000c0: f107 0bb9 4890 28b8 375d dab7 1135 0fb9
000000d0: 7d51 a9b7 02b1 90b7 5c69 ceb8 8274 8cb8
000000e0: c5c9 41b6 0eed d9b8 d0bb 53b8 53d1 3437
000000f0: 7a0d dbb8 feb7 39b8 61ac fe36 8aa3 77b8
00000100: 65b6 b7b8 ee7d 72b8 33ec bfb8 158e d2b8
00000110: 99c5 40b8 3bb6 f9b8 9f59 d5b8 2f3b 2eb8
00000120: 6faf ba36 bf21 27b8 d573 2ab8 c32f 58b6
00000130: 6164 6fb8 f932 55b8 eea2 9eb7 1b61 5eb8
00000140: 4038 cbb7 a5dd 8db8 d29b 91b8 1da5 15b8
00000150: 32d2 a5b8 3463 89b8 de36 d3b7 b587 93b8
00000160: a61b 36b8 a9bc 9db7 63f7 29b9 1f2a 30b9
00000170: 90a0 c1b8 4c90 4ab9 997d 3fb9 776f a9b8
00000180: 6548 41b9 bb5c 22b9 138f 81b8 45fb c1b8
00000190: 293a 1fb9 77d0 00b9 f200 0cb9 20e9 30b9
000001a0: fac5 bbb8 6a09 22b9 532c 1db9 5854 6bb8
000001b0: 1f3d 89b8 caba d1b8 2b93 e2b8 08c2 91b8
000001c0: c0ea ddb8 e2ea d4b8 9ffe 88b8 21cf c5b8
000001d0: a6d0 a9b8 076d c7b8 a874 64b8 dc13 a8b7
000001e0: 15f0 cdb8 0b2a 30b8 7b9b 04b6 f83c d1b8
000001f0: b0c0 06b8 a1b3 e336 41b9 f035 d982 11b8
00000200: e384 0db9 a01d e736 eda9 5db8 3af3 1db9
00000210: 3d49 a8b6 b539 beb8 f26d 2fb9 f0e4 a734
00000220: 1030 4cb5 ead0 41b6 034a 8f34 36c0 22b6
00000230: aa48 85b7 8ea5 8db7 9d70 e2b7 d364 4fb8
-4.400903e-05 -9.372484e-05 -0.00012481202 -4.4333996e-05 -0.000113156995 -0.00014267676 -5.778989e-05 -0.00012538432
-0.00013070197 -9.099753e-05 -0.00016629953 -0.00010909957 -0.00013484445 -0.00019292384 -8.917187e-05 -0.00016029437
-0.00017516813 -5.913379e-05 0.0 0.0 0.0 7.325469e-10 0.0 0.0
0.0 0.0 0.0 -0.00012739906 -0.00013248571 -5.733746e-05 -0.00014643822 -0.00011721337
-1.9653055e-05 -0.0001444621 -8.9179084e-05 -2.9327416e-06 1.22920865e-05 -2.5480475e-05 -9.340875e-05 -1.1385988e-05
-4.820404e-05 -8.108207e-05 -3.949206e-05 -4.7387686e-05 -5.0201e-05 -9.745498e-05 -5.9096605e-05 -4.97407e-05
-0.00013259031 -4.0188694e-05 -2.6031032e-05 -0.00013657312 -2.0184316e-05 -1.7248563e-05 -9.84247e-05 -6.6974215e-05
-2.8876686e-06 -0.00010391521 -5.0481234e-05 1.0777573e-05 -0.00010445244 -4.4278793e-05 7.5898574e-06 -5.9041697e-05
-8.7600936e-05 -5.7814577e-05 -9.151585e-05 -0.00010040045 -4.5960394e-05 -0.00011907188 -0.00010173325 -4.153995e-05
5.563655e-06 -3.984733e-05 -4.0639035e-05 -3.221431e-06 -5.7075526e-05 -5.083063e-05 -1.8910938e-05 -5.301936e-05
-2.422568e-05 -6.7646884e-05 -6.9431626e-05 -3.5678142e-05 -7.906965e-05 -6.551147e-05 -2.517871e-05 -7.0347836e-05
-4.341793e-05 -1.880371e-05 -0.00016209255 -0.0001680036 -9.232864e-05 -0.00019317976 -0.00018261968 -8.07931e-05
-0.00018432883 -0.00015484069 -6.177849e-05 -9.24976e-05 -0.00015185088 -0.0001228469 -0.00013351793 -0.00016871514
-8.953731e-05 -0.00015453031 -0.00014989199 -5.6106917e-05 -6.544054e-05 -0.00010000689 -0.00010803932 -6.95028e-05
-0.00010581827 -0.00010152698 -6.532412e-05 -9.432273e-05 -8.097412e-05 -9.5093674e-05 -5.446808e-05 -2.0036408e-05
-9.8198805e-05 -4.2000825e-05 -1.9760034e-06 -9.977253e-05 -3.2127544e-05 6.7860387e-06 1.7935309e-06 -3.4692555e-05
-0.00013496312 6.8877853e-06 -5.284876e-05 -0.00015063296 -5.015316e-06 -9.070655e-05 -0.00016730258 3.1272748e-07
-7.606586e-07 -2.8880845e-06 2.6689676e-07 -2.4251763e-06 -1.5888672e-05 -1.6885602e-05 -2.6993739e-05 -4.9446546e-05

exp_avg_sq f4 [16, 1, 3, 3]
00000000: 155e 9b30 b62d 2331 066e 5731 2f50 c830
00000010: 3eac 5a31 b8b0 8f31 e80d c930 d455 5b31
00000020: 2443 7431 1846 9030 b600 3f31 918d df30
00000030: dd0b 3a31 083b 9531 f234 f830 b352 6931
00000040: 5c54 8531 aac1 c730 0000 0000 0000 0000
00000050: 0000 0000 c35f 9e21 0000 0000 0000 0000
00000060: 0000 0000 0000 0000 0000 0000 b649 8a31
00000070: 8ae2 9b31 ddb8 3c31 0ed5 9331 9dc4 6831
00000080: c080 b130 0634 4f31 a048 ce30 a520 f92f
00000090: c2ed dc2d ad58 ac2e 4d89 0630 a0a8 892e
000000a0: 6779 422f 5d67 c42f 2d19 7f2f 93df 332f
000000b0: f6db 282f 7439 fb2f eef6 5f2f 1b1a 952f
000000c0: 468a 5330 5cdf a22e beef 672e 95c6 8130
000000d0: 1659 e22d 75f5 a22d 09cb ad2f 3e71 112f
000000e0: ffe7 cb2b 545a f12f 7373 f82e 46de 8c2d
000000f0: 4550 0f30 d05b 3b2f 792c 6d2e e4d9 8d30
00000100: 128b fa30 bbd4 b830 d990 1131 40e6 2e31
00000110: 43a3 cf30 8b55 4531 d27b 3e31 bbe9 e130
00000120: 2831 632d a95f 802e c0d3 872e 2690 8f2d
00000130: e618 df2e 3b0b d32e 4e96 d62d 5007 af2e
00000140: 0266 012e de71 bd30 2107 f330 5e17 be30
00000150: 1ced ec30 5138 0431 2c93 ce30 e616 ba30
00000160: f18e b930 a68b ab30 53da 0132 668f 1632
00000170: 5bd6 cb31 a4fc 3732 eef9 3832 21d5 db31
00000180: 375a 2032 3e73 0f32 8100 a131 7d81 4b31
00000190: 4a6c d831 d1eb ce31 3ec3 c431 8a1f 0832
000001a0: c6ed a131 ac85 dc31 081e d431 8f5c 3c31
000001b0: 2935 3e31 329b 8b31 0b42 8f31 5fc6 4931
000001c0: 9b95 9031 23e2 8a31 2617 0931 c1da 4131
000001d0: 4c28 3231 9fc1 3130 d76a bc2f f66b 7c2f
000001e0: 03f2 4330 934c ae2f f022 342f 7058 5230
000001f0: b7f1 8e2f 2fdf 032f d2cc e22a f9fb 642e
00000200: 2d4b 6d30 0bc9 242d 71c7 602f a577 be30
00000210: 17e0 032f ee69 6730 287d 1f31 1a20 d428
00000220: a07b ae28 aff3 162b cd17 532c 84ed b92c
00000230: 0027 762e 9771 0a2f 7c6c 9d2f fbc7 2d30
1.1304474e-09 2.3745605e-09 3.1349159e-09 1.4574705e-09 3.1821084e-09 4.1819384e-09 1.4628627e-09 3.1917482e-09
3.5544838e-09 1.0497301e-09 2.7794562e-09 1.6265621e-09 2.7073306e-09 4.343182e-09 1.8059423e-09 3.3952972e-09
3.8804e-09 1.4534198e-09 0.0 0.0 0.0 1.0731844e-18 0.0 0.0
0.0 0.0 0.0 4.0247086e-09 4.5368482e-09 2.7462683e-09 4.3024846e-09 3.3872205e-09
1.2915038e-09 3.0152036e-09 1.5009114e-09 4.5316031e-10 2.511669e-11 7.8374064e-11 4.894403e-10 6.2599925e-11
1.7687328e-10 3.5725636e-10 2.3201059e-10 1.6359385e-10 1.5357657e-10 4.5697457e-10 2.0369459e-10 2.712149e-10
7.695785e-10 7.406584e-11 5.2736253e-11 9.442426e-10 2.5732787e-11 1.8526273e-11 3.1612782e-10 1.3227905e-10
1.4488409e-12 4.3901827e-10 1.1298242e-10 1.6014867e-11 5.2137167e-10 1.7040169e-10 5.392706e-11 1.0321028e-09
1.822942e-09 1.3448224e-09 2.1182613e-09 2.5451214e-09 1.5107634e-09 2.8715899e-09 2.7719023e-09 1.6437335e-09
1.2914371e-11 5.837759e-11 6.1767036e-11 1.6321233e-11 1.0145289e-10 9.597164e-11 2.4395732e-11 7.9593776e-11
2.9421805e-11 1.3783923e-09 1.7682603e-09 1.3830961e-09 1.723865e-09 1.924054e-09 1.5030301e-09 1.3539789e-09
1.3501148e-09 1.2481578e-09 7.558429e-09 8.763754e-09 5.932447e-09 1.0709446e-08 1.0767037e-08 6.397969e-09
9.333738e-09 8.3498986e-09 4.685774e-09 2.9613993e-09 6.2987384e-09 6.0221983e-09 5.7265472e-09 7.923413e-09
4.7127484e-09 6.4180394e-09 6.173426e-09 2.7410214e-09 2.7678857e-09 4.063076e-09 4.169356e-09 2.936211e-09
4.2079598e-09 4.0420374e-09 1.9949282e-09 2.8209544e-09 2.5925315e-09 6.4667377e-10 3.4272915e-10 2.2957622e-10
7.1284506e-10 3.1704825e-10 1.6383317e-10 7.652323e-10 2.6001398e-10 1.1993671e-10 4.0287787e-13 5.2064995e-11
8.632693e-10 9.366961e-12 2.0443537e-10 1.3858324e-09 1.1993993e-10 8.4187846e-10 2.3208688e-09 2.355065e-14
1.9371494e-14 5.3628884e-13 2.9998116e-12 5.2843858e-12 5.5968563e-11 1.2591382e-10 2.8635216e-10 6.322122e-10

exp_avg f4 [16]
00000000: b07b d6b9 f0b6 7eb9 9200 4c30 9f3c 1fba
00000010: 87a1 12ba a990 3aba d396 00b9 e8bb a5b9
00000020: 8e02 bbb8 d83d deb9 9962 25ba 0373 ddb9
00000030: d180 88b9 a39d deb9 3de2 09ba b9ad b7b8
-0.00040909415 -0.00024291477 7.421558e-10 -0.0006074402 -0.00055935275 -0.0007116893 -0.00012263218 -0.00031611254
-8.917331e-05 -0.00042389217 -0.00063089427 -0.00042238095 -0.00026035917 -0.00042460588 -0.00052598474 -8.758478e-05

exp_avg_sq f4 [16]
00000000: 5827 6832 364d c231 d753 a121 b6b7 0433
00000010: df5b 8f32 61bd 0733 da1c 3530 cff2 0532
00000020: b302 612f 0a4e 7532 49c8 2833 c793 a332
00000030: 7c9a 3a32 f3f3 2732 46fe 8532 8d33 ae30
1.3513123e-08 5.654921e-09 1.0931977e-18 3.090073e-08 1.668917e-08 3.1604376e-08 6.5888417e-10 7.796827e-09
2.046459e-10 1.4278621e-08 3.9297706e-08 1.9042899e-08 1.0861751e-08 9.776147e-09 1.5598868e-08 1.2674818e-09

exp_avg f4 [8, 16, 3, 3]
00000000: f14a dfb7 22df 24b9 00c4 34b8 2eb4 2fb8
00000010: dc51 4bb9 6fe3 dab7 c8c3 9eb7 bd4e 35b9
00000020: a390 b735 701f b636 85c5 25b8 929e 14b7
00000030: 9a9a de35 854d 6ab8 e9ae 3db6 dd2d 3337
00000040: 7245 4db8 4732 0137 0000 0000 0000 0000
00000050: 0000 0000 0000 0000 0000 0000 1bab 6a2d
00000060: 0000 0000 0000 0000 cdd3 532e 1f6c 18b8
00000070: 9894 d1b8 00b6 8eb8 69fc 29b8 3d48 0ab9
00000080: f34d 81b8 db83 fbb7 1817 03b9 05d5 10b8
00000090: 1bc6 56b8 9f0c 85b8 33a6 68b8 4f44 6eb8
000000a0: d5ff 86b8 f251 58b8 8196 5db8 558d 87b8
000000b0: 5fd0 52b8 6dd3 b1b7 bbf1 ffb7 f543 00b8
000000c0: dbb9 c2b7 2441 02b8 9f9a e9b7 226f b0b7
000000d0: cc90 10b8 a5cc c9b7 e851 09b6 b5f5 cfb7
000000e0: 3821 18b7 6919 65b3 a091 0ab8 271f 30b7
000000f0: 2d97 f536 a811 9fb7 8b6c 84b6 73c4 b936
00000100: 3f62 9eb8 d9db 00b8 93b0 3336 0485 dab8
00000110: bd0d 99b7 29d6 7e37 ed0d b4b8 4389 f236
00000120: 4c93 9834 8ece 41b7 7a08 beb5 dbc1 b1b5
00000130: 762b 6bb7 3641 3435 e930 e735 c807 5db7
00000140: bf5f 5136 447e 4eb8 382a 60b9 f03c ffb8
00000150: 511f 72b8 cd74 93b9 a9ad dbb8 48de ceb7
00000160: c957 7fb9 6887 45b8 ee33 52b8 61d5 1eb9
00000170: 69e5 beb8 bffd 68b8 234c 49b9 69b7 a6b8
00000180: 23fc 12b8 6a36 2fb9 8fca 3fb8 0742 df36
00000190: 103d 15b9 f818 6db8 d9e6 e9b6 2207 4db9
000001a0: 82a5 03b8 918e 7237 ed36 38b9 0aa8 7737
000001b0: 86ca de36 6f31 0db9 79a0 c5b7 e5b4 2eb7
000001c0: 8aa6 41b9 8090 4cb7 c7a2 b637 0df3 27b9
000001d0: 45fd e937 e2ec 79b7 6718 4cb8 27c3 37b8
000001e0: 1a1d 54b7 52a4 94b8 4f10 2cb8 b480 04b7
000001f0: e316 89b8 697f c7b7 1e0c 1bb8 b1a8 b4b8
00000200: 4827 3bb8 5dfe 32b8 1c5d c5b8 befc feb7
00000210: f635 45b8 e620 a9b8 9711 ffb7 8528 32b6
00000220: 47f9 8eb7 c20e c2b6 d521 10b5 1a76 3ab7
00000230: 56ea 2bb5 d66b 52b6 10fe 2eb3 c081 d635
00000240: 0d18 0a36 89e5 d8b8 7d20 91b7 60e7 bf34
00000250: 1257 04b9 91a3 3137 5146 3837 f594 d8b8
00000260: 65c9 0238 f259 1e37 8ea4 dbb7 d38a 68b6
00000270: 99f7 2937 7616 22b8 5ae3 d136 83a1 5a37
00000280: 75c1 08b8 77db 6f37 0000 0000 ebe2 7ea5
00000290: 21e2 8baa 0000 0000 e9c0 2ea9 f6c0 6e2d
000002a0: 0000 0000 0000 0000 ea7b af2d fe83 89b7
000002b0: c133 85b8 4825 38b8 82ae 5fb7 b9a6 b8b8
000002c0: d938 fcb7 f8b5 dfb6 53e2 a3b8 24a5 27b6
000002d0: 2996 0db8 0987 39b8 f380 1db8 141b 1bb8
000002e0: 5389 3cb8 e4d7 0cb8 18b4 01b8 0ce9 2fb8
000002f0: c7c9 fbb7 84ae 6cb7 558c aeb7 90ce adb7
00000300: a634 76b7 25de b6b7 f149 92b7 81e3 3db7
00000310: f5be c4b7 b0bb 62b7 d15a e7b4 b974 88b7
00000320: f582 60b6 a5e9 4a36 974a c1b7 25f3 28b6
00000330: e4a4 0537 3e27 52b7 da69 4835 910d 7937
00000340: 14cc 4ab8 8391 88b7 80bc 9b37 e0b9 8fb8
00000350: c838 4936 f10d b837 b78e 5db8 2858 c437
00000360: 9a6c dd35 4f8f 0bb7 b2c1 e6b4 ca25 c935
00000370: f3c0 27b7 28d0 2d36 4b5b 5e36 2c28 14b7
00000380: 0416 9a36 1043 1fb7 6b46 0db9 b7fa 94b8
00000390: 7be2 40b5 60db 3db9 56dc 17b8 586b 9037
000003a0: 8853 17b9 9122 8237 ed35 9bb7 e119 ccb8
000003b0: be6a 61b8 ed4a 67b7 44e1 02b9 bd22 06b8
000003c0: 498d 06b6 c3ee d0b8 0811 d2b5 2268 cd37
000003d0: 3395 c0b8 2a8d 07b8 88c8 d037 30a3 08b9
000003e0: 61a1 b736 637e 0038 9142 e8b8 4335 3d38
000003f0: adee d737 c674 b0b8 bac5 4ab6 1205 de37
-2.6618569e-05 -0.00015723382 -4.3097883e-05 -4.1891057e-05 -0.00019390084 -2.6093532e-05 -1.8926235e-05 -0.00017290837
1.3676657e-06 5.4276825e-06 -3.952302e-05 -8.858407e-06 1.6585284e-06 -5.5862143e-05 -2.8265006e-06 1.067991e-05
-4.8940485e-05 7.700705e-06 0.0 0.0 0.0 0.0 0.0 1.3339353e-11
0.0 0.0 4.8163962e-11 -3.634032e-05 -9.993574e-05 -6.804988e-05 -4.0527815e-05 -0.00013187616
-6.1657185e-05 -2.9982932e-05 -0.00012501737 -3.4530665e-05 -5.1206076e-05 -6.344285e-05 -5.5467895e-05 -5.680724e-05
-6.43727e-05 -5.157473e-05 -5.2830674e-05 -6.463627e-05 -5.0261962e-05 -2.1198497e-05 -3.0510933e-05 -3.0580868e-05
-2.3213148e-05 -3.1055082e-05 -2.7847766e-05 -2.1032585e-05 -3.4467128e-05 -2.4056362e-05 -2.0462267e-06 -2.479074e-05
-9.06764e-06 -5.3341328e-08 -3.3037388e-05 -1.0497671e-05 7.319168e-06 -1.8962499e-05 -3.9465426e-06 5.5362993e-06
-7.552327e-05 -3.0722327e-05 2.6775858e-06 -0.00010419826 -1.8245419e-05 1.5189443e-05 -8.585663e-05 7.2281414e-06
2.841938e-07 -1.1551789e-05 -1.415857e-06 -1.3243947e-06 -1.4017211e-05 6.715012e-07 1.7225076e-06 -1.3174438e-05
3.1199158e-06 -4.923182e-05 -0.00021378032 -0.00012170698 -5.772646e-05 -0.00028125048 -0.000104750805 -2.4660621e-05
-0.00024351398 -4.7094567e-05 -5.0116265e-05 -0.00015147544 -9.102637e-05 -5.554943e-05 -0.00019197217 -7.9496596e-05
-3.5043933e-05 -0.00016709571 -4.5726596e-05 6.6536045e-06 -0.00014232495 -5.6528457e-05 -6.9708153e-06 -0.0001955298
-3.1386975e-05 1.4457518e-05 -0.00017568069 1.4761472e-05 6.6396924e-06 -0.00013465223 -2.3558956e-05 -1.0413326e-05
-0.00018467955 -1.2192992e-05 2.177189e-05 -0.00016016905 2.7893702e-05 -1.489671e-05 -4.8660117e-05 -4.381235e-05
-1.264296e-05 -7.087797e-05 -4.1023184e-05 -7.897779e-06 -6.536932e-05 -2.3781979e-05 -3.6966165e-05 -8.61449e-05
-4.4620858e-05 -4.26754e-05 -9.411035e-05 -3.0396852e-05 -4.7018715e-05 -8.064676e-05 -3.040656e-05 -2.6547652e-06
-1.7043798e-05 -5.7833686e-06 -5.369341e-07 -1.1113962e-05 -6.404347e-07 -3.1355207e-06 -4.07436e-08 1.5982005e-06
2.0577602e-06 -0.00010342437 -1.7300476e-05 3.574487e-07 -0.00012620937 1.0588105e-05 1.0983626e-05 -0.00010327428
3.118198e-05 9.438476e-06 -2.6183461e-05 -3.46515e-06 1.0130833e-05 -3.864473e-05 6.2551526e-06 1.3031417e-05
-3.2605098e-05 1.4296608e-05 0.0 -2.2107871e-16 -2.4848269e-13 0.0 -3.8803084e-14 1.357158e-11
0.0 0.0 1.9950225e-11 -1.6393136e-05 -6.351574e-05 -4.390374e-05 -1.3332467e-05 -8.804858e-05
-3.0067213e-05 -6.667102e-06 -7.814602e-05 -2.4981064e-06 -3.3756867e-05 -4.42332e-05 -3.755181e-05 -3.69801e-05
-4.4950586e-05 -3.3579665e-05 -3.0923722e-05 -4.1940293e-05 -3.0015492e-05 -1.4107329e-05 -2.0807764e-05 -2.0719395e-05
-1.4675001e-05 -2.1799535e-05 -1.7438988e-05 -1.1318248e-05 -2.3453942e-05 -1.3514349e-05 -4.309318e-07 -1.6266817e-05
-3.3454828e-06 3.0236345e-06 -2.3042126e-05 -2.517548e-06 7.965809e-06 -1.2526112e-05 7.465984e-07 1.4844715e-05
-4.8350616e-05 -1.6280223e-05 1.8565217e-05 -6.853393e-05 2.9984385e-06 2.1941001e-05 -5.282342e-05 2.3406072e-05
1.649739e-06 -8.318412e-06 -4.298177e-07 1.4986665e-06 -9.9989e-06 2.5900172e-06 3.3133717e-06 -8.830841e-06
4.5921206e-06 -9.492753e-06 -0.0001347304 -7.103889e-05 -7.1855146e-07 -0.00018106168 -3.620641e-05 1.7216124e-05
-0.000144316 1.5513304e-05 -1.8502551e-05 -9.732298e-05 -5.374359e-05 -1.3786118e-05 -0.00012481684 -3.1980442e-05
-2.0049795e-06 -9.962686e-05 -1.5651176e-06 2.4486395e-05 -9.183064e-05 -3.2317977e-05 2.4888912e-05 -0.00013030763
5.472612e-06 3.0635285e-05 -0.00011075021 4.5110715e-05 2.574114e-05 -8.414085e-05 -3.0215438e-06 2.6466823e-05

exp_avg_sq f4 [8, 16, 3, 3]
00000000: 70de ca30 f8da aa31 9826 1031 a9cf 0e31
00000010: c9db ca31 6465 0131 50eb f430 9b04 c131
00000020: 4d01 8e30 a20b ee2c 7918 d92e 08c7 ed2d
00000030: d5bc 902d a6cc 302f 4165 da2d c0c3 7f2d
00000040: aade 1b2f 283f 802d 0000 0000 0000 0000
00000050: 0000 0000 0000 0000 0000 0000 6096 d71e
00000060: 0000 0000 0000 0000 5186 241e d6e0 1230
00000070: 98fc 0731 6a57 a630 8710 5830 bd26 1d31
00000080: 5bc0 ae30 cbd3 3130 ed16 1f31 38fc 8430
00000090: 8c28 ec2f 6120 db2f f29c f22f 5a46 0930
000000a0: 63b6 cb2f 06c3 e62f 6566 0530 cc72 d62f
000000b0: 215b df2f d59f 412e 9a29 6e2e 3b93 c52e
000000c0: a2d2 7b2e bb50 432e 626d 9e2e bf86 772e
000000d0: d507 7e2e 5cf9 7a2e d87d 3d2b c8d3 112e
000000e0: 397a 082e 8621 322b 0083 312e 090e 862d
000000f0: 175d 9a2c e6da 8a2d 8683 5e2c a666 d52e
00000100: 30e9 7730 2872 0330 2a24 4a2f 862d a430
00000110: a561 f42f 9b90 282f 96a8 9230 2827 742f
00000120: a846 8829 92ca 422c 8ec8 ca29 4e5e 362a
00000130: 02fe 8b2c ecaa 9029 1973 2e2a 35f2 782c
00000140: ac41 872a d763 4e31 f838 5632 3365 0b32
00000150: 8543 9831 09fe 7932 937b 0732 66ec 8531
00000160: b9ae 6832 b0ee ac31 d76f d830 018c a731
00000170: 7b4d 6431 2f89 0d31 30bb c531 c0db 5931
00000180: 55f4 fb30 3b11 b631 3e12 1131 23ee 1730
00000190: e2a9 9331 6836 0631 1943 9b30 33ff b831
000001a0: b8dd 0731 a9d4 5030 ce88 b931 4917 9930
000001b0: 9cd4 7330 07d2 b431 45eb 1d31 7f94 e330
000001c0: 3c0b d531 e27a 1531 be87 d230 894c c531
000001d0: bc8c a730 8370 762e 2fd1 b12f 2ab3 c12f
000001e0: 3c05 bb2e 4f32 0030 2e69 cb2f d98f a02e
000001f0: aa2d f92f 559f 7c2f 9d7a e52f 283d 4b30
00000200: 96a4 942f 46fc e22f adda 5730 0be8 5c2f
00000210: 34f2 cf2f c414 2d30 1e3c 522f 147a 072d
00000220: 7f12 132e 3dc4 d02c ec51 0a2c 16ac 7e2d
00000230: 640d 532b 063e 342c 09ff 052d 426f ff2a
00000240: b73c 0f30 aeff e330 87d8 2730 5a29 a32f
00000250: 3941 a430 83d0 982f b411 622f b516 3f30
00000260: bf0b 302f 1af3 d82c 3abd 182e e0cc 472d
00000270: 3e92 092d 7074 652e 8214 1b2d da4c 2e2d
00000280: c817 2e2e 7341 3c2d 0000 0000 57c6 8d14
00000290: 38e2 b21c 0000 0000 08a6 f51a ed51 0f1d
000002a0: 0000 0000 0000 0000 e31f d91c b114 4c2f
000002b0: 0e51 2930 3edb f32f 6035 4a2f 066b 2d30
000002c0: 934d 852f 39e9 8f2e 3790 be2f e316 b72e
000002d0: c520 222f 853f 1a2f 48c5 1a2f 30ee 2c2f
000002e0: f8bc 262f 4e22 0d2f 9abf 872e b98a a22e
000002f0: 8a0f 792e 71b1 9a2d 31b1 b22d 19f1 f62d
00000300: 7899 a82d cb1f b72d 0a8a aa2d b905 0b2d
00000310: 28a0 952d 7b7f 272d c288 022b 39e4 392d
00000320: 5282 022d dbb2 c42a e741 712d 387c 0c2c
00000330: 3d06 382c 3f9a 9e2c 1932 1e2b edd2 6a2e
00000340: e09d a12f 7b35 2d2f 434c 4a2e ed8e 852f
00000350: e109 872e 63e2 562e 745c 342f ed0b 742e
00000360: 5df4 e929 1961 c62b 1d7a 5a29 8871 0f2a
00000370: 77a5 0a2c d5a4 4f2a 2c19 a22a 02cc d82b
00000380: 3937 032b 1e59 9830 baae 8431 81a8 2e31
00000390: 24fa 4630 725b 4731 84ac 9430 15a2 e52f
000003a0: 78fd d330 c506 eb2f 3b03 1330 dcad d530
000003b0: 2696 8c30 6fad ce2f b1f7 ad30 9881 0c30
000003c0: ca9a 4a2f 735a 3530 6320 422f e043 872f
000003d0: 5183 bb30 e20f 3730 0f78 592f 01be 9930
000003e0: 8471 842f 6737 222f 61f5 5030 a5a9 6b2f
000003f0: 256c ef2f e8d9 ed30 a06a 4d30 11ad 982f
1.4760655e-09 4.972545e-09 2.0976696e-09 2.078176e-09 5.9039604e-09 1.8829605e-09 1.7820216e-09 5.617563e-09
1.033223e-09 6.7656583e-12 9.872365e-11 2.7032168e-11 1.6454763e-11 1.6079812e-10 2.4828696e-11 1.4538537e-11
1.4176274e-10 1.4579962e-11 0.0 0.0 0.0 0.0 0.0 2.2826204e-20
0.0 0.0 8.709864e-21 5.3434e-10 1.9788668e-09 1.2102934e-09 7.860383e-10 2.2868527e-09
1.2714837e-09 6.46932e-10 2.3150577e-09 9.675949e-10 4.295696e-10 3.9858875e-10 4.413106e-10 4.9940285e-10
3.7055078e-10 4.197533e-10 4.853063e-10 3.900794e-10 4.0628215e-10 4.402508e-11 5.4151884e-11 8.984676e-11
5.7257872e-11 4.440957e-11 7.2044384e-11 5.6280976e-11 5.775987e-11 5.7064894e-11 6.732093e-13 3.3157282e-11
3.1031375e-11 6.3284827e-13 4.0361492e-11 1.5240269e-11 4.3872783e-12 1.5785994e-11 3.1621108e-12 9.7043526e-11
9.0189456e-10 4.781975e-10 1.8384641e-10 1.1945509e-09 4.4452722e-10 1.5330885e-10 1.0670813e-09 2.2205582e-10
6.05187e-14 2.7681507e-12 9.005393e-14 1.6197566e-13 3.978818e-12 6.424535e-14 1.5494237e-13 3.5377372e-12
2.4026386e-13 3.0033698e-09 1.2469393e-08 8.113875e-09 4.4314583e-09 1.45514685e-08 7.886132e-09 3.897685e-09
1.3543905e-08 5.0329945e-09 1.5747855e-09 4.8762563e-09 3.322241e-09 2.059618e-09 5.7547354e-09 3.170257e-09
1.8332097e-09 5.298856e-09 2.1110647e-09 5.527189e-10 4.2975765e-09 1.9530493e-09 1.1296805e-09 5.3841176e-09
1.9771118e-09 7.597217e-10 5.3997615e-09 1.1138833e-09 8.870502e-10 5.262567e-09 2.2980242e-09 1.6558629e-09
6.200393e-09 2.1752204e-09 1.5318091e-09 5.7421556e-09 1.2190848e-09 5.6033855e-11 3.2344746e-10 3.52338e-10
8.504705e-11 4.663762e-10 3.700022e-10 7.30151e-11 4.5325282e-10 2.2975873e-10 4.174198e-10 7.393788e-10
2.7037989e-10 4.1288412e-10 7.85273e-10 2.0091322e-10 3.7825176e-10 6.2966543e-10 1.9120747e-10 7.700968e-12
3.3440358e-11 5.9335024e-12 1.9656455e-12 1.4476439e-11 7.498084e-13 2.5613968e-12 7.616804e-12 4.53743e-13
5.210938e-10 1.6589092e-09 6.106195e-10 2.967891e-10 1.1951108e-09 2.7796795e-10 2.056087e-10 6.9517664e-10
1.601128e-10 6.166079e-12 3.4728866e-11 1.1357332e-11 7.820021e-12 5.217199e-11 8.815284e-12 9.907819e-12
3.958414e-11 1.0701095e-11 0.0 1.4315593e-26 1.1837528e-21 0.0 1.0159786e-22 1.8968247e-21
0.0 0.0 1.4368098e-21 1.8561043e-10 6.159703e-10 4.4357223e-10 1.8390756e-10 6.3089123e-10
2.424768e-10 6.544316e-11 3.466327e-10 8.325942e-11 1.4745456e-10 1.4028785e-10 1.4076307e-10 1.572793e-10
1.5164747e-10 1.2836063e-10 6.1731245e-11 7.391549e-11 5.6629847e-11 1.7586573e-11 2.0314946e-11 2.8074031e-11
1.9167543e-11 2.081881e-11 1.9388064e-11 7.902506e-12 1.7010462e-11 9.521157e-12 4.637507e-13 1.0566708e-11
7.418581e-12 3.49407e-13 1.3713897e-11 1.9964152e-12 2.6151436e-12 4.507755e-12 5.62024e-13 5.339278e-11
2.9397906e-10 1.5753258e-10 4.5997216e-11 2.4294114e-10 6.140844e-11 4.885904e-11 1.640375e-10 5.548977e-11
1.0389669e-13 1.4095696e-12 4.851164e-14 1.274034e-13 1.970283e-12 1.8442481e-13 2.8794447e-13 1.5404347e-12
4.6617186e-13 1.1084784e-09 3.8615697e-09 2.5416116e-09 7.238745e-10 2.9010292e-09 1.0817449e-09 4.1770024e-10
1.5424311e-09 4.275106e-10 5.348288e-10 1.5547204e-09 1.0229015e-09 3.7594414e-10 1.2657805e-09 5.1115867e-10
1.8426785e-10 6.597595e-10 1.7655703e-10 2.4604585e-10 1.3643363e-09 6.6597583e-10 1.9778688e-10 1.1186218e-09
2.4091318e-10 1.4753497e-10 7.6018664e-10 2.1433395e-10 4.3550688e-10 1.7305952e-09 7.473009e-10 2.777161e-10

exp_avg f4 [8]
00000000: c4a1 49b9 e888 06b9 889b 11b9 2b66 4cb9
00000010: 0e49 18b8 f046 b1b9 3249 b0b8 3194 ffb8
-0.00019229116 -0.00012830237 -0.00013886217 -0.00019493017 -3.630766e-05 -0.00033812923 -8.405968e-05 -0.0001218695
