models/20221206-fc-2/model.ckpt (torch, 886133 bytes, 16 tensors)

encoder.1.weight f4 [128, 784]
0	0xbb7978ee	-0.0038066464
1	0x3ca31b95	0.019910613
2	0xbc3a91c5	-0.011387293
3	0x3ced933e	0.029000875
4	0xbcd34a91	-0.025792392
5	0x3b2770dc	0.0025549447
6	0xbce0f4fa	-0.027460564
7	0x3cb6fc57	0.022337122
8	0xbabdaddc	-0.001447137
9	0xbc05d317	-0.0081680035
10	0xbc01a8ce	-0.007913781
11	0x3a59b401	0.0008304716
12	0x3db8c489	0.09021861
13	0x3d2d9d4e	0.042386346
14	0xbd7fc069	-0.062439356
15	0x3ceeb6c7	0.02913989
16	0xbccea26e	-0.025223937
17	0x3d02ec7b	0.031963807
18	0x3cc4067e	0.023928877
19	0x3cfa99be	0.030590888
20	0x3be94578	0.007118877
21	0x3b76fc4a	0.0037686997
22	0x3cb930b3	0.02260623
23	0xbb9ac480	-0.0047231317
24	0xbc0f70ca	-0.008754918
25	0x3d0fec7a	0.03513763
26	0xbc518857	-0.012788854
27	0x3ccdb3d3	0.025110161
28	0xbd11522f	-0.035478767
29	0x3cedddc3	0.029036408
30	0xbcf5734c	-0.029962204
31	0x3cf4525e	0.029824432
32	0xbcf113bf	-0.029428361
33	0xbde42117	-0.11139124
34	0x3e05c40d	0.13063069
35	0x3df26f86	0.11837678
36	0x3d0e820e	0.034792
37	0x3c46eed4	0.012141902
38	0x3d175929	0.036950264
39	0xbdd4d08d	-0.103913404
40	0xbd51a50f	-0.051182803
41	0x3d82d7bb	0.063888036
42	0xbb2b6d26	-0.0026157587
43	0x3dd0cc17	0.10195177
44	0x3e0e3d60	0.138906
45	0x3e4686d9	0.19387378
46	0xbe51bec6	-0.2048293
47	0xbdf006dc	-0.11720058
48	0xbc8f5155	-0.017494837
49	0xbd74c31c	-0.059756383
50	0xbe22b3e4	-0.15888935
51	0xbdb39cb8	-0.08770126
52	0x3ca601ba	0.020264495
53	0x3c8d04fc	0.01721429
54	0xbcbc8cf7	-0.023016436
55	0x3d043026	0.03227248
56	0x3c73b073	0.014873612
57	0xbccf7091	-0.02532223
58	0xbc51804a	-0.012786934
59	0xbde684f6	-0.11255829
60	0x3d1b1ec1	0.037871126
61	0x3d7215c5	0.059102792
62	0x3dc00726	0.093763635
63	0x3db2ce55	0.08730761
64	0xbde1c502	-0.110239044
65	0xbcee2462	-0.029070083
66	0x3dceb488	0.10093027
67	0x3d9d49eb	0.07680114
68	0x3e0b07a1	0.13577129
69	0xbd21a278	-0.039461583
70	0x3df821d1	0.12115825
71	0x3d966f0a	0.07345398
72	0x3e19d336	0.15021977
73	0x3e179066	0.14801177
74	0x3e395c34	0.18101579
75	0x3e32750c	0.17427462
76	0x3df2c5e8	0.11854154
77	0x3e0b98e7	0.13632546
78	0x3e85b507	0.26114675
79	0x3d5da3b8	0.054111212
80	0xbdfe4222	-0.124149576
81	0xbe065c25	-0.13121088
82	0x3b407b01	0.002937019
83	0x3cc9b0b7	0.024620397
84	0xbce240ee	-0.027618852
85	0x3ce6590a	0.028118629
86	0xba9fd5c5	-0.0012194446
87	0xbcde8ea3	-0.027167624
88	0x3e31a4c0	0.17348003
89	0xbcf8b0f7	-0.03035782
90	0x3d58e6c8	0.052954465
91	0x3d1c4654	0.038153008
92	0x3c569bde	0.013098685
93	0x3e229e5e	0.15880725
94	0x3dc8e702	0.09809686
95	0x3e6d1e80	0.23156166
96	0x3e1c1839	0.15243615
97	0x3e679a60	0.22617483
98	0x3e7f85a7	0.24953328
99	0x3d7b2858	0.06131777
100	0x3cf4ab06	0.029866707
101	0x3d2334c5	0.039845247
102	0xbc6be42d	-0.014397663
103	0xbcda45ca	-0.026644606
104	0x3d079b65	0.03310718
105	0xbd236583	-0.03989173
106	0x3e481b56	0.19541678
107	0x3c8ac746	0.016940724
108	0x3ddcfeb5	0.10790769
109	0xbe0b8e81	-0.1362858
110	0xbecb89f1	-0.39753678
111	0xbcda1aac	-0.026624046
112	0x3b6b3eee	0.0035895663
113	0xbd06a21c	-0.032869443
114	0xbe10e691	-0.14150454
115	0x3dc8b688	0.0980044
116	0x3dc4c9c1	0.09608794
117	0x3dacec6b	0.08443531
118	0xbdfeb84d	-0.12437496
119	0x3782745e	1.5551395e-05
120	0x3baeda02	0.005336047
121	0x3da12c5b	0.07869788
122	0x3d766c7d	0.060162056
123	0x3d83a83a	0.06428571
124	0x3e1f342b	0.15547244
125	0x3e037392	0.12837055
126	0x3e2c8526	0.16847667
127	0x3d3ca184	0.04605247
128	0x3d3040e5	0.04303064
129	0x3d8a2344	0.06745008
130	0x3d7e469a	0.06207905
131	0xbcfa982b	-0.030590137
132	0x3c83bbac	0.0160807
133	0xbd7010c1	-0.058609728
134	0xbde66405	-0.11249546
135	0x3d314477	0.043278184
136	0x3dc34f50	0.09536612
137	0x3c2baef3	0.010478723
138	0xbe937819	-0.28802565
139	0x3cbd84c2	0.023134593
140	0x3ba1a46e	0.0049329316
141	0xbc0a0b57	-0.008425555
142	0xbe5dce6f	-0.2166078
143	0xbd4ef49c	-0.050526246
144	0x3dac427e	0.0841112
145	0xbdaa1009	-0.0830384
146	0xbde80a00	-0.11330032
147	0xbe0bc71b	-0.13650171
148	0xbdacabc5	-0.084312
149	0x3cbc8cb7	0.023016317
150	0xbc97f705	-0.018550405
151	0x3d07e5a8	0.033178
152	0xbbe77ffa	-0.0070648165
153	0x3db1a7f2	0.08674611
154	0xbcc2306d	-0.023704732
155	0x3bef34ca	0.007299994
156	0x3ce72daa	0.028220017
157	0x3ca8d35d	0.020608598
158	0xbd22504f	-0.03962737
159	0xbd4e507d	-0.05036973
160	0xbdd3bea5	-0.10339097
161	0xbdb2f846	-0.08738761
162	0xbe55aa11	-0.20865656
163	0x3d5f29d1	0.05448324
164	0xbcc1a3d0	-0.023637682
165	0x3e3991f8	0.18122089
166	0x3e2061a4	0.15662247
167	0xbdc862c3	-0.09784462
168	0x3c828a2a	0.015935022
169	0x3727c99e	1.0000918e-05
170	0xbe18e213	-0.1492999
171	0x3dd05cb1	0.101739295
172	0x3b3792d9	0.0028011112
173	0xbb0661cb	-0.0020505066
174	0x3ca23786	0.019801866
175	0xbd70b890	-0.058769763
176	0xbd399b05	-0.045313854
177	0xbd19bb1d	-0.03753196
178	0xbda89080	-0.08230686
179	0xbcb38ec1	-0.021918656
180	0xbd83330f	-0.06406223
181	0xbc8c77de	-0.017147
182	0xbdd84e0e	-0.10561763
183	0xbd71be11	-0.059019152
184	0xbc861209	-0.016366022
185	0xbd4178d3	-0.047234368
186	0xbc895c74	-0.016767718
187	0xbdaf9d63	-0.08574941
188	0xbd3a34da	-0.04546056
189	0xbc30683e	-0.010767041
190	0xbdfd61b9	-0.12372155
191	0xbd6a5061	-0.05720556
192	0xbd8b7a2d	-0.068104126
193	0xbe34003f	-0.17578219
194	0xbd3b5908	-0.045739204
195	0xbead2a8a	-0.33821517
196	0xbca9c858	-0.020725414
197	0x3dd2829a	0.102788165
198	0x3d01272a	0.03153149
199	0x3c792899	0.015207433
200	0xbd9d6c08	-0.07686621
201	0xbdb91946	-0.09038024
202	0xbd02c540	-0.031926394
203	0xbd02034c	-0.031741425
204	0xba660090	-0.00087738875
205	0xbd679d47	-0.056546476
206	0xbcb0d1d1	-0.021584423
207	0xbcd97e78	-0.026549563
208	0x3bdd796a	0.0067588584
209	0x3cb4d909	0.022076147
210	0xbd0733d0	-0.033008397
211	0xbc83a937	-0.016071899
212	0x3cf077af	0.029353945
213	0xbc8afeb6	-0.016967159
214	0xbdcf8662	-0.10133053
215	0xbd8e3387	-0.06943422
216	0xbd97c086	-0.07409768
217	0xbdae7915	-0.08519188
218	0xbd169c7a	-0.03677032
219	0xbe242599	-0.16029967
220	0xbea70439	-0.3262041
221	0xbe8c33e9	-0.27383354
222	0x3e22cfa4	0.15899521
223	0xbe20d6f1	-0.15706994
224	0x3d3226dd	0.043494094
225	0xbd08074e	-0.03321009
226	0xbe3a2912	-0.1817973
227	0xbd819fa9	-0.06329281
228	0x3c9dae02	0.019248012
229	0xbd1d8ab8	-0.03846237
230	0x3dc1555b	0.094401084
231	0x3ce0a64b	0.027423045
232	0xbcabc726	-0.020968985
233	0xbc801fd3	-0.015640175
234	0xbb81f502	-0.003965975
235	0x3d1c1908	0.03810981
236	0x3da9f2d3	0.08298268
237	0x3d5ee1ab	0.054414432
238	0xbd073e81	-0.033018593
239	0xbc9c4a2f	-0.019078342
240	0xbd3071a8	-0.04307714
241	0xbc89dc13	-0.016828572
242	0xbd772918	-0.060341924
243	0xbd9239a4	-0.071399
244	0xbd058748	-0.032599717
245	0x3cf0fcd3	0.029417431
246	0x3d733705	0.059378643
247	0x3d1dfe78	0.03857276
248	0xbd74a6bc	-0.059729323
249	0xbdb9c6ed	-0.09071145
250	0x3df23ae6	0.1182764
251	0x3e3d2784	0.18472105
252	0x3e0a26e1	0.13491394
253	0xbd901cd3	-0.07036748
254	0xbd5ea87f	-0.05435991
255	0x3d21cecc	0.039503857

encoder.1.bias f4 [128]
0	0xbe0620a7	-0.13098393
1	0x3e3cd3e5	0.18440206
2	0x3f0cf771	0.55065066
3	0x3b5851a2	0.0033007641
4	0x3e3e997a	0.18613234
5	0xbd072987	-0.032998588
6	0xbc2b3e8a	-0.010451922
7	0x3cd69c35	0.026197532
8	0xbd168f05	-0.036757488
9	0x3ee5190c	0.44745672
10	0xbc0a2c6f	-0.008433445
11	0x3b5453ea	0.003239865
12	0x3c99435f	0.018708883
13	0xbd2bba8a	-0.041925944
14	0x3b5bcb5a	0.0033537955
15	0x3f2e4f7e	0.68090045
16	0x3b6d47db	0.003620616
17	0x3e1909f2	0.149452
18	0x3e6dd413	0.23225431
19	0xbcf753e4	-0.03019137
20	0xbd033f6e	-0.032042913
21	0x3e6aeccf	0.22941898
22	0x3eaa8d1c	0.33310783
23	0x3e350bbb	0.17680256
24	0xbc7e3638	-0.015515856
25	0x3e4e55a7	0.20149861
26	0x3f1be2b1	0.6089278
27	0x3e8a55b0	0.270185
28	0xbe41c8d7	-0.1892427
29	0xbca5e111	-0.020248922
30	0x3f5bd4d9	0.85871655
31	0xb99143ed	-0.00027707164
32	0xbe02cd07	-0.12773524
33	0x3e79ea6f	0.24405836
34	0xbbec8002	-0.007217408
35	0xbc2306fa	-0.009950394
36	0x3ea25f8c	0.3171352
37	0x3ee290c9	0.44251087
38	0xbb3a82e4	-0.0028459365
39	0x3e5c400a	0.21508804
40	0x3e779204	0.24176794
41	0x3e759010	0.23980737
42	0x3e71285c	0.23550552
43	0x3ebd1063	0.36926565
44	0x3e55d88d	0.20883389
45	0x3efa6fe6	0.48913497
46	0x3c8fa582	0.017534975
47	0x3e90f3a5	0.28310886
48	0xbc0ce9cf	-0.008600666
49	0xbd22a606	-0.039709114
50	0x3f328d35	0.69746715
51	0xbdc96d22	-0.098352686
52	0x3e825e3d	0.25462523
53	0x3ce45c48	0.027876034
54	0xbdbee6fa	-0.09321399
55	0x3ea0f816	0.31439275
56	0xbcda7cce	-0.02667084
57	0x3bab1c03	0.005221845
58	0xbacbfb53	-0.0015562571
59	0x3deb7c4c	0.11498317
60	0x3eae1a7b	0.34004578
61	0x3ea7b967	0.32758638
62	0xbe2b1e38	-0.16710746
63	0x3e156bca	0.145919
64	0xbd1a1069	-0.037613306
65	0x3e2d3084	0.16913038
66	0x3e042d2b	0.12907855
67	0xbc42873c	-0.011873063
68	0x3ef78144	0.4834081
69	0x3e20b02f	0.15692209
70	0x3dee18d5	0.1162583
71	0xbd2c014c	-0.041993424
72	0x3e638634	0.22219163
73	0x3e6495b6	0.22322735
74	0x3b93aedd	0.0045069293
75	0x3de5c187	0.11218553
76	0x3ec719ee	0.3888697
77	0x3e573fb5	0.21020396
78	0x3ca090cc	0.019600295
79	0x3e492212	0.19641903
80	0x3f4111e6	0.75417936
81	0xbcc7abc8	-0.024373904
82	0xbcb15208	-0.02164556
83	0x3e1bfc96	0.15233073
84	0xbe533995	-0.20627435
85	0x3ec562a4	0.3855182
86	0x3c518ce8	0.012789942
87	0xbd358675	-0.04431768
88	0xbe32f2af	-0.17475389
89	0xbc5fd2f5	-0.013661136
90	0xbd27e669	-0.04099122
91	0xbcaac2a5	-0.020844767
92	0x3e86c526	0.26322287
93	0xbe398d1c	-0.18120235
94	0x3eed728a	0.4637645
95	0xbd10d313	-0.035357546
96	0x3e5151fa	0.20441428
97	0x3ee34249	0.4438651
98	0x3f11b329	0.56914
99	0x3ef1f34a	0.47255927
100	0x3ee30ded	0.44346562
101	0x3a5deaa3	0.00084654446
102	0xbb8c06bf	-0.004273265
103	0x3f1093a1	0.56475264
104	0x3ecd0797	0.40044853
105	0x3ef408a2	0.47662836
106	0xbc94a021	-0.018142762
107	0xbd1e4909	-0.03864387
108	0x3e94592a	0.28974277
109	0x3ec872c0	0.39150047
110	0x3c0b41dc	0.008499589
111	0xbe5f0ea7	-0.21782933
112	0x3bfb81ab	0.0076753697
113	0x3e0931ec	0.1339795
114	0x3cae979f	0.021312533
115	0x3ed28f3f	0.41124913
116	0x3e9887ed	0.29791203
117	0xbcb6cc89	-0.022314327
118	0x3c8f4b26	0.017491888
119	0x3ed6687d	0.41876593
120	0x3eb13172	0.34608036
121	0x3edddee9	0.4333413
122	0xbba67f90	-0.0050811246
123	0x3e7e3772	0.24825838
124	0x3cc92c26	0.024557184
125	0xbd22ce3c	-0.03974746
126	0xbc899a3d	-0.01679718
127	0xbd544265	-0.05182113

encoder.3.weight f4 [64, 128]
0	0xbc6fdb94	-0.014639754
1	0xbd45b8e6	-0.048272036
2	0x3ce856b5	0.028361658
3	0xbd416eb8	-0.04722473
4	0x3ca47002	0.02007294
5	0xbc14d0a7	-0.00908295
6	0xbd551bc8	-0.052028447
7	0x3db86f12	0.0900556
8	0x3d69674b	0.056983273
9	0x3dda262d	0.10651813
10	0xbd96966f	-0.07352912
11	0x3d299531	0.041402046
12	0x3d940290	0.07227051
13	0xbcc12fb1	-0.023582311
14	0xbcfbf4d9	-0.0307564
15	0x3e23389d	0.15939565
16	0xbd35e7eb	-0.044410627
17	0x3d20841d	0.039188493
18	0x3d257a2b	0.04039971
19	0xbb5f6dee	-0.0034092623
20	0x3d101a8b	0.035181563
21	0x3cf55f9c	0.029952817
22	0x3d80b3ae	0.06284271
23	0xbd05d17d	-0.032670487
24	0xbcc63c81	-0.024198772
25	0x3deebdec	0.116573185
26	0x3d9dca72	0.07704629
27	0x3d569724	0.052390233
28	0x3c63c6ac	0.013902348
29	0xbc493456	-0.012280544
30	0x3e5382f6	0.20655426
31	0xbd608172	-0.05481095
32	0xbdb6965b	-0.08915397
33	0xbd0af760	-0.03392732
34	0xbd8f376f	-0.06992995
35	0x3c9c4b09	0.019078748
36	0x3d94cd13	0.07265677
37	0x3e022b30	0.12711787
38	0x3d25356c	0.04033415
39	0xbd794687	-0.060858276
40	0xbc3158e6	-0.010824418
41	0xbd10a28d	-0.03531127
42	0x3dcd002c	0.100097984
43	0x3da55564	0.080729276
44	0xbd28caaf	-0.04120892
45	0xbc674254	-0.014114935
46	0x3d529f9f	0.051421758
47	0x3d9b6c6f	0.075890414
48	0x3ceb84b3	0.0287498
49	0xbd305e91	-0.043058936
50	0x3e895dc3	0.26829347
51	0x3d0f06c8	0.034918576
52	0x3dd8ada2	0.10579993
53	0x3dfb723d	0.122776486
54	0x3d70ef58	0.058822006
55	0x3de74a80	0.112935066
56	0xbda12e7c	-0.07870194
57	0xbcbe9760	-0.02326554
58	0xbe81e8e6	-0.25373
59	0xbd566c50	-0.05234939
60	0xbc8b2289	-0.016984241
61	0x3dd4d754	0.10392633
62	0x3db19472	0.08670892
63	0x3db26e3c	0.08712432
64	0x3d67500a	0.056472816
65	0x3d81b284	0.06332877
66	0x3ed93fc0	0.4243145
67	0xbd82eb0d	-0.06392489
68	0xbc8ed8ad	-0.017437303
69	0x3dba2442	0.09088947
70	0xbcdac1ec	-0.026703797
71	0xbd6b1d43	-0.057400953
72	0x3d9fd307	0.07803922
73	0x3e01adf4	0.12664014
74	0x3d4cce36	0.050001346
75	0x3d38befe	0.04510402
76	0x3cf2e5ef	0.029650657
77	0x3d0bc4bd	0.03412317
78	0xbc23ec84	-0.01000512
79	0x3d896307	0.06708341
80	0x3da409de	0.080096945
81	0x3d58a0ee	0.05288785
82	0xbcfec74b	-0.03110089
83	0xbd247cfb	-0.040158253
84	0xbd1e7219	-0.03868303
85	0x3df9d507	0.12198835
86	0xbcbd6c64	-0.023122974
87	0xbc708fd7	-0.014682732
88	0xbcffd672	-0.031230185
89	0x3da2eb25	0.079550065
90	0x3d4613f0	0.048358858
91	0x3be20296	0.006897281
92	0x3cc2fc78	0.023802027
93	0x3d918042	0.07104541
94	0x3c7b0cab	0.0153228445
95	0x3dd0a129	0.10186989
96	0x3dde559e	0.10856174
97	0x3e2f2b52	0.17106369
98	0x3e499a65	0.19687803
99	0x3e7412d6	0.2383531
100	0x3d8e9557	0.06962078
101	0xbc616558	-0.013757072
102	0x3dc02947	0.09382873
103	0x3d8eabe4	0.06966379
104	0x3989c06e	0.00026274048
105	0x3e4d1b05	0.20029838
106	0xbd9ef07c	-0.077607125
107	0x3c822795	0.015888015
108	0x3d9f5c52	0.077812806
109	0xbc7b7e0e	-0.015349878
110	0xbd3d1b2f	-0.046168502
111	0x3d9ed637	0.07755702
112	0x3d93f88a	0.072251394
113	0x3e591bd6	0.21202025
114	0x3d9a5d20	0.075372934
115	0x3bd8fa17	0.00662161
116	0x3c5a1914	0.013311643
117	0xbd803241	-0.06259585
118	0xbc72b160	-0.014812797
119	0x3dd8d04c	0.105866045
120	0xbd1ce12d	-0.03830068
121	0x3e19d459	0.1502241
122	0xbc373cdf	-0.011183946
123	0x3d31638c	0.043307826
124	0x3d47eba2	0.0488087
125	0xbda033dc	-0.078223914
126	0xbd5f851c	-0.054570302
127	0x3dfa350c	0.12217149
128	0x3dab8ab0	0.08376062
129	0x3d51b285	0.05119564
130	0x3e0ed9fa	0.13950339
131	0x3d9fda42	0.07805301
132	0x3dbba7f5	0.09162895
133	0xbd9f84bb	-0.07788988
134	0x3d28b364	0.041186705
135	0xbdcbc79c	-0.09950182
136	0xbcc3bbbb	-0.023893228
137	0x3d6531e3	0.05595578
138	0x3bb72bde	0.005589946
139	0xbda65a58	-0.081227005
140	0xbd764d3c	-0.06013225
141	0xbced6556	-0.028978985
142	0xbd626b65	-0.0552782
143	0x3d95fb45	0.073233165
144	0x3cfffe4e	0.031249192
145	0x3dd53222	0.10409953
146	0x3d96265a	0.07331534
147	0x3b9b97e1	0.00474833
148	0x3c911c82	0.017713789
149	0x3cecb0de	0.02889293
150	0x3d124ef9	0.035719845
151	0x3d5b7bec	0.053584978
152	0xbd84b74a	-0.06480272
153	0xbe129178	-0.14313304
154	0x3e29dd95	0.16588433
155	0x3d1fc167	0.039002802
156	0x3c61994e	0.013769461
157	0xbcb09a63	-0.021557992
158	0x3cd4687b	0.025928726
159	0x3d104842	0.03522516
160	0xbcbfe524	-0.023424692
161	0x3d277699	0.040884588
162	0x3d87f718	0.06638926
163	0xbd6b42e0	-0.057436824
164	0x3daf4ac2	0.08559181
165	0x3be001ff	0.0068361755
166	0x3d096762	0.03354586
167	0x3d5f5db7	0.054532733
168	0xbd12c17b	-0.03582905
169	0x3e04a37d	0.12952991
170	0x3dbc21c3	0.09186127
171	0x3d8bbc59	0.06823034
172	0x3bb336d2	0.0054691816
173	0x3b127591	0.0022347907
174	0x3bf9887b	0.0076151467
175	0x3c85e44a	0.016344208
176	0x3d4810b3	0.04884405
177	0xbd8763ba	-0.06610818
178	0xbca40b60	-0.020024955
179	0x3da16af0	0.07881725
180	0x3db9de06	0.09075551
181	0xbcbf9fef	-0.023391692
182	0x3d886d1b	0.06661435
183	0x3dadf844	0.084946185
184	0xbcd9c3f3	-0.026582694
185	0xbcd20095	-0.025635043
186	0xbda1a769	-0.07893259
187	0x3ddb46ae	0.107068405
188	0xbc999dcc	-0.018752001
189	0x3d97f01c	0.07418844
190	0xbd8cd693	-0.06876864
191	0x3d0b0e8d	0.033949424
192	0xbd857aab	-0.06517538
193	0x3dea5983	0.11442854
194	0xbe09786d	-0.13424845
195	0x3cb4d844	0.02207578
196	0x3e0eb5dc	0.13936561
197	0x3dbb985c	0.091599196
198	0xbce1b55b	-0.027552297
199	0x3cf4a5cc	0.029864214
200	0x3da3b75e	0.07993959
201	0xbddfd28f	-0.10928833
202	0xbcf4f533	-0.029902076
203	0x3dabb070	0.08383262
204	0x3e2917c4	0.16512972
205	0xbd88042f	-0.06641423
206	0x3dc7be9a	0.09753151
207	0x3d9963e9	0.074897595
208	0x3de45d05	0.111505546
209	0xbd053dd6	-0.032529674
210	0x3d837c41	0.06420184
211	0x3d11e301	0.03561688
212	0xbd942b4e	-0.07234822
213	0x3e33834e	0.17530558
214	0xbd47951d	-0.04872619
215	0x3daa0e2c	0.08303484
216	0xbd23afce	-0.039962582
217	0xbd1bbe16	-0.038023077
218	0x3c1f97f0	0.009740815
219	0x3e08587a	0.13315001
220	0x3d3a8d75	0.04554506
221	0xbcc15bd5	-0.02360336
222	0x3ddc953e	0.10770653
223	0xbd5ab2f1	-0.053393308
224	0xbce50490	-0.027956277
225	0x3d68817e	0.05676412
226	0x3d6b6017	0.057464685
227	0x3e2c97b7	0.1685475
228	0xbc8e15d6	-0.017344397
229	0x3d037c42	0.032100923
230	0x3cf13909	0.029446142
231	0x3d8d9826	0.06913786
232	0x3c6bae1d	0.014384774
233	0x3d68d867	0.056847002
234	0xbd99701e	-0.07492088
235	0xbd661fc3	-0.056182634
236	0x3c2d7e2a	0.010589162
237	0x3df03ffd	0.11730955
238	0x3da33a25	0.079700746
239	0xbbe5fd03	-0.0070186867
240	0xbd909335	-0.070593275
241	0x3d52f133	0.051499557
242	0xbda775e5	-0.081767835
243	0x3cda93de	0.026681837
244	0x3cb8ca09	0.022557275
245	0xbd84bc9c	-0.06481287
246	0x3dba6e58	0.09103078
247	0xbafd3d7a	-0.001932069
248	0x3a9ea5e0	0.0012103878
249	0x3d4c69d0	0.0499056
250	0xbd6877eb	-0.056754988
251	0xbc218903	-0.009859326
252	0x3da2446b	0.07923206
253	0xbb1029a5	-0.0021997478
254	0xb9a47ce0	-0.00031373557
255	0x3d084f87	0.03327897

encoder.3.bias f4 [64]
0	0x3e70b7b0	0.23507571
1	0xbc7441b4	-0.014908243
2	0x3c316103	0.010826352
3	0x3e04fba2	0.12986615
4	0x3db99df0	0.09063327
5	0x3c61c8e2	0.013780804
6	0x3e78bf49	0.2429172
7	0x3dae8ab2	0.08522548
8	0xbdd06c3f	-0.10176896
9	0x3ec8b543	0.39200792
10	0x3e4e0cf3	0.20122127
11	0x3e912540	0.28348732
12	0x3ed2a715	0.41143098
13	0x3c9992f8	0.018746838
14	0x3d88562d	0.06657062
15	0x3c6c59fc	0.014425751
16	0x3e0e455c	0.13893646
17	0x3eb6f328	0.35732388
18	0x3e10dada	0.14145985
19	0x3e1d8703	0.15383534
20	0x3de093ab	0.109656654
21	0xbca34e85	-0.019934902
22	0x3e6063dd	0.21913095
23	0x3ddfd439	0.1092915
24	0xbcc67cb8	-0.024229392
25	0x3e5751f6	0.2102736
26	0x3eceb383	0.40371332
27	0x3ce9624b	0.028489253
28	0x3f1a9fd0	0.60400105
29	0x3d90a92c	0.07063517
30	0x3f294688	0.6612325
31	0x3d015293	0.03157289
32	0x3db5f4e8	0.08884603
33	0x3e5848e1	0.21121551
34	0x3e31d2f8	0.17365634
35	0x3e889189	0.26673535
36	0x3f0049b0	0.5011244
37	0x3e01a3cd	0.12660141
38	0x3e7a5289	0.24445547
39	0x3e88dc2e	0.26730484
40	0x3c070a16	0.008242151
41	0xbd958cb5	-0.07302228
42	0x3db56d0b	0.08858689
43	0x3e3e116e	0.18561336
44	0x3df85d93	0.12127223
45	0x3eafc39e	0.34328932
46	0x3e072e43	0.13201241
47	0x3d742114	0.05960186
48	0x3ee3b06c	0.44470537
49	0xbea09e03	-0.31370553
50	0x3e053ee0	0.13012266
51	0x3ddc4218	0.10754794
52	0x3e8b0b38	0.27156997
53	0x3ec99a0c	0.3937534
54	0x3e2319e1	0.15927841
55	0xbdc3e422	-0.09564997
56	0x3e2ac9e5	0.16678579
57	0x3ed6d92b	0.4196256
58	0x3e5adea4	0.21373993
59	0x3e47d014	0.1951297
60	0x3ed1cf17	0.4097831
61	0xbdca35bc	-0.0987353
62	0xbe87ec6d	-0.26547566
63	0x3d44f51c	0.048085317

encoder.5.weight f4 [12, 64]
0	0xbcf1c5b0	-0.02951321
1	0x3cd6cb9f	0.026220141
2	0xbe07792d	-0.13229819
3	0x3cef996d	0.029247964
4	0x3d8f6e45	0.07003454
5	0x3d3b2258	0.04568705
6	0x3e22d954	0.15903217
7	0x3dc5ed05	0.096643485
8	0x3e00c15c	0.12573761
9	0x3dde5ca9	0.10857517
10	0x3d836045	0.06414846
11	0x3d38fc09	0.045162234
12	0x3f044de8	0.51681376
13	0x3ba80881	0.005127967
14	0xbd9071e8	-0.07052976
15	0x3c9b7ae9	0.018979507
16	0x3e014c0a	0.12626663
17	0x3ea9c4e4	0.33158028
18	0x3decd9d9	0.11564989
19	0x3d923fb8	0.0714106
20	0xbce9066a	-0.028445441
21	0x3dd27429	0.10276062
22	0x3de42a43	0.11140873
23	0x3d93a4cc	0.07209167
24	0x3d3d981e	0.04628765
25	0x3d4edff6	0.050506555
26	0xbf8960e9	-1.07327
27	0xbc4c8443	-0.0124827055
28	0x3ee5a188	0.448498
29	0x3d7273ff	0.059192654
30	0xbe9001e9	-0.28126457
31	0x3d94b21f	0.072605364
32	0x3dd88568	0.1057232
33	0x3dbc4f01	0.09194756
34	0xbd528006	-0.051391624
35	0x3e19bb18	0.15012777
36	0xbe7c219d	-0.24622197
37	0xbed05c79	-0.4069555
38	0x3f1e3928	0.61805964
39	0x3ddeb6d0	0.108747125
40	0x3cc0e7ef	0.023548095
41	0x3cc7d295	0.024392406
42	0x3e0863e9	0.13319363
43	0x3d6a5c3e	0.057216875
44	0xbd886eb7	-0.06661742
45	0x3d8bc0b9	0.06823868
46	0x3e23215b	0.15930693
47	0x3d4d3ae3	0.050104987
48	0x3eeabe79	0.45848444
49	0xbe4eab2f	-0.20182489
50	0xbca57cc9	-0.020201104
51	0x3dd66202	0.10467912
52	0x3e58bd53	0.21165971
53	0xbf507f6f	-0.8144445
54	0xbb512a29	-0.0031915999
55	0xba1b401a	-0.00059223326
56	0xbcee7f7c	-0.029113524
57	0x3de39c2c	0.11113772
58	0xbd351e62	-0.04421843
59	0x3dc7df4e	0.09759389
60	0x3e2987e4	0.16555744
61	0xbf47c074	-0.78028035
62	0xbe49fed1	-0.19726111
63	0x3d525d8d	0.05135875
64	0x3d98f3b3	0.07468357
65	0xbd8efaa8	-0.06981403
66	0xbb13132f	-0.0022441854
67	0xbd3bb3f3	-0.04582591
68	0x3d22ae6e	0.03971713
69	0x3c8c16c3	0.017100697
70	0x3dd2fb8b	0.10301884
71	0xbdae24a9	-0.08503086
72	0x3d74687e	0.059669964
73	0xbce01930	-0.02735576
74	0xbd7ce15a	-0.06173835
75	0x3c530b55	0.01288112
76	0x3f1c080f	0.60949796
77	0xbe038386	-0.12843141
78	0x3cf1f42b	0.029535374
79	0xbd96d1db	-0.073642455
80	0x3c5bda98	0.013418816
81	0x3eda2db4	0.42612994
82	0x3df7d97e	0.1210203
83	0xbdebdd32	-0.11516799
84	0xbe044f08	-0.12920773
85	0xbdef446b	-0.116829716
86	0x3e01f561	0.12691261
87	0xbde928bc	-0.113847226
88	0xbd072be7	-0.033000853
89	0xbd07e7aa	-0.033179916
90	0x3f561daa	0.83639014
91	0x3be0ae20	0.006856695
92	0x3c25f0f8	0.010128252
93	0xbca410e7	-0.02002759
94	0xbea357fb	-0.3190306
95	0xbb52e2e9	-0.0032178706
96	0xbcb6e217	-0.022324605
97	0x3aaee0fa	0.0013342195
98	0xbd84dde7	-0.06487637
99	0xbce7bc5e	-0.028288063
100	0x3e9c9809	0.30584744
101	0xbe5d7bbb	-0.2162923
102	0x3f265140	0.6496773
103	0xbd19600a	-0.037445106
104	0xbd902b3a	-0.07039495
105	0xbde99420	-0.11405206
106	0x3dda9ab9	0.10674042
107	0x3da97e41	0.08276034
108	0xbdc5c91d	-0.096575
109	0x3dbe073c	0.092787236
110	0x3b639f10	0.003473226
111	0x3ddf92e4	0.10916689
112	0x3dd30472	0.10303582
113	0x3dd8da0d	0.10588465
114	0x3d481c77	0.04885527
115	0x3f04e5d8	0.51913214
116	0x3e571216	0.21002993
117	0x3f45ff56	0.77342737
118	0x3c8d2544	0.017229684
119	0xbb9c3b21	-0.004767791
120	0x3ce2e6a7	0.027697874
121	0x3dfed051	0.12442077
122	0x3cffeb09	0.031240003
123	0x3da298b6	0.079392835
124	0x3cd37211	0.025811227
125	0xbd74f543	-0.059804212
126	0xbdd8e18c	-0.10589895
127	0xbdd042ff	-0.101690285
128	0x3d025f20	0.031829
129	0x3b0fbeb0	0.0021933727
130	0xbdc2bafc	-0.09508321
131	0x3c9e353c	0.019312494
132	0xbad2374b	-0.0016038207
133	0xbddf554a	-0.109049395
134	0xbdc34287	-0.095341735
135	0xbd3df83f	-0.046379324
136	0x3dce94c3	0.10086968
137	0xbd57982a	-0.05263535
138	0x3d30db29	0.043177757
139	0xbd820d2b	-0.06350168
140	0x3daa8e1f	0.08327889
141	0x3da0a235	0.078434385
142	0xbdcffa49	-0.1015516
143	0x37857395	1.5908658e-05
144	0xbc04b13c	-0.008098897
145	0xbde36b1d	-0.111044146
146	0x3cb629eb	0.022236785
147	0x3d939e56	0.072079346
148	0xbe1355e6	-0.14388236
149	0xbe0c4e8c	-0.13701838
150	0xbdabe513	-0.08393302
151	0xbe02e3d7	-0.12782227
152	0xbd8f0755	-0.0698382
153	0xbd9e9c29	-0.07744629
154	0xbcb229f6	-0.021748524
155	0x3ccd4dff	0.025061605
156	0x3ca94d77	0.02066682
157	0xbd5c9df0	-0.05386156
158	0x3ca4253f	0.020037292
159	0xbde91493	-0.11380877
160	0xbd1f667d	-0.0389161
161	0xbda7310e	-0.08163653
162	0x3cffd4d5	0.031229416
163	0x3c0eaca2	0.008708151
164	0xbd47f15a	-0.048814155
165	0x3d175d7e	0.036954395
166	0x3daf8697	0.08570593
167	0xbd8e4df8	-0.06948465
168	0xbdd2ecc0	-0.10299063
169	0xbdf82889	-0.121171065
170	0x3b732686	0.003710182
171	0x3d96be92	0.07360567
172	0xbe080e0b	-0.13286607
173	0xbdefd1f7	-0.117099695
174	0xbe2b0a3e	-0.16703126
175	0xbd0d7904	-0.034539238
176	0x3d831df8	0.064022005
177	0x3b590e69	0.0033120161
178	0xbd650e5d	-0.0559219
179	0x3ac4dcc3	0.0015019405
180	0x3de9bbf6	0.11412804
181	0xbdbcbd07	-0.092157416
182	0x3c8d2a8b	0.0172322
183	0x3dcfe14a	0.10150392
184	0xbe05a063	-0.13049464
185	0xbd0d0294	-0.034426287
186	0xbe01f04f	-0.12689327
187	0x3d88bfc5	0.06677202
188	0xbd31067e	-0.043219082
189	0xbb00a830	-0.0019631498
190	0x3d0d060d	0.0344296
191	0x3c7cccaf	0.01542966
192	0x3df0dba1	0.11760641
193	0xbc8e04b0	-0.01733622
194	0x3d8e45d2	0.06946911
195	0x3e300c78	0.17192256
196	0x3dfe54a7	0.1241849
197	0xbd854f25	-0.06509236
198	0x3e2ea13c	0.17053694
199	0x3e257f88	0.1616193
200	0x3d99561e	0.07487129
201	0x3d218d82	0.039441593
202	0x3db9a918	0.09065455
203	0xbd60a44b	-0.054844182
204	0xbefcca3f	-0.49373052
205	0x3ca2d825	0.019878456
206	0x3cdd664d	0.02702632
207	0xbdcc5848	-0.09977776
208	0x3dd6f59e	0.104960665
209	0xbe065dc7	-0.1312171
210	0x3d344a08	0.044015914
211	0x3d105c6d	0.035244394
212	0x3db9a922	0.09065463
213	0x3dbe4726	0.09290914
214	0x3dc91e69	0.098202534
215	0x3e21ebf6	0.15812668
216	0x3d640298	0.055666536
217	0x3d6949b9	0.056955073
218	0xbe640f62	-0.22271493
219	0x3ca40ede	0.02002662
220	0x3eb74de6	0.3580162
221	0xbd5edb6f	-0.054408487
222	0x3f1850b0	0.5949812
223	0x3daf13a6	0.085486695
224	0x3e125e04	0.14293677
225	0x3e02ded4	0.12780315
226	0x3dcf7ea8	0.1013158
227	0x3dd387c5	0.1032863
228	0xbec26cd3	-0.3797365
229	0xbf428745	-0.75987655
230	0xbde80b16	-0.113302395
231	0x3e220119	0.15820731
232	0x3da7ccac	0.08193335
233	0xbdd3fed8	-0.10351342
234	0x3c6df7ab	0.014524381
235	0x3d279816	0.040916525
236	0xb9e4fe3f	-0.00043676977
237	0x3e25691b	0.16153376
238	0x3cff143f	0.031137584
239	0xbdf721d0	-0.12066996
240	0x3e27a7c2	0.16372588
241	0xbe76fd4f	-0.24120067
242	0x3e0ce1d2	0.13758019
243	0xbf42be4e	-0.7607163
244	0xbc4cd216	-0.01250126
245	0xbf8c071b	-1.0939668
246	0x3d1ca90c	0.038247153
247	0xbd574593	-0.052556586
248	0x3ca773d5	0.020440975
249	0x3dfeb6e8	0.1243723
250	0x3d12733e	0.035754435
251	0x3e19490d	0.14969273
252	0x3db8a33a	0.09015508
253	0xbec0ec0b	-0.37680086
254	0xbf0ee9ce	-0.5582551
255	0x3d23d51b	0.039998155

encoder.5.bias f4 [12]
0	0xbc4a9914	-0.012365598
1	0x3e73f077	0.23822199
2	0xbd904e28	-0.07046157
3	0x3e2fad48	0.17155945
4	0x3e485600	0.19564056
5	0x3e05a7f3	0.13052349
6	0x3c352af3	0.011057603
7	0x3e39ad11	0.18132426
8	0xbe0245f4	-0.12721997
9	0xbd27206d	-0.040802408
10	0x3e57eb8c	0.21085948
11	0x3da0c685	0.078503646

encoder.7.weight f4 [2, 12]
0	0x3e924f5d	0.28576174
1	0x3ef93830	0.4867568
2	0x3ba50017	0.005035411
3	0x3e7456ab	0.23861186
4	0x3e0f3cdd	0.13988061
5	0x3e3fee2d	0.187432
6	0xbe23ef1a	-0.16009179
7	0x3dc9ee49	0.098599024
8	0x3da26a0a	0.079303816
9	0x3e83b609	0.2572482
10	0x3ed06072	0.40698582
11	0xbe6b01e2	-0.22949937
12	0x3e10ed97	0.14153133
13	0x3f393414	0.7234509
14	0xbe24eb19	-0.16105308
15	0xbe7704c6	-0.24122915
16	0xbea77fd6	-0.3271472
17	0x3e28c648	0.16481888
18	0x3ddeb5ff	0.10874557
19	0xbe8fa86d	-0.28058186
20	0xbe3a6fc5	-0.18206699
21	0x3e44db2a	0.1922423
22	0xbdbbfc1d	-0.09178946
23	0xbedfd6bd	-0.4371852

encoder.7.bias f4 [2]
0	0xbdb8e39a	-0.090277866
1	0xbe2d9c2e	-0.16954109

decoder.0.weight f4 [12, 2]
0	0x3da4e76c	0.08051953
1	0x3f17aa77	0.59244484
2	0x3e9bfef1	0.30467942
3	0xbf131b53	-0.5746357
4	0x3e659bd5	0.22422726
5	0x3eca30d4	0.39490378
6	0x3e11bc97	0.14232098
7	0x3fa7faa4	1.3123364
8	0xbf3314ee	-0.6995381
9	0xbdd3e667	-0.1034668
10	0x3f28b565	0.65901786
11	0x3eee570e	0.46550792
12	0x3e111086	0.1416646
13	0x3d8ccad2	0.068746224
14	0x3eca6e52	0.39537293
15	0x3ec6d8f5	0.388374
16	0x3e1cbf82	0.1530743
17	0xbf01becf	-0.50681776
18	0xbe22da3a	-0.1590356
19	0x3f371864	0.7152159
20	0x3f1cffc6	0.6132778
21	0x3f0aea49	0.5426374
22	0xbf2f988c	-0.68592143
23	0x3f3b0396	0.73052347

decoder.0.bias f4 [12]
0	0xbf8ed884	-1.1159825
1	0x3f0de4b4	0.554271
2	0x3f2290a9	0.63501984
3	0x3e424ab3	0.18973808
4	0xbf0f2edd	-0.5593088
5	0x3ede846d	0.43460408
6	0x3f6a1bfd	0.91448957
7	0x3ecd4b88	0.40096688
8	0x3c894691	0.016757281
9	0xbf0d4b88	-0.55193377
10	0xbf5ecd9b	-0.8703248
11	0x3f5362fc	0.82572913

decoder.2.weight f4 [64, 12]
0	0x3ecc7377	0.39931843
1	0xbc94a9a3	-0.018147295
2	0x3cb77d01	0.022398474
3	0x3e37e914	0.17960006
4	0x3e883745	0.26604667
5	0xbbd40e7d	-0.0064714537
6	0x3d9063a0	0.07050252
7	0x3db9bb3c	0.09068915
8	0x3d45979c	0.04824029
9	0x3dab1f34	0.08355561
10	0x3ec77e55	0.3896357
11	0xbf22b629	-0.63559204
12	0x3dfd16d1	0.123578675
13	0x3d85f791	0.0654136
14	0xbe269bef	-0.16270421
15	0xbe3a75a9	-0.18208946
16	0xbe4315df	-0.19051312
17	0xbe64d4ef	-0.22346853
18	0x3e8bef0d	0.2733082
19	0x3e235b17	0.15952717
20	0x3e817132	0.25281674
21	0x3da69e00	0.08135605
22	0x3d35b5f5	0.04436298
23	0x3dbd7dcb	0.09252509
24	0xbe1a71f6	-0.15082535
25	0x3e1ae2b2	0.1512554
26	0xbe18fd68	-0.14940417
27	0xbd830392	-0.06397165
28	0x3debbcff	0.115106575
29	0x3e6a50dd	0.2288241
30	0xbe40ce73	-0.18828754
31	0x3e6a4588	0.22878087
32	0x3e85e8f4	0.26154292
33	0x3e05633b	0.13026135
34	0x3e4b78a2	0.19870237
35	0x3e436b9b	0.19084017
36	0x3d8e753d	0.06955955
37	0x3e3854af	0.18001054
38	0xbeabd672	-0.33562046
39	0x3e6de8ce	0.23233339
40	0xbdae99ae	-0.08525406
41	0x3b7e8d19	0.0038841425
42	0xbdedbfe9	-0.116088696
43	0x3e43bc8e	0.19114897
44	0xbe44bcfa	-0.19212714
45	0xbdef1ee4	-0.11675814
46	0x3e866e96	0.26256245
47	0x3f1b5b18	0.60685873
48	0xbe093eee	-0.13402912
49	0xbe8f40b5	-0.27979055
50	0xbe8a7803	-0.27044687
51	0xbc932a0e	-0.01796439
52	0x3c7b6b4c	0.015345406
53	0xbe827275	-0.2547795
54	0x3d9ebb48	0.07750565
55	0x3c288af9	0.01028704
56	0xbd839dba	-0.06426568
57	0x3e07a4c4	0.13246447
58	0x3deafbe0	0.114738226
59	0x3dec871b	0.11549207
60	0x3ed81fa4	0.4221164
61	0xbd509931	-0.050927345
62	0xbe8d4ae9	-0.27596214
63	0x3b1254eb	0.0022328447
64	0x3e21728e	0.15766355
65	0xbba8eb4f	-0.005155004
66	0xbd878de4	-0.0661886
67	0x3e9114e7	0.2833626
68	0x3e1865c6	0.14882573
69	0x3e9cfd2e	0.3066191
70	0x3eb0e584	0.34550107
71	0x3f998dcb	1.1996397
72	0xbd87970b	-0.06620606
73	0xbe4f12fc	-0.20222086
74	0x3e04d4a1	0.12971736
75	0x3ed6ec58	0.4197719
76	0x3e8ced2e	0.27524704
77	0x3d9444fc	0.0723972
78	0x3e96ae81	0.2943001
79	0x3e1825fb	0.14858238
80	0x3e37e23d	0.17957397
81	0xbec6bba2	-0.38815027
82	0xbecd6a05	-0.4011995
83	0xbe5b6cac	-0.21428174
84	0xbd7c9092	-0.06166131
85	0x3e87e7a6	0.2654392
86	0x3c8eb575	0.01742051
87	0xbe7a87eb	-0.24465911
88	0xbe80ce4f	-0.251574
89	0x3e6d61c1	0.23181821
90	0xbd5ad7ba	-0.05342839
91	0x3e3c3b85	0.1838208
92	0xbe932284	-0.2873727
93	0xbea5576c	-0.3229326
94	0x3db6be92	0.08923067
95	0xbe3c26ac	-0.18374127
96	0xbf734174	-0.9502175
97	0x3e8e3d25	0.27781025
98	0x3cc8c0c7	0.024505986
99	0xbf71b142	-0.944111
100	0xbd3c2233	-0.045931052
101	0x3de478b2	0.11155833
102	0x3e102b55	0.1407903
103	0xbe1ae310	-0.1512568
104	0x3e2879af	0.16452669
105	0xbe424ed3	-0.18975382
106	0xbe6a0191	-0.2285216
107	0xbcb9d97b	-0.02268671
108	0xbd8975fd	-0.067119576
109	0x3ec3751c	0.38175285
110	0xbe511460	-0.20417929
111	0xbec874e3	-0.39151677
112	0xbe3171f7	-0.1732863
113	0x3d0d6164	0.034516707
114	0x3cf94c93	0.030432021
115	0x3e238d5a	0.1597189
116	0xbd3cbfb4	-0.04608126
117	0x3e7e95ff	0.24861906
118	0xbec980db	-0.3935612
119	0xbe6cdfcf	-0.23132251
120	0xbe7a4c65	-0.24443205
121	0x3e8fbd5a	0.2807415
122	0xbd9489e7	-0.07252865
123	0xbe569f9a	-0.2095932
124	0x3b017e4c	0.0019759117
125	0x3dfca287	0.12335687
126	0xbcf93d51	-0.030424746
127	0x3e111bd0	0.14170766
128	0x3e884251	0.26613095
129	0xbddeb14e	-0.10873662
130	0xbe64dabc	-0.22349066
131	0x3db144d0	0.08655703
132	0xbd839f5f	-0.06426882
133	0x3e9e6e7b	0.30943665
134	0xbf3d6e5e	-0.7399653
135	0xbe7d3ba1	-0.24729778
136	0xbd6d5521	-0.057942513
137	0xbe06f6af	-0.1318004
138	0xbcf82a3a	-0.030293573
139	0xbe14f1d6	-0.14545378
140	0x3eee8903	0.46588907
141	0xbd03dfcc	-0.03219585
142	0xbe0b6ffe	-0.1361694
143	0xbe6a13eb	-0.2285916
144	0x3dd88d7b	0.1057386
145	0xbdbebaca	-0.09312971
146	0x3d6f01ab	0.0583512
147	0xbe46533c	-0.19367689
148	0xbc3a2fdf	-0.011363952
149	0xbe7bf1da	-0.24603978
150	0xbe8dc57c	-0.2768973
151	0x3d8645a6	0.06556253
152	0x3dfa216e	0.122134075
153	0xbda6bf2b	-0.08141931
154	0x3e8086ca	0.25102836
155	0xbdc66810	-0.09687817
156	0x3dfd9da2	0.12383582
157	0x3de34936	0.11097948
158	0x3e2d32e0	0.16913939
159	0x3b1d8d43	0.0024040497
160	0x3e8a9863	0.27069387
161	0xbde67bcb	-0.112540804
162	0x3ebb4bcd	0.3658127
163	0x3e004e5a	0.12529889
164	0xbe6e8a80	-0.23295021
165	0x3e81d1c5	0.25355354
166	0xbe1e67d6	-0.15469298
167	0xbce5d209	-0.028054254
168	0x3daf5366	0.08560829
169	0xbd1def1d	-0.038558114
170	0x3e6682f2	0.22510889
171	0x3ede8552	0.4346109
172	0xbda6402b	-0.08117708
173	0xbca8c7ce	-0.020603087
174	0x3eb6ba30	0.35688925
175	0x3ea9150a	0.33023864
176	0xbc89ede1	-0.016837062
177	0x3ea891f4	0.32923853
178	0xbe891559	-0.267741
179	0x3f0008fe	0.5001372
180	0x3e01bbfc	0.12669367
181	0x3cc693c6	0.024240386
182	0xbe5af635	-0.21382983
183	0xbe7e4de1	-0.24834396
184	0xbd450159	-0.04809699
185	0xbd0bb786	-0.03411057
186	0xbe8a9486	-0.2706644
187	0x3e894f13	0.2681814
188	0xbd19b3d3	-0.03752501
189	0xbdb91e9b	-0.09039041
190	0xbe437164	-0.19086224
191	0xbe6ab0a3	-0.22918944
192	0xbdc8e1b5	-0.09808675
193	0xbe902db1	-0.2815986
194	0x3e361628	0.1778189
195	0xb9651de4	-0.00021850277
196	0x3e909ff8	0.28247046
197	0x3e1d3e57	0.15355812
198	0xbdacabef	-0.08431231
199	0xbea4ccb9	-0.3218744
200	0xbe15961d	-0.14608045
201	0xbe679ad5	-0.22617657
202	0xbce59b78	-0.028028235
203	0xbe60ad6f	-0.2194116
204	0x3d684425	0.056705613
205	0x3e7c5fc3	0.24645905
206	0xbe428e08	-0.18999493
207	0x3ec63010	0.38708544
208	0x3e80a6e8	0.2512734
209	0xbe79e0d3	-0.2440217
210	0x3dd11888	0.10209757
211	0xbd607a0f	-0.054803904
212	0x3e883211	0.26600698
213	0xbe8b908b	-0.27258715
214	0x3dda633c	0.10663459
215	0xbf2c0a37	-0.67203087
216	0xbeb3ca8a	-0.35115463
217	0xbd6a1282	-0.057146557
218	0xbe2c1d91	-0.16808154
219	0x3c9269a5	0.01787264
220	0xbd2382a7	-0.03991952
221	0x3dcd1e8b	0.10015591
222	0x3eb97164	0.36219323
223	0x3dfbe7ef	0.12300097
224	0x3e60c10c	0.21948642
225	0xbd1fbf12	-0.03900058
226	0xbe437b8b	-0.19090097
227	0xbce68b45	-0.02814258
228	0xbcadaf55	-0.021201769
229	0x3e9b37c3	0.3031598
230	0x3dcdc742	0.10047771
231	0x3d884fe1	0.06655861
232	0xbe814079	-0.252445
233	0xbf8bf728	-1.0934801
234	0xbebef7d0	-0.3729844
235	0xbfa76cb7	-1.3080052
236	0x3df04013	0.11730971
237	0xbdf735f6	-0.12070839
238	0xbe9b6426	-0.30349845
239	0xbe68518f	-0.22687362
240	0xbe10d8a2	-0.14145139
241	0x3e03218c	0.12805766
242	0xbdc4186a	-0.09574969
243	0x3d63062c	0.055425808
244	0x3bfbc5f1	0.0076835086
245	0x3e262921	0.16226627
246	0xbeaffa3b	-0.34370598
247	0xbe0afbfb	-0.13572685
248	0x3e86ed41	0.26352885
249	0x3e89ab3c	0.26888454
250	0x3e70d87b	0.23520081
251	0x3e5a7169	0.21332325
252	0xbedc148a	-0.4298442
253	0x3e8f7d81	0.2802544
254	0x3eb00d0a	0.34384948
255	0xbc41671a	-0.0118043665

decoder.2.bias f4 [64]
0	0xbec8133d	-0.39077178
1	0x3f02007e	0.50782
2	0xbe0311d9	-0.12799777
3	0xbe3085ba	-0.17238513
4	0xbde12d52	-0.10994972
5	0xbea6dc9e	-0.32590193
6	0x3f3d7833	0.74011534
7	0xbd88d479	-0.06681151
8	0x3eb0a9c6	0.34504527
9	0x3e5a92dd	0.21345086
10	0x3e0fefd7	0.14056335
11	0xbe546d14	-0.20744735
12	0x3cfa337a	0.030542124
13	0x3ed592ed	0.41713658
14	0x3efb3eb8	0.49071288
15	0xbdc2bd04	-0.09508708
16	0xbdef91fe	-0.11697768
17	0xbeda48a8	-0.42633557
18	0x3f088280	0.5332413
19	0x3e82dc73	0.25558814
20	0xbecb3377	-0.39687702
21	0x3eff659e	0.49882215
22	0xbe24d31f	-0.16096161
23	0x3e8023df	0.25027367
24	0x3e8925f3	0.26786765
25	0xbe68f913	-0.22751264
26	0xbe8492e8	-0.2589333
27	0x3f128def	0.57247823
28	0xbc9bae7d	-0.019004101
29	0x3eaa5cee	0.33274025
30	0x3d3c5b0a	0.04598526
31	0x3e81f7fe	0.25384516
32	0xbeaa3b2f	-0.33248278
33	0x3ec5be78	0.3862188
34	0xbf148ad8	-0.5802436
35	0xbe7dff01	-0.24804308
36	0x3d441cd3	0.04787905
37	0xbe3f87e8	-0.18704188
38	0x3e60203d	0.21887298
39	0x3e5f3cc3	0.21800523
40	0x3e4d0800	0.20022583
41	0xbe333d85	-0.17503937
42	0x3f9e3b9f	1.2361945
43	0xbe1806b1	-0.14846303
44	0xbe5f07bd	-0.21780296
45	0xbe9dc4a1	-0.30814078
46	0x3dc5c467	0.096566014
47	0xbc754ac7	-0.014971442
48	0x3df17a44	0.117908984
49	0x3ea0c77c	0.31402194
50	0x3e81e4ed	0.2536997
51	0x3e87c14f	0.2651467
52	0x3e8d1d3b	0.27561364
53	0xbe12fe66	-0.14354858
54	0xbdc861bf	-0.097842686
55	0x3e3a5ebc	0.18200201
56	0x3e8cb6d4	0.27483237
57	0x3dfcd570	0.123453975
58	0xbeb2fb20	-0.34957218
59	0x3e6f38c4	0.23361498
60	0xbdd92eb7	-0.10604613
61	0x3daaa52f	0.083322875
62	0x3e527e38	0.20555961
63	0xbec64d82	-0.3873101

decoder.4.weight f4 [128, 64]
0	0x3d96456e	0.073374614
1	0xbdca91b2	-0.098910704
2	0xbc14f0a0	-0.009090573
3	0xbd5095a8	-0.050923973
4	0x3c6596a0	0.014012963
5	0xbd9d716c	-0.07687649
6	0xbdd1df80	-0.10247707
7	0xbaa0ca80	-0.0012267381
8	0x3dc28c16	0.094993755
9	0xbaf6ac00	-0.001881957
10	0x3b68d540	0.0035527498
11	0x3cf47478	0.029840693
12	0x3da4aaca	0.08040388
13	0x3c395aa0	0.011313111
14	0xbda2484e	-0.07923947
15	0xbc3353e0	-0.01094529
16	0x3d8684b4	0.0656828
17	0x3df9486a	0.12172015
18	0xba3b7b00	-0.00071518123
19	0xbdffef0e	-0.12496768
20	0xbd8b8560	-0.06812549
21	0xbd9fbd78	-0.0779981
22	0xbda0b0a4	-0.078461915
23	0xbd7235e4	-0.059133425
24	0x3da8d632	0.082439795
25	0xbdafc598	-0.0858261
26	0x3d59cf00	0.053175926
27	0xbd05d440	-0.03267312
28	0x3b9e3880	0.0048285127
29	0x3d618670	0.05505985
30	0xbdda9d26	-0.10674505
31	0xbbddf5a0	-0.0067736655
32	0xbd3d4854	-0.046211556
33	0x3d1a4c10	0.037670195
34	0x3d2a56dc	0.04158674
35	0x3b22ea40	0.0024858862
36	0xbddcd1d2	-0.107822075
37	0x3dc69264	0.096958905
38	0xbc9e5210	-0.01932624
39	0xbde9aedc	-0.11410305
40	0xbdc7fc18	-0.0976488
41	0xbdea2544	-0.11432889
42	0xbc80da70	-0.01572916
43	0xbd0acd58	-0.033887237
44	0xbde4ad7a	-0.111659005
45	0xbd82d0d6	-0.063874885
46	0xbde9a66e	-0.11408697
47	0xbd904ce2	-0.07045914
48	0xbd808cbe	-0.062768444
49	0xbdbdcb02	-0.09267236
50	0xbb6053c0	-0.0034229606
51	0x3dceb2ae	0.10092674
52	0x3cbd7f08	0.023131862
53	0xbaa3ad00	-0.0012487471
54	0xbd7e79e8	-0.062127978
55	0xbd11ed10	-0.03562647
56	0xbcc4d130	-0.02402553
57	0x3d27b580	0.040944576
58	0x3d246c6c	0.04014246
59	0x3d75dbc4	0.060024038
60	0x3d1d4cf4	0.038403466
61	0x3c75e090	0.015007153
62	0x3da7d6f6	0.081952974
63	0xbda4506c	-0.08023152
64	0xbd485007	-0.048904445
65	0x3d5d9a65	0.05410232
66	0x3df181f8	0.11792368
67	0x3dccb0c1	0.09994651
68	0xbdb610fa	-0.08889957
69	0xbe0098e6	-0.12558326
70	0x3eee9f4b	0.46605906
71	0x3dd47c99	0.103753276
72	0x3d54192f	0.05178183
73	0x3d838e66	0.06423645
74	0xbcc6858a	-0.024233598
75	0xbec9718e	-0.39344448
76	0x3c50448f	0.012711658
77	0x3dc5934f	0.096472375
78	0x3e1782aa	0.14795938
79	0xbcc4937d	-0.02399611
80	0xbd82a378	-0.063788354
81	0xbd4f96f2	-0.050681062
82	0xbd21f4fb	-0.039540272
83	0xbe55fa6e	-0.20896313
84	0x3db0855e	0.08619188
85	0x3daeff05	0.08544735
86	0xbddd89ab	-0.10817274
87	0xb92c0231	-0.00016404015
88	0xbe7e0c3d	-0.24809356
89	0xbdeb1e02	-0.11480333
90	0x3c79763a	0.015225941
91	0x3d796d51	0.060895268
92	0xbd97f034	-0.07418862
93	0xbe19f3f0	-0.15034461
94	0xbdd93f70	-0.10607803
95	0x3de4c1b8	0.111697614
96	0xbd8b616b	-0.068056904
97	0x3c86a8ac	0.01643785
98	0xbdb2f0ef	-0.08737361
99	0xbc7420e8	-0.014900424
100	0x3dfa51ab	0.12222608
101	0x3ddbcef5	0.10732833
102	0x3e03cc6f	0.12870954
103	0x3dd219de	0.1025884
104	0xbd484de6	-0.048902415
105	0x3d981c29	0.07427246
106	0x3ee01866	0.43768615
107	0xbcf87331	-0.030328365
108	0xbcc04d90	-0.023474485
109	0xbe4b0249	-0.1982509
110	0xbdfa119a	-0.122103885
111	0x3dc0eb8c	0.09419927
112	0xbd9066ed	-0.070508815
113	0x3e2bf16e	0.16791317
114	0x3b031569	0.0020001775
115	0x3c07a533	0.008279133
116	0x3da85937	0.082201414
117	0x3c0e0010	0.008667007
118	0xbc21dd2d	-0.009879393
119	0x3d3e9784	0.046531215
120	0x3deb09ad	0.11476455
121	0x3c871e93	0.016494071
122	0x3c8e121b	0.017342618
123	0xbd5f7bc4	-0.05456139
124	0x3d5b0f0e	0.053481154
125	0xbded16d2	-0.11576618
126	0x3c96f8ef	0.018429248
127	0xbe1fa8bf	-0.15591715
128	0x3e1239bd	0.14279838
129	0xbe165202	-0.14679721
130	0x3c642fe3	0.013927433
131	0xbde1e449	-0.1102987
132	0xbcc0bac8	-0.023526564
133	0xbdf2fa7c	-0.11864182
134	0xbd90d9f6	-0.07072823
135	0x3d0bdd5e	0.03414666
136	0x3ddbeab2	0.10738124
137	0x3db5a8d3	0.08870091
138	0xbd2fcb56	-0.042918526
139	0x3ec55c9b	0.38547215
140	0x3d985fbb	0.07440134
141	0x3df7dd9c	0.121028155
142	0x3d14d348	0.036334306
143	0x3dba85d8	0.0910756
144	0x38008304	3.0639596e-05
145	0x3dff5eff	0.12469291
146	0xbe8be475	-0.27322736
147	0x3db8411a	0.08996792
148	0xbdb1d32c	-0.08682856
149	0xbe5039f9	-0.20334615
150	0xbd82a730	-0.06379545
151	0xbd8ac5f1	-0.067760356
152	0x3e2d3e7a	0.16918364
153	0x3de9a0fa	0.11407657
154	0xbd9538b3	-0.07286205
155	0x3e777254	0.24164706
156	0xbd70c6a8	-0.058783203
157	0xbe588a43	-0.21146493
158	0xbc832ff7	-0.016014082
159	0x3bf77859	0.0075521884
160	0x3e494b58	0.19657648
161	0x3e6a0271	0.22852494
162	0xbe787cc5	-0.24266346
163	0x3d3ad6c2	0.045614965
164	0xbd5ec861	-0.054390315
165	0xbe12c77d	-0.14333911
166	0x3d065d61	0.032803897
167	0x3d3f935c	0.046771392
168	0xbd7974fc	-0.06090258
169	0x3bd7010e	0.006561405
170	0x3fc42b5a	1.532573
171	0x3da05194	0.0782806
172	0x3cfc8470	0.03082487
173	0xbd19b514	-0.037526205
174	0xbd9e8fa8	-0.07742244
175	0x3dcb5fe0	0.09930396
176	0xbd83160c	-0.064006895
177	0x3d94806b	0.07251056
178	0x3d434f1e	0.047682874
179	0xbdd05e27	-0.10174208
180	0x3e121023	0.14263968
181	0xbd83f410	-0.064430356
182	0xbddd437c	-0.10803887
183	0x3d90a8a1	0.070634134
184	0x3e39f5fa	0.18160239
185	0x3d8a40ae	0.06750618
186	0x3dddc71b	0.10828992
187	0xbc81deed	-0.01585337
188	0x3de7196d	0.112841465
189	0x3d6a9aba	0.057276465
190	0xbdd3de41	-0.10345126
191	0x3e3e365f	0.18575428
192	0xbd9bdaba	-0.07610078
193	0xbdcdaa7e	-0.100422844
194	0x3dcbdb00	0.0995388
195	0xbdec8fc4	-0.115508586
196	0xbd62d210	-0.055376112
197	0xbd1ff7ec	-0.039054796
198	0xbdfde11c	-0.12396452
199	0xbd7987e4	-0.06092061
200	0xbba9b140	-0.0051786005
201	0x3cd97ef0	0.026549786
202	0x3d2405c4	0.04004456
203	0xbbabf5e0	-0.0052478164
204	0x3dc4b3c4	0.096046
205	0xbdad662a	-0.08466752
206	0x3def6ac6	0.11690287
207	0xbd874e7c	-0.066067666
208	0x3dcc3baa	0.099723175
209	0x3dd36b96	0.10323255
210	0x3bf38000	0.0074310303
211	0xba1f9c00	-0.00060886145
212	0xbdf31822	-0.11869837
213	0xbde97b5e	-0.114004835
214	0x3ded5100	0.11587715
215	0x3dc04548	0.09388214
216	0xbd43d678	-0.047811955
217	0xbdd4a21e	-0.10382484
218	0x3d253ee4	0.04034318
219	0x3d57aa80	0.052652836
220	0x3cbb8330	0.022889704
221	0xbdccf4d0	-0.10007632
222	0x3daacc94	0.083398014
223	0xbd7fa108	-0.06240943
224	0x3c87d8f0	0.016582936
225	0x3df82f3e	0.12118386
226	0xbd3cc09c	-0.046082124
227	0xbccaeae8	-0.024770215
228	0x3d987eb8	0.07446045
229	0xbdaf6152	-0.08563484
230	0x3d3272e0	0.043566585
231	0x3c87bc90	0.016569406
232	0xbdb510fc	-0.0884113
233	0xbd20d280	-0.03926325
234	0xbd58f6d0	-0.052969754
235	0xbdecea08	-0.115680754
236	0x3d3886cc	0.045050427
237	0x3d4fa84c	0.05069761
238	0x3df8a7bc	0.12141368
239	0x3dfb9038	0.12283367
240	0xbd04e688	-0.032446414
241	0xbd2950b4	-0.04133673
242	0xbc573420	-0.013134986
243	0xbdfcd774	-0.12345782
244	0xbd897f2a	-0.06713708
245	0xbd98aa14	-0.07454315
246	0x3c8c8318	0.017152354
247	0x3c90f838	0.017696485
248	0xbd672c2c	-0.05643861
249	0x3dc1a3f8	0.09455103
250	0xbd64d9fc	-0.05587195
251	0x3be84180	0.0070878863
252	0xbde1b946	-0.11021666
253	0xbc1682a0	-0.009186417
254	0xbdbc8810	-0.09205639
255	0x3d806cb8	0.062707365

decoder.4.bias f4 [128]
0	0x3da1ec18	0.079063594
1	0x3e222929	0.15836014
2	0xbdf0e0f9	-0.1176166
3	0x3cb33a98	0.021878526
4	0xbe2e9eb9	-0.17052735
5	0x3ddab59e	0.10679172
6	0xbd3d295f	-0.046182033
7	0x3d57974a	0.052634515
8	0x3dc937a3	0.09825065
9	0xbe9fd08f	-0.31213805
10	0x3d6dd374	0.058062986
11	0xbdfea558	-0.124338806
12	0x3e0fa4de	0.14027736
13	0xbe06601e	-0.13122603
14	0x3dcf1d4e	0.10113011
15	0xbe93b654	-0.28850043
16	0xbda462bd	-0.08026645
17	0xbe3804d7	-0.17970596
18	0xbc12a9ac	-0.008951586
19	0xbe2c65e4	-0.16835743
20	0x3ec678ca	0.3876403
21	0x3db1b3ce	0.08676873
22	0x3ee8780a	0.45404083
23	0xbc36c101	-0.011154414
24	0xbc952b09	-0.018208997
25	0xbe18d928	-0.14926589
26	0x3dacbafe	0.084341034
27	0xbe846c5a	-0.25863916
28	0x3da7d703	0.08195307
29	0x3e19dfbc	0.15026754
30	0xbdf00d40	-0.11721277
31	0x3ddce196	0.107852146
32	0x3d795105	0.060868282
33	0x3d55ea4e	0.052225403
34	0x3e413560	0.18868017
35	0x3d8edf73	0.06976213
36	0x3c2e5230	0.010639712
37	0xbdb9f562	-0.09080006
38	0xbea5697f	-0.3230705
39	0x3d90c551	0.07068885
40	0x3f408c15	0.7521375
41	0x3ee35b96	0.44405812
42	0x3cdab8a4	0.026699372
43	0xbe8a0319	-0.26955488
44	0x3e9e2949	0.30890873
45	0x3c6fca72	0.014635669
46	0x3bd26b98	0.0064215176
47	0x3df267d7	0.11836212
48	0xbc83dedb	-0.016097477
49	0xbd4831b7	-0.048875537
50	0x3b906500	0.0044065714
51	0xbe32927e	-0.17438695
52	0x3d02272c	0.03177564
53	0xbd9d9939	-0.076952405
54	0xbe0034f0	-0.12520194
55	0x3e6838b9	0.22677888
56	0x3ce052c4	0.027383216
57	0xbcb69b29	-0.022290783
58	0xbccfb168	-0.025353149
59	0xbe6d0af6	-0.23148713
60	0xbda739ae	-0.081652984
61	0x3d9e2d88	0.07723528
62	0x3dc8cde2	0.09804894
63	0xbdd0620d	-0.10174952
64	0x3e3d937e	0.18513295
65	0x3d9eebed	0.07759843
66	0xbdaf8fd0	-0.08572352
67	0x3df07a3b	0.117420636
68	0x3d9d673c	0.07685706
69	0xbdeb4e17	-0.11489504
70	0x3d84f878	0.06492704
71	0x3e24787f	0.1606159
72	0x3d8cdbfb	0.068778954
73	0x3dbaf61b	0.09128972
74	0x3d927b8f	0.07152473
75	0xbd0ee20f	-0.034883555
76	0x3d7eccb4	0.06220694
77	0x3d92bbef	0.07164752
78	0x3da27ec5	0.079343356
79	0xbd1e0adc	-0.038584575
80	0xbee4da18	-0.44697642
81	0xbe0112e3	-0.12604861
82	0x3dc8383c	0.09776351
83	0x3cfc7a26	0.030819964
84	0x3db29f63	0.08721807
85	0x3ddfc423	0.10926082
86	0x3db46e93	0.08810153
87	0x3f5c67b0	0.86095715
88	0xbe7c4761	-0.24636604
89	0x3e0741a3	0.13208632
90	0x3e475e44	0.19469553
91	0x3d40f8bb	0.047112208
92	0xbeef68ff	-0.46759793
93	0xbd25ef5b	-0.04051147
94	0x3d78d8ac	0.06075351
95	0x3d979c5b	0.07402869
96	0x3c9d4f9e	0.019203003
97	0x3d5cbbed	0.053890157
98	0x3dd2d204	0.102939636
99	0x3da632e4	0.08115175
100	0x3e966757	0.29375717
101	0x3d6854ae	0.05672138
102	0xbf1dc8cb	-0.6163451
103	0xbdfe1a18	-0.12407321
104	0xbe6c2294	-0.23060066
105	0x3dee2040	0.11627245
106	0x3b2640bb	0.0025368172
107	0x3d867ffe	0.06567381
108	0xbe3c2851	-0.18374754
109	0xbda0789a	-0.07835503
110	0xbdf60b2e	-0.12013851
111	0xbdd76a8e	-0.105183706
112	0xbcb38930	-0.021916002
113	0x3e1ab1d7	0.15106903
114	0xbc9926f8	-0.01869534
115	0x3dcde5f4	0.10053626
116	0x3d0b9270	0.0340752
117	0xbb20810c	-0.002449098
118	0x3b006510	0.0019591488
119	0x3e4a039f	0.19727944
120	0x3e23678e	0.15957472
121	0x3e0afef5	0.13573821
122	0x3e1047a4	0.14089829
123	0xbdeb95fb	-0.11503216
124	0xbd252b9a	-0.040324785
125	0x3de946ee	0.11390482
126	0x3da7c98b	0.08192738
127	0xbc6ba2b0	-0.014382049
