models/cnn/lightning_logs/version_0/checkpoints/epoch=59-step=1800.ckpt (torch, 89591 bytes, 39 tensors)

encoder.0.weight f4 [16, 1, 3, 3]
00000000: 5f8e 2a3e 2c3b 13be 67d4 263d 1cc8 8e3e
00000010: b281 723e c376 c5bd dfe2 a53e 5df1 6b3e
00000020: 4608 223e 5b0f a83d 871e 363e c781 ff3e
00000030: 5400 263f 18e7 9e3e 08d5 be3e 796c 8e3e
00000040: 0ea7 2b3e 6b12 0d3f 1464 d43e d44f 263e
00000050: f867 dbbd cfb6 dfbd 1916 8d3d e5ba d43d
00000060: 4cf6 4cbe 93e5 673d c821 a13b 1b46 fbbe
00000070: 2ef2 04be 3546 c23e c234 01bf 7955 bcbd
00000080: 18c3 a5be 43dd 43bd 962a e2be cb55 2dbf
00000090: bcac 7b3e 3ec0 8ebd 5713 96be 3f36 3c3e
000000a0: 6131 b6bd 23e3 c2bd ed7f 8abe cabf a8be
000000b0: 7132 d2be bece 363d 14a0 983d f5b6 423e
000000c0: bf62 9bbc 8eff a13e ea97 293e a965 c4be
000000d0: ce5d 27bb 4100 8a3e f64c 8b3e 0781 cd3e
000000e0: 1067 e63e 9203 aabe 0b63 8fbc 95f2 2dbd
000000f0: 1935 a3bd 7894 173e ded8 9dbd 4dc1 b3be
00000100: 955c fdbe f16a a93e be62 22be 720d f7bd
00000110: b4f5 e83e 5e4b 5bbe aeb2 8abe 3991 373f
00000120: 1648 a73d 9f31 43be b2d1 aa3e 1ca7 9d3e
00000130: bc2a 6bbe 1097 46be c408 f13e 7d27 5fbc
00000140: 6069 f8bb 1702 cebe fbdc 34be ec4b 0dbe
00000150: 2b76 87bc 3dd7 e3be 49ac fa3d a0b9 cbbe
00000160: 9af1 65be fe21 d03e e227 913d b250 37be
00000170: eea0 71be 4e94 77be e6b8 b2bd e242 53be
00000180: ccb2 d4bc b906 4b3d 851c 3a3e d26c 10bf
00000190: 02f5 ec3d 9e22 a03e 3ef5 b0be b5b7 06be
000001a0: 1e54 ad3d 314c ce3e 4e22 ff3e 063c b73e
000001b0: 07ae 2e3f f606 ae3d 574a 9cbe c733 133f
000001c0: 9f27 22be 4c2f c3be bf97 133f 27b3 7a3d
000001d0: 8674 e4be 9d3e 1cbd 2967 b2bd 1db6 58bf
000001e0: 92ad 6d3e eeef 7fbe a754 0bbf 7038 8c3e
000001f0: 5504 b03d 3371 debe 118f b2be ac4b 203e
00000200: 9c6c cbbe 0767 a4be 2cbc a93e 102a 7bbe
00000210: f32a 13be b3ce 823e 4da0 06bf be44 16bd
00000220: 8c57 743d 56b0 813e e3f3 f93d dbd0 ea3d
00000230: 7391 d53d dd62 9cbd d697 04be 3159 053e
0.16655873 -0.14378041 0.040729906 0.27887046 0.23682287 -0.096417926 0.3239965 0.23041292
0.15823469 0.08206054 0.17785083 0.499037 0.6484425 0.31035686 0.37271905 0.27817133
0.16762945 0.5510623 0.41482604 0.1624139 -0.1071319 -0.1092354 0.068889804 0.1038721
-0.2001583 0.056615423 0.004917357 -0.49076924 -0.12983009 0.3794419 -0.5047113 -0.0919599
-0.32375407 -0.047818433 -0.44173115 -0.67709035 0.24577612 -0.06970261 -0.2931163 0.18380068
-0.08896137 -0.09515979 -0.27050725 -0.32958823 -0.4105411 0.04463076 0.074524075 0.19015105
-0.018967984 0.31640285 0.16561857 -0.3835881 -0.002553809 0.2695332 0.27207154 0.40137503
0.45000505 -0.3320585 -0.017503282 -0.042467672 -0.07969112 0.1480273 -0.0770738 -0.35108414
-0.49484697 0.33089402 -0.1585798 -0.12063111 0.45499957 -0.21415469 -0.27089447 0.7170597
0.08168046 -0.19061898 0.3336311 0.30791557 -0.2296552 -0.19393563 0.47077 -0.013620255
-0.007580921 -0.4023597 -0.17662422 -0.13798493 -0.016535839 -0.4450015 0.12239892 -0.39790058
-0.22455445 0.40650934 0.07087685 -0.17901877 -0.23596546 -0.24177667 -0.08726673 -0.20630983
-0.025964163 0.049566958 0.18174942 -0.56416047 0.11570169 0.3127641 -0.34562105 -0.13156016
0.0846331 0.40292504 0.4983086 0.35787982 0.68234295 0.084974214 -0.30525467 0.5750088
-0.15835427 -0.38122022 0.5765342 0.06120601 -0.4462015 -0.03814565 -0.087110825 -0.8465288
0.23210743 -0.2499387 -0.54426044 0.27386808 0.08594576 -0.4344574 -0.34874776 0.15653867
-0.397313 -0.32109854 0.33151376 -0.24527764 -0.14371853 0.25548324 -0.5258835 -0.03668665
0.059653804 0.25329846 0.12204721 0.11465617 0.10428133 -0.07636044 -0.12948546 0.13022305

encoder.0.bias f4 [16]
00000000: 5bd4 993e 8676 f03a 20ba f53d cee4 103f
00000010: 2f7a 003f cb45 fa3e 51d1 7c3a 0ac9 5a3c
00000020: d951 ca3d 38fa 973e 5efb 97be f00f 543a
00000030: aeff 263a 3a53 ac3e 2832 b73e 2454 f53e
0.30044827 0.001834587 0.11998391 0.5659913 0.5018644 0.48881373 0.00096442277 0.0133535955
0.098788925 0.2968309 -0.29683965 0.0008089533 0.00063704967 0.33657247 0.35780454 0.47915757

encoder.3.weight f4 [8, 16, 3, 3]
00000000: 517c eebb 575d 063e c5e3 443d 70f9 b23d
00000010: f386 003e bc23 e03d 25a9 66bd 4a6d db3d
00000020: 655f 37bd d4cb 4ebf ea14 47bd b513 60bf
00000030: d55d 1abf 8992 69bd e1e0 16bf c2b5 fdbe
00000040: 3b6d acbe 006e 18bf f403 723d 2ac3 f23d
00000050: 34f3 443d a6fa 88bd 7f12 c53d b58d 4d3d
00000060: 114a 91bd 9568 5c3d 92d0 0bbd c3f0 323e
00000070: 35fa f73d 630f 463e 50a4 c93d 03d3 4d3c
00000080: 638e 2a3d bbe8 513d 0adc 5f3d 8b2f d83d
00000090: 5eb1 183e e712 bc3c 9fed b93d 4748 5f3c
000000a0: de30 d93d 2a8d 313a e512 ba3d f964 113e
000000b0: a849 d2bc 8e37 cb3c 175a 2e3e 9e1c ae3d
000000c0: 41d5 833c 3150 b93d 6225 cb3d c9ef 213d
000000d0: a1cf 2a3c f4cc 90bc f4c3 16be 09c3 0c3d
000000e0: f955 bcbd 3f94 d6bd 2145 9f3d e0cc 88bd
000000f0: c2f2 1cbe 03de e83d 691d 0dbe 62ab 8ebe
00000100: 8d90 483e 4ff3 d9be 9800 32be 840a 873e
00000110: 2047 abbe 53b7 89be 442b 7b3e 39ce 01bf
00000120: af47 bdbb a98a ae3d 5c4f 8c3d 59c2 0e3d
00000130: c2af 053e 2a14 35bd 90e9 6dbd acce 293d
00000140: b130 d03c 0f5e 703d e14a 043e fa13 cb3c
00000150: 5a0e 753d ae53 c73d 32ce 883d 12ad 0a3d
00000160: 8d07 373e b5bb ca3a 5eea 90bd 88d3 41bd
00000170: 730c 8fbd 3fa1 773d 6a8c 423d 5754 a83d
00000180: 6cfb 203d af1d 4b3d 901c 3b3d c547 06be
00000190: af39 b43d 78cd 51bd eeff d1bc ebd9 263e
000001a0: a01a c0bd 1c9b 21be 99fb 6f3c 281a e3bd
000001b0: 699a 3abe 914d fc3d d2e6 87bd b909 b03c
000001c0: 23ca 0f3e dd2c 0fbd f0fa a0bc fe42 413e
000001d0: e287 253d 58fe fd3d 5d3f 613e a04b 323e
000001e0: f54b b8bc a081 ad3d 57f4 b73d f91f e03d
000001f0: 53bd 593e 73ae 823d 55ec 833e 73d4 963e
00000200: 0dab 093e 916a 803d a39e c8bd d76b 91bd
00000210: eab0 643d ce06 d53d 760c 1fbc 7618 a43d
00000220: cd93 f53d f811 043e ef5b d13d 4b46 5d3c
00000230: 30cc 323d cef8 d13d 1949 cb3c b513 023d
00000240: a42c 48bd 3313 f33d a47e bf3d 1036 b13c
00000250: 9f4a fe3d 4e0f 0b3e 35b6 8fbc 26eb 0a3d
00000260: afcc 91bb 6b02 77bf 6926 07bf 0d34 05bf
00000270: 51ea 59bf 79e8 b3bd 28cb a9bd 8c16 d5be
00000280: 6328 7fbe 3cb8 04bf e200 0abd 66e1 3a3c
00000290: aec3 863d cd0a 25bd 7c37 853d 623c 653c
000002a0: 0c14 25bd 5c18 0b3e 4eb7 c6bd 7725 253e
000002b0: 6946 703e 3026 983e 9dd8 0f3e 9642 ddbc
000002c0: 3fe1 123e 1afc d33d a471 113e a3ec d63d
000002d0: fad7 cc3d 5768 5c3e 0d60 563e 6d18 b1bb
000002e0: 0d85 1d3e cca7 cd3d 9a55 083d a40c 2a3e
000002f0: 1a68 773d e336 1dbd 333a a33d 0e2a aa3d
00000300: c500 0f3d 8bbb 673d 5bd9 633d 62f2 48bc
00000310: fa95 be3d 26b4 a43d f9ee 34be 6e38 a4bd
00000320: 00aa 1fbd 9919 2ebe 6019 ac3d 6599 673d
00000330: 7fe5 4ebd b90f 1b3d 0cf1 20be 10e0 d7be
00000340: aabb 8f3e c0bc 03be 563c e2be 5f5b e83e
00000350: 64ab f7bd 934c c4bd 2f82 ac3c e693 10bf
00000360: 955c 29be bb69 493c 06f0 7f3d 0adb 1abd
00000370: 12a6 613d 7016 f63d 7a17 bcbd 14c7 df3d
00000380: 578e 0dbe 3086 ac3d 4c76 2a3e e065 893e
00000390: f506 d43d 29af 823e 1849 2c3e 1dd0 e43c
000003a0: de5b 203e 183b 0f3e 9ef1 a8bd 81d2 0e3d
000003b0: 7af4 b9bc d44d a3bd 725e 3b3d 72f1 57bd
000003c0: f07e d53c 8f04 cc3c 22b8 ad3c a08f 15be
000003d0: 6684 7cbc beae 98bd c343 86bd 3985 1d3e
000003e0: 9060 aa3c 7f82 4fbd b07b 343b 4b54 c0bd
000003f0: 1780 93be af05 0ebe 1831 8ebb 3cf4 26be
-0.0072780033 0.13121544 0.04806878 0.08738983 0.12551479 0.10944316 -0.056313653 0.107142046
-0.04476871 -0.8077977 -0.04860393 -0.8753007 -0.60299426 -0.057024512 -0.5893689 -0.49552733
-0.33677086 -0.59542847 0.0590858 0.11853631 0.0480835 -0.066884324 0.096226685 0.05018397
-0.07094205 0.053810675 -0.034134455 0.17474656 0.1210827 0.19341807 0.09845793 0.012562516
0.041639697 0.05124734 0.054653205 0.10555943 0.1491141 0.022958232 0.09078526 0.013628072
0.10605024 0.0006773049 0.09085635 0.14198674 -0.025669888 0.024806764 0.17026554 0.08501552
0.016092898 0.090484984 0.099192396 0.039535318 0.010425479 -0.017675854 -0.14723188 0.034365688
-0.091960855 -0.104774944 0.07776857 -0.06679702 -0.1532698 0.113704704 -0.1378075 -0.2786513
0.19586392 -0.42568442 -0.17383039 0.2637521 -0.33452702 -0.26897678 0.24528223 -0.50705296
-0.0057763676 0.08522541 0.06851074 0.034853313 0.13055328 -0.044208683 -0.05808407 0.041456863
0.025413843 0.05868345 0.12919189 0.024789799 0.05982814 0.097327575 0.06679954 0.03385646
0.17873974 0.0015467318 -0.07075952 -0.047320873 -0.069847964 0.06045651 0.04749719 0.082192115
0.039302275 0.049588855 0.045681536 -0.13113315 0.08800065 -0.05122134 -0.025634732 0.16294067
-0.09380078 -0.15781826 0.014647388 -0.11088973 -0.18222965 0.12319482 -0.06635822 0.021489011
0.14041953 -0.034954894 -0.019650906 0.18873212 0.04041279 0.12402028 0.21996827 0.17411661
-0.022497157 0.0847199 0.08982151 0.10943598 0.21263628 0.0638093 0.25766245 0.2945896
0.13444157 0.06270326 -0.097958826 -0.07100647 0.05583278 0.104016885 -0.009707561 0.08012478
0.119910814 0.1289748 0.10222613 0.013505529 0.04365176 0.10252534 0.02481513 0.031757075
-0.048870698 0.11868896 0.09350327 0.021632224 0.124165766 0.13580057 -0.017542938 0.03391566
-0.004449449 -0.96488065 -0.52792984 -0.5203255 -0.85123163 -0.08784575 -0.08290702 -0.41618764
-0.2491775 -0.5184362 -0.03369225 0.011406278 0.06580292 -0.040293504 0.065047234 0.013991447
-0.04030232 0.13583511 -0.09702931 0.16127573 0.2346436 0.29716635 0.14047475 -0.02700929
0.14343737 0.10350819 0.14203507 0.104943536 0.10002132 0.21524177 0.20935078 -0.005404523
0.15382786 0.1004177 0.03328476 0.16606385 0.060402013 -0.038382422 0.07970085 0.083088025
0.034912843 0.05657534 0.05562721 -0.01226482 0.093059495 0.08042173 -0.17669286 -0.080185756
-0.038980484 -0.17001952 0.084032774 0.056542773 -0.050511833 0.03785679 -0.15716952 -0.42163134
0.28072864 -0.12864971 -0.44186658 0.4538221 -0.12093237 -0.09584918 0.02105817 -0.56475675
-0.16539223 0.0122932745 0.062484764 -0.03780655 0.055090018 0.12015998 -0.09184165 0.10926643
-0.1382383 0.08424032 0.16646689 0.26835537 0.103528894 0.25524262 0.16824758 0.027931267
0.15660045 0.13987386 -0.0824921 0.03486872 -0.022699583 -0.07973829 0.045744367 -0.052720495
0.026061505 0.024904517 0.021205965 -0.1460557 -0.015412426 -0.074552044 -0.06555893 0.15382852
0.020797998 -0.05066156 0.0027539544 -0.093910776 -0.28808662 -0.13869356 -0.0043393485 -0.16304106

encoder.3.bias f4 [8]
00000000: 5e1b 1f3d 9456 a73d dae6 3a3d 4b77 d1bc
00000010: 084f a43d 743d 0c3d 59f8 4f3d 37be 933d
0.03884446 0.0817081 0.045630313 -0.025569579 0.080228865 0.034238294 0.050773952 0.07214015

encoder.7.weight f4 [2, 32]
00000000: 8ec9 803d dfab 71bd ff3c 8cbe 8aca 0ebe
00000010: 226e c9bc ad6b 273e aeb9 4cbd cff3 3fbe
00000020: 65dc 63be 290a b4bc 7387 f93c 202d ae3c
00000030: 3d67 c93e cb8d 0e3f 0e55 e8bc 88b1 913e
00000040: 1d66 963d 0aba d93d 8099 e33d 28a2 813e
00000050: 6067 fbbb 223a 2d3d b0d5 02bf b327 34bf
00000060: ec77 18be 8938 55be 017d 0ebf b857 31bf
00000070: dcd0 3abe 4cb8 88bd ce1e d63d b46b 39be
00000080: bd73 5ebe 5d77 44be 0b5a 59be 7f24 35be
00000090: b129 8e3d 68d6 a1be 5892 09be ac8f 46be
000000a0: 7d1b 16be 95ac 7fbe 443b d5be 80f0 d8be
000000b0: 2108 17be 3387 f9bc c9e7 ae3e 3cd5 c93e
000000c0: 971c 85bd d166 9cbe cf20 69be 6d07 97be
000000d0: fe70 34be 76d1 17be 4616 423e a795 3a3e
000000e0: a8e0 babe 69e1 f8be 5b61 dbbc 2558 12bf
000000f0: 7314 7ebe 38b2 32bd 8cca a5be 89a9 41be
0.062884435 -0.0590018 -0.27390286 -0.1394445 -0.024588648 0.16349669 -0.049981765 -0.1874535
-0.22252043 -0.021977501 0.030460095 0.021261752 0.39336577 0.5568511 -0.02836087 0.28455758
0.07343695 0.10631187 0.11113262 0.25319028 -0.0076722354 0.042291768 -0.5110731 -0.70373076
-0.14889497 -0.20822348 -0.5565949 -0.69274473 -0.18243736 -0.06675777 0.10455094 -0.18107492
-0.21723838 -0.19186158 -0.21225755 -0.17689703 0.06941546 -0.3160889 -0.13434732 -0.19390744
-0.14658923 -0.24968179 -0.4164678 -0.42370987 -0.14749195 -0.030459976 0.34161213 0.39420497
-0.06499594 -0.30547193 -0.22766422 -0.29497853 -0.17621228 -0.14825997 0.18953809 0.1822115
-0.36499524 -0.48609474 -0.026779821 -0.5716575 -0.24812488 -0.043626994 -0.32381094 -0.18912329

encoder.7.bias f4 [2]
00000000: 1f1c 25be 8bf5 06be
-0.16124009 -0.13179605

decoder.0.weight f4 [32, 2]
00000000: 898f 62be 50f4 c73d 9ff8 24bf a72b 04bf
00000010: bdc1 22be bc0f c63d 59c9 8dbe 7bfa 4cbf
00000020: 815f cfbc e601 28bf fbba 05bf d21e 07bf
00000030: 0e00 e5be 6cd7 663d 8985 163d f48b 52bd
00000040: 7056 653f 84ce 56be 0d63 343f 17bb 153f
00000050: 8930 16bf 40de 87be 77ce 9cbe eb69 c0be
00000060: 2d2c 1d3f c0c6 3e3f 1851 0b3f 0b58 eabe
00000070: c08c b2be 3151 a3be 443e 18bf 9788 593e
00000080: ebeb 9e3e 1976 c0be d374 b83e d13b 35be
00000090: 5b15 06bf db3c fdbe 80ad 0ebf cf38 3f3f
000000a0: 93aa c53d f593 363f 577a 6fbe b9fd fdbe
000000b0: 431a f0be 876b c3be 0e36 0abe eef2 f8be
000000c0: a733 253f 8bae 253f 4284 82bc 728b f83d
000000d0: a9a3 25be 4e3f 033f 409f fc3e ff36 1b3f
000000e0: 3a98 8fbe 963e e8bd 852b 3bbf c567 293f
000000f0: 9a98 203f b523 2cbf 4f67 163f e783 6e3c
-0.22125067 0.09763396 -0.64441866 -0.5162911 -0.15894218 0.0967097 -0.2769268 -0.800697
-0.025314094 -0.65627897 -0.52238435 -0.52781403 -0.44726604 0.056357786 0.036748443 -0.051403
0.8958502 -0.20977217 0.7046364 0.584886 -0.5866781 -0.2653675 -0.3062627 -0.3758081
0.6139553 0.7452202 0.54420614 -0.45770296 -0.3487301 -0.31897882 -0.5947001 0.21243511
0.31039366 -0.375901 0.3602663 -0.176986 -0.52376336 -0.49460492 -0.5573349 0.7469606
0.09651675 0.71319515 -0.23386513 -0.49607638 -0.46895036 -0.38167974 -0.13497183 -0.4862284
0.6453194 0.64719456 -0.015932206 0.12135972 -0.16175713 0.5126847 0.49340248 0.6063079
-0.28045827 -0.11340062 -0.7311328 0.66173965 0.6273285 -0.67241985 0.58751386 0.014557815

decoder.0.bias f4 [32]
00000000: 5cbe 5dbf 08d9 303f 1f54 ab3f 15f1 5ebe
00000010: bce4 c13e 7115 8ebe 00ae 603f ebb1 a03e
00000020: efa6 9bbe 410b 81bf ecca 7f3f 653f af3f
00000030: 87a2 31be 7bda 81bf a368 60bf e089 babf
00000040: 108a 903e 7193 52bf a366 9abf e2bb d73e
00000050: a5ef 42bf 9add 773e e815 d3be b6f8 a5bf
00000060: 9b54 fcbd 8585 713f 37ea 3fbf f6a5 73bf
00000070: 20e4 a53e 0749 783e d5f4 643f 1306 b13e
-0.8661859 0.69081163 1.3385047 -0.21771653 0.37869823 -0.27750733 0.877655 0.3138574
-0.30400798 -1.008156 0.9991901 1.3691221 -0.17347156 -1.01448 -0.8765966 -1.4573326
0.28230333 -0.8225623 -1.2062572 0.4213553 -0.7614692 0.24205628 -0.4122765 -1.2966526
-0.12320825 0.9434436 -0.7496676 -0.9517511 0.32400608 0.24246608 0.89436084 0.34574947

decoder.2.weight f4 [8, 16, 3, 3]
00000000: 705e 15bd cdaa 163e d6b9 d5bd f1a5 e7bd
00000010: 774a 043d 1c30 d53d 0623 113e 963e 903d
00000020: b4dd b5bd 6a61 06be 889d 11be c660 3b3e
00000030: df20 87bd 0dff a5be 17ba d1bd bc63 55bd
00000040: 5cd9 be3b 049c d43d a621 cc3c fff8 733e
00000050: cfa0 ab3e 1bbf 1cbc 18cf 443b df9c 143e
00000060: 8c69 633e 51e6 a93d 641c 9a3d 3003 d53d
00000070: 7f41 c43d a6c5 1e3e 1b43 8e3d a6e6 793c
00000080: 2977 823e ddfc 263d 69be c1bd 9274 dc3d
00000090: 753b 3bbc 32fd 5abd 7c3b f13d cee3 b0bd
000000a0: 1d5f 0cbe 151a 1f3e 6e50 cc3d a8b7 fa3d
000000b0: 8627 093e 3329 a5bd e124 13bd c727 123e
000000c0: ff19 28bd 2a32 df3c 66da df3c 75be fd3b
000000d0: d9ee 903d 9ec7 1f3e c149 f23d 7528 883e
000000e0: 1420 0a3e 6c39 0ebd f949 2e3d caf5 d0bd
000000f0: b81a 13bd b55d 75bb fdfd 983d ac21 60bb
00000100: d280 f13d 2a2f 983e 054b fbbd b04b aa3d
00000110: 6829 963e f059 523d a434 193d 0cd0 713d
00000120: a7ef a13d 95cf 5e3d 0dd8 6d3b 979b 81bd
00000130: 2609 0bbd d7ba e53d c9eb 3ebd af03 9f3c
00000140: a9a7 673e 36bc 6f3d 7ebd f63d 4e3e 193e
00000150: bc36 86bc 3103 21be 14a0 e23d 9270 1d3e
00000160: aabb 21be 258a b0bd 67f1 da3d 5600 33be
00000170: ef30 993d d9f7 ffbc 9e66 82be 3556 7f3e
00000180: b940 05bd 6895 acbc 6c13 073e 4886 523d
00000190: eae9 1abd 8633 3e3e 7536 77bd 27de 7abb
000001a0: ae7b c43e 685f f83c 8187 be3d 7995 1f3e
000001b0: a485 ca3b 1dc8 3cbe 0df7 173e ccb6 ccbd
000001c0: 9de6 c83b 0a41 1a3e 42a6 8bba 8177 db3d
000001d0: d099 2e3e 67e3 e73d 9dfa 1dbe 59e0 9fbe
000001e0: a6a0 b6bd 4ca2 b1bd a9bb dc3d ff3d 4bbc
000001f0: c254 39bd 2330 613e 0c22 db3c 96dd 98be
00000200: a422 6c3e 2998 95bd f23c 1abf c310 3e3e
00000210: 9804 0fbc 25d6 1d3e 21b7 46bc a8e8 afbc
00000220: 37b2 b33d 25af 293e 436c 85bd a394 c5be
00000230: 2adc 443e e3d4 f2bd ac2d a63c e4db d03d
00000240: 9c45 673d 1039 8d3d c0ad e2bd 7163 643e
00000250: 4c14 163e 0071 613c af5a 143c 189d cd3d
00000260: 0ca6 1ebe d077 0e3e 9631 18be be01 ff3d
00000270: 6873 453d 94f6 c73d 4a0f 28bd 436a 503e
00000280: 0b0b f23c 7415 3d3d aac6 283e 832d 2a3e
00000290: b6b9 403e aa8a 303e cecc 9ebd 6529 983d
000002a0: ed1c be3d a263 3b3d e5c5 9d3d 0162 ef3c
000002b0: 8579 a23d 6020 0a3e 6167 de3d 4f8a 94bd
000002c0: b8ae 8d3d 3e37 423e f53e 033e 54b9 013e
000002d0: 51d2 9d3d 51db 973d ee5a 2c3e 8faf 4d3d
000002e0: e3e9 123e ccfd 7d3d d908 ca3d 6378 38bd
000002f0: 7976 0e3e fd62 243e efac 3ebe 1816 9d3d
00000300: 4f73 723e fc40 e6bc 5441 a53d bd11 c83c
00000310: 0c35 5f3d 1e86 193e 7d0d f13d 4974 973e
00000320: 153b 393e cb9c a0bd 1c87 0bbe 59c7 b5be
00000330: 1a58 6abd dab0 8f3d ea9b b83d f352 f63d
00000340: 6bba 193d 5698 853e 20e6 253d b787 813d
00000350: 3243 0a3e 5055 863d 66ac 0d3d 6202 0ebc
00000360: 20ba 113e e837 3d3c 5528 293e 17f0 5e3e
00000370: 4c7c 3cbd a22f b23b 8f33 fe3c fa79 d0bb
00000380: b495 a93d 6724 a63d b388 bb3a 0046 153e
00000390: 3c06 143e 102a 02ba 359c a13d f8d9 8eb9
000003a0: 498f ee3b d975 013d 83f6 953d f53f 3dbd
000003b0: c6ea 373e f760 403e a454 94bc 2b72 113d
000003c0: 31cd c53d a5cd 6b3d 03a4 ab3d e95f 013d
000003d0: 7922 e03d f8fd af3d 8fb1 593e e968 3dbe
000003e0: 4a1b 2b3e 2c46 673e 4060 94bb aa31 e93d
000003f0: fb67 02bc 327b 8bbd adc3 113d f55e 083e
-0.036467016 0.14713593 -0.10435836 -0.11310948 0.032297578 0.10409567 0.14173517 0.07043187
-0.08880177 -0.13123098 -0.1422025 0.18298635 -0.065980665 -0.3242115 -0.10240572 -0.052097067
0.005824251 0.1038132 0.024918389 0.23825453 0.33521125 -0.0095670475 0.0030030664 0.14512967
0.22208232 0.082958825 0.07524946 0.104009986 0.09582805 0.15505084 0.06946393 0.015252745
0.25481537 0.040768493 -0.09460146 0.107644215 -0.01142775 -0.053464122 0.11778924 -0.086372
-0.13708158 0.15537293 0.09976278 0.12242061 0.13393983 -0.08064499 -0.035923842 0.14272986
-0.041040417 0.0272456 0.02732582 0.0077436515 0.070768066 0.15603492 0.11830474 0.26593366
0.134888 -0.03472273 0.042551015 -0.102031305 -0.035914153 -0.0037439887 0.074703194 -0.0034199758
0.11792149 0.29723483 -0.12270168 0.083152175 0.29328465 0.051355302 0.037403718 0.0590363
0.07907038 0.054397184 0.0036292106 -0.063285045 -0.03394427 0.112172775 -0.04661158 0.019410936
0.22622551 0.0585291 0.120478615 0.14965174 -0.016383521 -0.15723874 0.11065689 0.15374973
-0.15794244 -0.08620099 0.10690575 -0.17480597 0.074800365 -0.031246113 -0.25468916 0.24935229
-0.032532427 -0.021067336 0.13191003 0.05139759 -0.037820734 0.18574342 -0.06035467 -0.0038279386
0.3837561 0.03031893 0.09303189 0.15584363 0.006180482 -0.18435712 0.14840336 -0.09995803
0.006131007 0.15063873 -0.0010654407 0.10716153 0.17050862 0.113226704 -0.15427633 -0.3122585
-0.0891736 -0.08673534 0.10777981 -0.012404918 -0.045246847 0.21991019 0.026749633 -0.29856557
0.2306009 -0.07304413 -0.60249245 0.18561082 -0.008729123 0.15413721 -0.012128622 -0.021473244
0.08774226 0.16570719 -0.0651479 -0.38589963 0.19224611 -0.11857011 0.02028545 0.10198191
0.05646287 0.068956494 -0.110682964 0.22303559 0.1465618 0.013759851 0.009054824 0.10039729
-0.1549303 0.13912892 -0.14862666 0.12451504 0.048205763 0.09763828 -0.041030206 0.20353036
0.029546281 0.046163037 0.16482034 0.16618924 0.18820843 0.17240396 -0.07753907 0.074297704
0.09282861 0.045749314 0.07703761 0.029221537 0.07933334 0.13488913 0.10859562 -0.07252943
0.069180906 0.18966386 0.12816985 0.12668353 0.0770613 0.07414878 0.16831562 0.050216254
0.14347033 0.062009618 0.09864969 -0.045036685 0.13912381 0.16053386 -0.18620656 0.0767023
0.23676799 -0.028107159 0.08069101 0.02442252 0.05449395 0.14992568 0.11770151 0.29580906
0.18088944 -0.07842406 -0.13625759 -0.35503653 -0.057212926 0.07016154 0.09014113 0.1202754
0.037531298 0.26092786 0.040502667 0.06324714 0.13502195 0.06559241 0.03458824 -0.00866756
0.14231157 0.011548974 0.16519292 0.21771275 -0.046016976 0.005437807 0.031030444 -0.006362197
0.08280507 0.08112412 0.0014307707 0.14577484 0.14455503 -0.0004965374 0.07891122 -0.0002724675
0.0072802645 0.03160653 0.07322409 -0.046203572 0.17960653 0.18786989 -0.018106766 0.03550927
0.09658278 0.057569165 0.08380892 0.031585608 0.10944075 0.085933626 0.2125914 -0.18497051
0.16709629 0.22585362 -0.0045280755 0.11386426 -0.007959361 -0.06810607 0.035587 0.13317473

decoder.2.bias f4 [16]
00000000: e0b1 bebe e35a c3bd fd89 423d 00b5 b83c
00000010: 2419 263e 31bd 353d 8a24 63bd 53f1 5c3e
00000020: 402b 14be b59c 013e e2b2 ca3d 11f7 c03d
00000030: 8f01 103e c478 3e3e 52d0 a33d 8ded 93be
-0.37245083 -0.0953882 0.047494877 0.022547245 0.16220528 0.04436988 -0.05545477 0.21576433
-0.14469624 0.12657435 0.098974004 0.09422124 0.14063095 0.18600756 0.07998718 -0.28892174

decoder.4.weight f4 [16, 8, 5, 5]
00000000: 5204 32bc 6671 ddbb f569 bdbe f905 f1bb
00000010: dd4d 02be 879d 713d 5092 4cbd d92c 6fbe
00000020: 645d 6ebd b394 c33c d0cc b6be 8437 debd
00000030: 5758 52be 092f 0abf af9d 893d 1061 90bd
00000040: 93ad e3bd b0f1 eabe f9d4 23bf a7da d9bc
00000050: 5b3a e5bd 08c8 31bd 843b 103e c20d 2abe
00000060: 2aae 36bd 50f9 e83c af99 553e 8d36 e03d
00000070: 2acd 1b3e eace 673d f852 a93d 0f6b a23e
00000080: 3a08 9f3d 2cac 0ebd 665e 9fbd f6e2 9fbb
00000090: 8ec5 8e3e b5ee 8d3e d229 323e 181c 37bc
000000a0: 81de a83d af60 823e 933a 873e 3249 0e3e
000000b0: 5e50 8e3d 9be0 a23d fa48 783e 6942 603e
000000c0: 7641 1c3e 8f67 2f3d 8b0b 3e3d 00d5 c83d
000000d0: dce8 f63c 0a0c ec3d d008 84bd d083 f73d
000000e0: 2d48 5e3e cd1a 7c3d fffd 12bf ed10 babc
000000f0: ff36 203d dc36 59be d8a7 cbbe 0164 89be
00000100: 4b5b 583d ec7e c13c f3b2 c0be 7cdd 07bf
00000110: 7c57 463d 3b83 463b 2ebc 0dbe a670 c9be
00000120: 0402 27bf 5e78 af3b a117 b4bc 5ac9 10bc
00000130: 17fc 533e 3652 003e ff9e 8f3d c78f a3bc
00000140: 91ad dc3d 3cd0 873e 2171 3e3e a12f 6dbc
00000150: de3d e4bd a0fb 653e b7e6 d83e 01b5 ad3e
00000160: 0703 753c 7682 b2bd df21 273d c81d 473e
00000170: ba5f 9d3e 32a1 0a3e 0e68 893d dfd1 163e
00000180: 40e1 463e 4fd1 3c3e dca5 183d b65b 0a3b
00000190: 5049 29bd 26a8 d53a e6e8 643d cfe5 db3d
000001a0: 1251 fdbc c612 bdbd c56f 9cbd 04d8 64bd
000001b0: c0e5 033d f6e3 473d d73d 4fbe 1e34 5dbe
000001c0: a0e0 53bd 92c5 113d ed8c 4cbd c68d 37be
000001d0: aa49 5a3d 3ec4 273d 1744 3b3d 6c82 3dbd
000001e0: baaf 95bc 16ce 9a3d 11e8 cf3d 168d 733d
000001f0: 4d7c ecbd 1cb3 a5bd 0b09 af3b e98f 74bd
00000200: cc38 98bc b7ad 003d 91ea 89bc 3bd5 b4bd
00000210: 5393 8bbd 45ed 9bbd c9bb b6bc fb4d d4ba
00000220: ff82 793e 643c cc3d 6df2 7dbc 2dd0 213e
00000230: a758 cebc f35a 05bd 0211 c33e a8de 9ebd
00000240: c124 05bd b5c0 34bd 9c24 20be 70fd a8be
00000250: 3138 2fbd 8714 ec3c 0cad 87bd a4fa a93d
00000260: 052f 183e 4b13 cd3d 7ad6 b5bd acef f5bd
00000270: b8ec 113e 9e1f 843e ef35 c1bd 3320 aabd
00000280: 2748 123c 722f 363e dab0 d23d 4bd9 863e
00000290: 43fc 00bd 4a36 41be 09a7 a53d c8b0 af3d
000002a0: 7af0 683e 4e42 ca3d 8156 b6bd 1c9e 4d3d
000002b0: db7f 6e3d 109d 333d 07f3 9e3d 0e73 74bd
000002c0: f48e e83c 18e2 923c edbf 9cbd ccc6 7ebd
000002d0: 4165 b5bc d836 80bd a654 2f3d b283 94bd
000002e0: dfa3 81bd 541c 7c3e 09c1 8e3e 744e 12be
000002f0: 13c3 483e 7f70 543e f7af 2f3d e34e 92bd
00000300: 3bad a9bd 46c0 dabc 4770 50bd f116 c33c
00000310: 217a 88bd 18e7 7ebd ba7c 88bd dd92 cfbc
00000320: d7b7 f83d 0f3e 563e d97a d2bb e187 d8bd
00000330: 9f64 ce3d 0c26 4f3c d918 b03d e12d 97be
00000340: 2479 0e3d 6346 da3d 34cc ab3e c429 c4bc
00000350: d8d9 873d a8ab b13c b94b d7bc cf7e 8fbe
00000360: ab1b c4bd a7d4 683d e494 093e ac3f 9d3d
00000370: 4567 2abe eaf3 b8bd 943e ec3d 448c 243e
00000380: 6f6e 693c d643 9bbd 11af 333d 6ad1 dabd
00000390: 686d 323a 9721 bebd 9a68 e3bc 467c 2fbd
000003a0: 29a1 e83d 14ae 3f3e ddf3 37bd 4a92 023e
000003b0: 8d07 443e 49d6 433e ad2c 1b3d 8aa3 71bd
000003c0: a5e4 303e 8716 823e 1769 6d3e 2aa1 3f3e
000003d0: 5c35 b73c cc2f 6d3e d738 163e 85d3 213e
000003e0: cc63 643d 5175 0b3e 82e6 9c3d 3347 0d3e
000003f0: 6686 8bbe 7e74 dd3d c6bf a03d a245 723e
-0.010865288 -0.006757903 -0.369949 -0.0073554483 -0.12725015 0.05898812 -0.049944222 -0.23356952
-0.058194533 0.023874616 -0.35703135 -0.108504325 -0.20541511 -0.5397802 0.06719529 -0.07049763
-0.11117091 -0.45887518 -0.63996845 -0.02659352 -0.11192771 -0.043403655 0.14085203 -0.1660681
-0.04459969 0.028439194 0.20859407 0.10947905 0.15214983 0.056593813 0.08267778 0.31722304
0.07765241 -0.034832165 -0.07781677 -0.004879351 0.27885097 0.27721182 0.17398766 -0.011176132
0.08245564 0.2546439 0.26411876 0.1389511 0.069489226 0.07952996 0.24246588 0.21900333
0.15259346 0.04282337 0.046397727 0.098062515 0.030140333 0.11525734 -0.06446993 0.12085688
0.2170722 0.061548997 -0.5741882 -0.022713149 0.03911495 -0.21212333 -0.39776492 -0.2683411
0.05282144 0.023620091 -0.37636527 -0.53072333 0.048423275 0.0030290622 -0.13841316 -0.39343756
-0.6523745 0.005354925 -0.021983923 -0.008837068 0.20701633 0.12531361 0.07012748 -0.01996602
0.10775293 0.26526058 0.18597843 -0.014476688 -0.11144613 0.22459269 0.4236352 0.33927158
0.014954335 -0.0871629 0.040803786 0.19444954 0.30737096 0.13538054 0.067093 0.14728497
0.19421864 0.1843922 0.03726755 0.0021111793 -0.041329682 0.0016300722 0.05588617 0.10737192
-0.030922446 -0.092320964 -0.07638506 -0.05587007 0.03220153 0.048801385 -0.20238434 -0.21601912
-0.05172789 0.03558881 -0.049939085 -0.17925176 0.053292908 0.040958636 0.045719232 -0.046266958
-0.01827227 0.07558839 0.10151685 0.059460722 -0.11547146 -0.08090803 0.005341654 -0.059707556
-0.01858177 0.031415667 -0.016835483 -0.08829733 -0.06815209 -0.07613615 -0.02230634 -0.0016197556
0.24366377 0.09972456 -0.015499693 0.15802069 -0.025188757 -0.03255744 0.38098913 -0.07757312
-0.032505754 -0.044129092 -0.15638965 -0.33005857 -0.042778198 0.028818382 -0.06624803 0.08299759
0.14861687 0.100134455 -0.08878799 -0.120086044 0.14250457 0.25805372 -0.09434115 -0.08306923
0.008928335 0.17791536 0.10287638 0.26337656 -0.031490576 -0.18868366 0.080885 0.0857864
0.22747985 0.09875928 -0.08903218 0.050199613 0.0582274 0.04385096 0.077611975 -0.059680037
0.028388478 0.017930076 -0.076537944 -0.062201306 -0.022143008 -0.062604606 0.042805336 -0.072516814
-0.06330084 0.24620181 0.2788165 -0.1428774 0.19605665 0.20746039 0.042892423 -0.07143953
-0.08284994 -0.026703011 -0.050888326 0.02381465 -0.06663919 -0.062232107 -0.06664415 -0.025338585
0.1214444 0.20922111 -0.006423336 -0.10572792 0.10077786 0.012643348 0.08598489 -0.2952719
0.034783497 0.106579565 0.33554232 -0.023945697 0.06633347 0.021688297 -0.026281225 -0.28026435
-0.0957559 0.056843426 0.13435704 0.0767816 -0.16640957 -0.09030898 0.11535373 0.16069132
0.014247521 -0.07581298 0.04386813 -0.10684474 0.0006806464 -0.092837505 -0.027759839 -0.042843126
0.11358864 0.1871875 -0.0449103 0.12751117 0.19143505 0.19124712 0.037884403 -0.058993854
0.17274721 0.25407812 0.2318462 0.18713823 0.02236431 0.23162764 0.1467012 0.15803345
0.055759236 0.13618971 0.076611534 0.13796692 -0.27250975 0.10813235 0.07849078 0.23659375

decoder.4.bias f4 [8]
00000000: 03a1 043f 879d ad3d b3c7 2f3f 4494 78bc
00000010: e4af 9b3d a4ab 103d d1c0 36bd c56a b63c
0.51808184 0.084773116 0.6866409 -0.015172068 0.07601908 0.03531994 -0.044617478 0.022267709

decoder.6.weight f4 [8, 1, 2, 2]
00000000: 6861 de3e 98db 143f 01eb d83e 6bc4 bf3e
00000010: 8fa2 f7be d543 64be cb76 123c dd25 a4be
00000020: c5ee 443f 347d 3c3f c47a 2a3f fe6f 373f
00000030: 4a74 b23d 5a1a 35bf fffd 00bf 2381 c5be
00000040: f4f6 a3be 084f 10bf 2623 10bf d517 813e
00000050: 8a24 e33d 22b6 d73e 95b6 163f bae5 ee3e
00000060: 3fad 22bf 43ba d53d c86f 13bf 51c7 29bf
00000070: e057 153f 7b0f 243f ad87 183f 1f42 083f
0.4343369 0.58147573 0.42366794 0.37454543 -0.4836621 -0.22291501 0.008939455 -0.32060137
0.76926833 0.73628545 0.66593575 0.7165526 0.08713587 -0.70743334 -0.5038757 -0.38575086
-0.32024348 -0.5637059 -0.5630363 0.25213495 0.11090954 0.42131144 0.5887235 0.46659642
-0.635456 0.10435917 -0.5759244 -0.6631976 0.5833721 0.6408612 0.59582025 0.5322589

exp_avg f4 [16, 1, 3, 3]
00000000: f3d7 3537 9f52 c4b6 8195 e1b5 7211 5b37
00000010: 7b90 80b4 753d eab5 cee0 e535 7dd9 feb6
00000020: 82fb 40b5 8e66 2035 5f7b 5ab7 ac0e 4bb7
00000030: 5832 b4b6 3444 7fb7 5880 b3b6 0b5f 65b7
00000040: 2743 0137 757d 8837 0cfb 0f37 f357 4637
00000050: bf91 c537 fdb5 6937 f55a 1637 9684 4836
00000060: 6b5a 7a37 b41a 9635 c5c1 08b7 23de 2937
00000070: 76d0 1737 3f2a 7937 b5b0 9a35 f901 d935
00000080: 99f2 7736 c53f 2237 c2a8 4b36 17d3 3337
00000090: af02 1bb7 a437 0cb6 6d8e 2136 ecf1 1137
000000a0: 45c4 1536 6fd4 4436 7fde 9037 40e3 b736
000000b0: c90f 0035 f8b2 5e37 818a 0437 3115 4d37
000000c0: fef9 0837 8698 6b37 2d25 9037 af4f f635
000000d0: bebe e136 12ab 7537 cb8d bc37 2af5 4036
000000e0: 680f 6fb6 7716 3137 fd98 cd34 8f4c 91b5
000000f0: f50b 6bb5 1241 88b6 b314 c6b6 692b bc35
00000100: 3240 8237 6fe3 d2b5 452c 1035 22ca 3937
00000110: cec4 bc36 62fc 0136 fef0 ac37 0a66 7c37
00000120: 5bb5 0c37 0ef7 63b7 5400 95b7 df6f 4436
00000130: 815a 19b7 5534 4fb7 52df 6bb7 f2ff ef35
00000140: 6277 0a37 1d8e 1636 c410 a736 9be5 5537
00000150: 58bc 5634 4e24 5036 71d6 b437 abca 1236
00000160: d139 4237 cf9a 5937 aaec 0300 0400 0000
00000170: 0000 0000 0400 0080 0400 0000 0400 0000
00000180: 47fc 0000 a9ec 0300 a9ec 0300 ac61 c736
00000190: 2ae2 c135 d916 8a36 233e 3ab6 436a 25b7
000001a0: a530 0d36 f531 57b7 d729 6db7 68ed eab5
000001b0: 2448 7137 37e1 fb36 c4a9 abb4 0010 5437
000001c0: 5101 7037 9527 36b6 4c93 0837 b578 0538
000001d0: 4f41 b537 c244 e737 3ead 4c37 1c1c 3e35
000001e0: f2f9 e037 4fb5 a836 15c0 30b6 3043 7337
000001f0: e3ad 0e37 f78d e6b6 67c0 1f36 2a5d 2f37
00000200: 5901 2837 5aa7 ae35 8c91 5237 0809 7236
00000210: 2a5f 7037 6bc4 5337 ec99 09b3 c5ef 8137
00000220: d688 7c37 b6c8 8037 422a 5137 d41b 6237
00000230: e707 9337 e212 f9b5 fddf 1835 4822 3937
1.083872e-05 -5.8508735e-06 -1.6807318e-06 1.3057479e-05 -2.394698e-07 -1.7452245e-06 1.7127256e-06 -7.595109e-06
-7.1891566e-07 5.975388e-07 -1.3022537e-05 -1.2103159e-05 -5.370279e-06 -1.5215064e-05 -5.349557e-06 -1.3671593e-05
7.704634e-06 1.6270884e-05 8.581916e-06 1.1822197e-05 2.3552098e-05 1.3930255e-05 8.961874e-06 2.9879498e-06
1.4922213e-05 1.1183643e-06 -8.151347e-06 1.0124905e-05 9.0488375e-06 1.4851393e-05 1.1525323e-06 1.6168334e-06
3.6947079e-06 9.6708e-06 3.0347587e-06 1.071838e-05 -9.239345e-06 -2.0894013e-06 2.4073772e-06 8.699e-06
2.2316974e-06 2.9329929e-06 1.7269746e-05 5.4802804e-06 4.7706686e-07 1.3273901e-05 7.900061e-06 1.2223886e-05
8.1644375e-06 1.4042604e-05 1.7183449e-05 1.8351619e-06 6.727728e-06 1.4642968e-05 2.2477374e-05 2.8752934e-06
-3.5622743e-06 1.0555253e-05 3.829554e-07 -1.0825623e-06 -8.756172e-07 -4.060691e-06 -5.9032695e-06 1.4019726e-06
1.5527101e-05 -1.5712411e-06 5.37086e-07 1.1073922e-05 5.6257477e-06 1.9369404e-06 2.0616219e-05 1.5044128e-05
8.386875e-06 -1.3587776e-05 -1.7762337e-05 2.9271393e-06 -9.140583e-06 -1.2350346e-05 -1.4059087e-05 1.7881378e-06
8.253237e-06 2.2434463e-06 4.9789396e-06 1.27492485e-05 1.9998822e-07 3.1015547e-06 2.155753e-05 2.1873664e-06
1.15767625e-05 1.2970252e-05 3.60406e-40 6e-45 0.0 -6e-45 6e-45 6e-45
9.05e-41 3.60404e-40 3.60404e-40 5.9420327e-06 1.4445443e-06 4.1153803e-06 -2.7752328e-06 -9.859507e-06
2.1038952e-06 -1.282663e-05 -1.4136042e-05 -1.7503453e-06 1.4381516e-05 7.5066014e-06 -3.1974753e-07 1.263991e-05
1.4305421e-05 -2.7143153e-06 8.140527e-06 3.182209e-05 2.1607293e-05 2.7569364e-05 1.2199684e-05 7.082142e-07
2.681927e-05 5.0278973e-06 -2.633785e-06 1.4499572e-05 8.504346e-06 -6.871061e-06 2.380484e-06 1.0452504e-05
1.0013894e-05 1.3012716e-06 1.2550863e-05 3.6066067e-06 1.4327272e-05 1.2622312e-05 -3.203779e-08 1.548965e-05
1.505223e-05 1.5352252e-05 1.246721e-05 1.3477129e-05 1.7527445e-05 -1.8557441e-06 5.695036e-07 1.1034841e-05

exp_avg_sq f4 [16, 1, 3, 3]
00000000: 0981 aa32 6168 b132 a1f5 8632 f731 0b33
00000010: 8029 0a33 aab1 ad32 7fdc 1133 14c7 0633
00000020: 8def a332 678c 2f32 0be1 7032 2e55 8632
00000030: 43ee 5732 b4d8 9032 a344 9832 b24a 4132
00000040: 16de 8832 f855 8f32 ac5f c032 224e bf32
00000050: 589b 8232 8c69 a332 3bef b332 c97b 8a32
00000060: f701 5a32 89fe 8132 75b9 4f32 3ceb 7030
00000070: 88d8 ac30 4a80 3e31 3e20 1330 482a 0a30
00000080: b023 3130 2d23 ce30 527b 1630 c2eb 0e30
00000090: 4601 9732 c4df 1f32 85a0 7331 e9da 6032
000000a0: 339f bc31 7e91 1231 9c80 c431 1581 0231
000000b0: 9abd 6930 3ebf 1332 345e 6532 20de 8a32
000000c0: 4b23 2532 202d 9532 8678 af32 68b8 fe31
000000d0: 79c2 7432 5b59 9532 8657 0132 5d3a 4f32
000000e0: e15c 3b32 5948 e131 0821 2d32 e2bf 0632
000000f0: 61cc c931 435f 0532 30ed a731 4521 4f2f
00000100: 0735 8030 7ceb 5531 4e63 ef2f 674a cf30
00000110: b1d7 c731 8c26 7a30 c6b3 3c31 53ea 1932
00000120: 475a d631 f261 c231 90d0 bd31 3846 4232
00000130: e6b2 f931 166a 9c31 7f82 7632 92fd 1632
00000140: c54f aa31 8898 0e30 4964 9c30 2055 6031
00000150: 9786 5330 a2a1 0a31 c7ee 0432 b089 d130
00000160: 0780 b031 a091 8032 1ff3 5324 8346 d31f
00000170: 0000 0000 cae8 4220 962f 041d f01a d81f
00000180: 8618 7024 6fc7 c524 b199 e424 0ede 0731
00000190: b9c4 d531 2279 2d32 31bb 9031 1c03 2a32
000001a0: 3af4 5932 2814 1632 c4ba 7232 94a9 5b32
000001b0: 49cd dc31 ac9a 5731 2513 b130 3f1b d831
000001c0: e670 2931 e898 9030 36d0 d031 9cd6 5e31
000001d0: 5ae7 0031 7848 0f32 0484 0c31 26b7 0a2f
000001e0: 99bf 0732 feff 9430 8de8 2a2e e74e 0832
000001f0: d6f3 0831 1c65 0830 dcbc 8830 1419 2631
00000200: a411 1731 4769 1331 4d82 8731 08d5 1a31
00000210: 6e12 b631 980b ad31 9076 1231 8305 0432
00000220: c05f 4732 d7a0 5b32 59a3 2032 44fb 6232
00000230: e68b 6b32 3dcd f231 a3fe 2232 654e 3032
1.9849283e-08 2.0652978e-08 1.5711352e-08 3.2408902e-08 3.2168373e-08 2.0220643e-08 3.3960983e-08 3.1380367e-08
1.9084633e-08 1.02182645e-08 1.40210075e-08 1.5638388e-08 1.25688215e-08 1.6862352e-08 1.7726341e-08 1.1251062e-08
1.5933477e-08 1.6686485e-08 2.2395248e-08 2.2270857e-08 1.5204634e-08 1.9023695e-08 2.0947132e-08 1.6121605e-08
1.2689717e-08 1.5133326e-08 1.2091154e-08 8.764578e-10 1.2576189e-09 2.7721563e-09 5.352411e-10 5.0264193e-10
6.444294e-10 1.499847e-09 5.474493e-10 5.199433e-10 1.7579293e-08 9.3058965e-09 3.5452399e-09 1.30882905e-08
5.489619e-09 2.13285e-09 5.718972e-09 1.8990864e-09 8.5034346e-10 8.60001e-09 1.3350974e-08 1.6166325e-08
9.612289e-09 1.7366403e-08 2.0427489e-08 7.4133375e-09 1.4246887e-08 1.7386517e-08 7.528689e-09 1.2062256e-08
1.0905951e-08 6.556587e-09 1.0077436e-08 7.843456e-09 5.873105e-09 7.763279e-09 4.887305e-09 1.883836e-10
9.328297e-10 3.1129437e-09 4.3544407e-10 1.5082379e-09 5.8161835e-09 9.100425e-10 2.745979e-09 8.959051e-09
6.238483e-09 5.657278e-09 5.5243348e-09 1.1308252e-08 7.267192e-09 4.552258e-09 1.4348756e-08 8.788804e-09
4.95672e-09 5.187606e-10 1.1378997e-09 3.2644678e-09 7.6952617e-10 2.017352e-09 7.737703e-09 1.5245885e-09
5.136829e-09 1.4967384e-08 4.5959263e-17 8.947863e-20 0.0 1.6509463e-19 1.7494656e-21 9.152412e-20
5.2062476e-17 8.5772985e-17 9.91396e-17 1.977131e-09 6.2214807e-09 1.0097468e-08 4.212233e-09 9.896009e-09
1.2686593e-08 8.735732e-09 1.41287195e-08 1.2786035e-08 6.426181e-09 3.1374539e-09 1.2883886e-09 6.289525e-09
2.4656912e-09 1.0520838e-09 6.0772676e-09 3.2427243e-09 1.875796e-09 8.340173e-09 2.0447724e-09 1.2616094e-10
7.9015985e-09 1.0841175e-09 3.886007e-11 7.934182e-09 1.992921e-09 4.9620197e-10 9.948979e-10 2.4170435e-09
2.198342e-09 2.1451159e-09 3.9438306e-09 2.2531044e-09 5.2989924e-09 5.0362807e-09 2.1313191e-09 7.6846645e-09
1.16050956e-08 1.27840485e-08 9.350367e-09 1.32120626e-08 1.37106095e-08 7.06646e-09 9.487539e-09 1.0262373e-08

exp_avg f4 [16]
00000000: 2051 9837 0dce c3b8 c3f5 e7b5 f058 8738
00000010: 3902 c537 c798 d437 38b4 c4b7 d976 f337
00000020: aee1 4db7 f6eb 7038 a9ec 0300 1e68 31b8
00000030: 3227 3a36 6c05 bf38 7e58 e238 b000 6b37
1.8157589e-05 -9.3367045e-05 -1.7282367e-06 6.4538675e-05 2.3485265e-05 2.5343512e-05 -2.3448942e-05 2.90232e-05
-1.2271497e-05 5.7440215e-05 3.60404e-40 -4.2297055e-05 2.7738974e-06 9.1085996e-05 0.00010793003 1.4007252e-05

exp_avg_sq f4 [16]
00000000: 3659 e133 300e b133 a3a8 9533 dc95 1034
00000010: f707 ca33 9275 b533 cc0b c232 bced e832
00000020: 6556 5533 8267 0834 32b2 e524 cc96 0633
00000030: b13e aa32 443c 6534 91b4 7434 8811 8933
1.0493606e-07 8.2447855e-08 6.969028e-08 1.3465564e-07 9.407807e-08 8.449855e-08 2.2589937e-08 2.7116464e-08
4.9671502e-08 1.2703643e-07 9.9614794e-17 3.1336455e-08 1.9819113e-08 2.1349211e-07 2.278996e-07 6.3827486e-08

exp_avg f4 [8, 16, 3, 3]
00000000: 45e4 e535 1e0c 1a36 e1d6 8b36 7c4f 2736
00000010: fed5 6e36 b890 e136 f5d3 17b4 e37a 4536
00000020: 339f 1036 a019 cb36 0b2a 4135 a813 ba36
00000030: 184f 6635 7f09 6136 93e0 b936 45f0 bbb3
00000040: 6f2a 7d36 b6d4 5135 f4e1 e835 966c 2436
00000050: e74f d035 fc6f 9c35 0c50 7c36 58ec 4b36
00000060: 7d5b 4034 ce77 9435 121c 9f35 6977 1436
00000070: d8ae e835 cb23 d335 34a1 d936 6a3f 3c37
00000080: 2571 0537 5e9b 3635 9c77 7c36 8040 6736
00000090: 404e d235 2c25 6536 0d9b f135 3afe bb36
000000a0: 0735 2d37 df10 fe36 d20f 3935 1d57 8c36
000000b0: 9ae3 5b36 5308 8b36 6055 6c36 bbc4 6036
000000c0: 8cae d636 4401 3537 6566 ff36 d0eb 9035
000000d0: 5fdd 6736 f24f 6336 5bf2 7c36 67e4 c635
000000e0: b615 5335 a636 5835 6664 1a36 13cb eb35
000000f0: 9ece 2334 fad4 c735 c829 a234 57c5 8936
00000100: 64c5 0235 e5ef 1f36 3c4a fe35 0cdb cdb5
00000110: 6144 4b35 8096 dc35 8f14 ef34 a8db 4f35
00000120: 5798 c135 636a 5536 c902 e835 c25d a335
00000130: f419 7035 2e54 7536 5ef1 cfb4 32d5 a435
00000140: ab7b 5435 2f1f 1136 376a 8235 0b5c df35
00000150: ec36 6c36 2f0d 8836 1ac9 8836 5e23 9435
00000160: 9aa9 0c36 bbd1 1236 0400 0080 0400 0000
00000170: 0400 0000 0400 0000 0400 0000 0400 0000
00000180: 6a04 0080 0400 0080 0400 0000 4746 3b36
00000190: f8b3 d335 8f4b 8236 80c8 ab33 85a6 b435
000001a0: ea0b 7835 946d 6235 f335 4236 5da5 3433
000001b0: 5340 c135 d8c6 c136 e39f 6036 53fd a1b4
000001c0: 6b7b f1b5 48df bb36 b3fd 78b5 0595 f435
000001d0: 0a0c 9935 64a6 ba35 f6cc e435 0fbb cd35
000001e0: f3cf 8336 e9f9 b836 1a4d bd36 43a9 1434
000001f0: 42e8 e135 a6d1 1136 0174 8835 9038 a235
00000200: 3f0b ad35 a09a 8a36 703f 0837 6cea a336
00000210: 4ac1 0f35 6732 3a36 198f 1336 0ada 6136
00000220: 3685 5436 284c 2b36 174d d636 bebb 2137
00000230: 6cb9 f936 a85a 4735 fc16 5636 fa63 5136
00000240: d52d 1136 cce6 aa36 ff3b b935 0aa1 f1b4
00000250: 0990 3db5 8efa 6ab6 82e4 cdb6 aaa2 1436
00000260: 32ab f435 349b a036 eaf1 e836 745c c8b5
00000270: 14e3 7436 72e2 21b5 2e9f cfb6 6409 5cb7
00000280: fa3e 3e36 2633 4336 871e 6735 4cba 4836
00000290: db66 6935 77c5 0934 17c8 b935 b6f4 41b4
000002a0: a27f 95b5 398b 37b5 3761 3a35 aefd 3d35
000002b0: d100 8bb5 509e 8c33 d602 a0b5 3c49 8c34
000002c0: 75d3 04b6 e53d 80b6 9df6 eeb5 81a8 04b5
000002d0: 72f2 1e35 7b85 4535 e4cf d3b5 70a8 b0b5
000002e0: 917d 06b6 4054 80b5 b239 a3b6 b0dc 4db6
000002f0: a7a3 5b34 3cda 1636 7704 2b36 0430 a435
00000300: 10ff 9d34 6802 9f35 6f86 0db6 0249 89b6
00000310: 11f7 3135 fb34 4536 9c25 a535 2ac2 5736
00000320: ca4c a833 25be 0436 d80a 3e36 bb59 0eb4
00000330: e066 2033 1b22 3d35 982c 4d35 8e00 3b36
00000340: 275f 2434 fedc 0636 142c 0b36 413b 26b6
00000350: b991 f935 6b2f 25b6 ea65 a336 c231 e734
00000360: 38d4 a135 6ee6 a936 452b 8e35 671b a833
00000370: b5da d834 d857 09b4 4574 10b6 580a b835
00000380: e409 8d35 85b3 ad35 d71e 7b33 e7c7 5833
00000390: 2632 45b5 db03 4cb6 b331 8c34 7090 70b6
000003a0: 096b 15b5 eee7 8eb4 0400 0000 0400 0000
000003b0: 0400 0000 0400 0000 0400 0000 0400 0080
000003c0: 6c0d 0080 0400 0080 0400 0080 3d35 2836
000003d0: 5353 2236 e2dc c935 78ff c435 d4d9 e334
000003e0: 696b a7b4 1f26 5cb6 2b80 bc36 075a b035
000003f0: 8b90 c535 bcc2 0037 beb4 c335 23a6 94b3
1.7128265e-06 2.2954841e-06 4.167538e-06 2.4931205e-06 3.5589323e-06 6.72237e-06 -1.414008e-07 2.9426817e-06
2.1550338e-06 6.0528546e-06 7.1959283e-07 5.5455203e-06 8.5796773e-07 3.353314e-06 5.5395735e-06 -8.751571e-08
3.7724637e-06 7.81681e-07 1.7351108e-06 2.450111e-06 1.5520462e-06 1.1655497e-06 3.759752e-06 3.0386927e-06
1.7914677e-07 1.1061727e-06 1.1854593e-06 2.2123224e-06 1.7336233e-06 1.5731142e-06 6.4858705e-06 1.1220438e-05
7.953761e-06 6.802637e-07 3.7620548e-06 3.4459226e-06 1.5668993e-06 3.4145296e-06 1.8001025e-06 5.60263e-06
1.032395e-05 7.571754e-06 6.894089e-07 4.1824665e-06 3.2766025e-06 4.143492e-06 3.5216435e-06 3.3493113e-06
6.398017e-06 1.0788735e-05 7.6115125e-06 1.0797467e-06 3.4550537e-06 3.387217e-06 3.7691996e-06 1.4818623e-06
7.863522e-07 8.0545794e-07 2.3006228e-06 1.7567967e-06 1.5255725e-07 1.488864e-06 3.020525e-07 4.1058915e-06
4.8716015e-07 2.3832483e-06 1.894608e-06 -1.5337441e-06 7.57229e-07 1.6435079e-06 4.4532177e-07 7.743315e-07
1.4423957e-06 3.1801399e-06 1.7286158e-06 1.2171733e-06 8.9444734e-07 3.6556844e-06 -3.8732372e-07 1.2281e-06
7.9156115e-07 2.1624835e-06 9.716667e-07 1.6641583e-06 3.519871e-06 4.0546506e-06 4.076527e-06 1.1037152e-06
2.0960347e-06 2.1877775e-06 -6e-45 6e-45 6e-45 6e-45 6e-45 6e-45
-1.583e-42 -6e-45 6e-45 2.7906078e-06 1.5773103e-06 3.883098e-06 7.999279e-08 1.3459509e-06
9.2404537e-07 8.435102e-07 2.8939655e-06 4.2059913e-08 1.4398341e-06 5.7749967e-06 3.3471667e-06 -3.0172905e-07
-1.7991819e-06 5.5990276e-06 -9.275638e-07 1.8222787e-06 1.1402892e-06 1.3906506e-06 1.7046975e-06 1.5328131e-06
3.9283127e-06 5.5127207e-06 5.6416147e-06 1.3845151e-07 1.6831402e-06 2.1728715e-06 1.0166551e-06 1.2086402e-06
1.2892777e-06 4.130721e-06 8.121002e-06 4.885069e-06 5.3552924e-07 2.7745498e-06 2.1988e-06 3.3654528e-06
3.1668e-06 2.5525314e-06 6.3866714e-06 9.64006e-06 7.442364e-06 7.42652e-07 3.1901864e-06 3.120162e-06
2.1633361e-06 5.093263e-06 1.3801035e-06 -4.500692e-07 -7.0617585e-07 -3.501456e-06 -6.136078e-06 2.2148402e-06
1.8229241e-06 4.7864396e-06 6.9423013e-06 -1.4928069e-06 3.649101e-06 -6.0306695e-07 -6.1876117e-06 -1.3115208e-05
2.8348863e-06 2.9087037e-06 8.609863e-07 2.9910761e-06 8.694894e-07 1.2830957e-07 1.3841808e-06 -1.8063551e-07
-1.1138511e-06 -6.837541e-07 6.9431866e-07 7.077714e-07 -1.0356545e-06 6.548055e-08 -1.1921754e-06 2.6130317e-07
-1.9792617e-06 -3.8219027e-06 -1.7804156e-06 -4.941904e-07 5.921239e-07 7.358246e-07 -1.5781229e-06 -1.3162044e-06
-2.0040645e-06 -9.561263e-07 -4.864495e-06 -3.0675837e-06 2.0455501e-07 2.247877e-06 2.5483585e-06 1.2232927e-06
2.942911e-07 1.1847123e-06 -2.1088888e-06 -4.0914174e-06 6.629717e-07 2.9386126e-06 1.2304404e-06 3.2150515e-06
7.8370775e-08 1.9780211e-06 2.8318518e-06 -1.3257424e-07 3.7346467e-08 7.0457617e-07 7.6433344e-07 2.7865494e-06
1.5308306e-07 2.009619e-06 2.073827e-06 -2.4770418e-06 1.8594357e-06 -2.4614517e-06 4.869643e-06 4.3063307e-07
1.2057199e-06 5.063418e-06 1.0592418e-06 7.828094e-08 4.0392266e-07 -1.2791077e-07 -2.152535e-06 1.3712079e-06
1.0508197e-06 1.2941751e-06 5.846854e-08 5.047323e-08 -7.3461194e-07 -3.0400613e-06 2.6113193e-07 -3.584686e-06
-5.566258e-07 -2.6618312e-07 6e-45 6e-45 6e-45 6e-45 6e-45 -6e-45
-4.815e-42 -6e-45 -6e-45 2.506494e-06 2.4188382e-06 1.5039952e-06 1.4677489e-06 4.2440536e-07
-3.1184325e-07 -3.2804744e-06 5.6177573e-06 1.3139223e-06 1.4719711e-06 7.674735e-06 1.4581235e-06 -6.922007e-08

exp_avg_sq f4 [8, 16, 3, 3]
00000000: 68ab dd31 e346 c832 5c96 9b32 071f 1632
00000010: ae92 df32 7c01 8d32 1aa6 1732 f77f d732
00000020: f993 3232 9232 a82f 0a97 3330 0c4b 1230
00000030: 9802 892f 6bc9 0830 eb07 c62f c29b 0f30
00000040: 57f9 b52f 9956 e02f c949 b630 7d44 ba31
00000050: 3cb4 8131 a9ac 1731 0c30 d031 7b4a 6f31
00000060: 1ac8 2231 5ea0 c731 8deb 1731 255e f430
00000070: 69e5 fd30 8cbf 0731 86eb 0531 3f85 ef30
00000080: 8121 ff30 81da 0831 d4d5 ec30 a57e ec30
00000090: c8b2 3a31 6044 b131 a636 ac31 a065 5431
000000a0: 9c66 bf31 7ff0 b531 7685 4b31 9e47 c631
000000b0: 07cd a531 ae4a 4532 d2f1 d132 b30b 8132
000000c0: d1c6 7c32 0141 df32 b7b3 6932 fea6 7932
000000d0: b230 dc32 7320 2332 99e1 f82f d35b 3331
000000e0: b469 aa30 2ad5 8330 0416 4631 22d9 a830
000000f0: bb7a 8130 8e98 5631 2ab9 5530 c4c8 562f
00000100: f806 a92f 3d1d 1c2e 9a37 342f 7ab3 ca2f
00000110: e839 062e 1d0f 1e2f edf7 6e2f e8c6 a92d
00000120: 7804 ba2f a1c0 0e31 b6f4 0831 27bc 1630
00000130: 2083 2a31 72eb e230 6651 2c30 9993 1d31
00000140: d296 7d30 566e d730 4cb8 1b31 859d 5e30
00000150: a390 c930 7a83 2831 c026 3530 4b7e b030
00000160: 0a19 0631 5a3e 1430 9200 2e20 497e e41d
00000170: 2100 ad20 01f9 991f 17eb 0d1f 3ca6 5c1b
00000180: 2611 6b1e 2ac3 a51d 648f c420 9d84 cf30
00000190: ad57 ce31 a54d 1031 b670 2031 66ad e531
000001a0: 9463 0b31 4be4 ff30 f3d9 f931 857f a930
000001b0: c51e 812e b777 b530 f422 2231 aac5 852f
000001c0: 35b0 2031 1e17 2731 835f ac2f 89bc 1831
000001d0: 6ff2 b330 b7b2 312f 1c1f 812f fd8a 0530
000001e0: bf28 2a2f 1b9f 812f fbd7 cf2f 0fab 2c2f
000001f0: b56c 7d2f 6af2 872f a99a fd2e 5555 2d2f
00000200: 10c3 342f 9907 cc2e 9205 fe2e b9bd 0a2f
00000210: c27e c92e de28 bb2e 9dc0 d42e 43bd 1632
00000220: 6790 ac32 42f8 5f32 ba9a 3e32 0725 b332
00000230: 41ad 5332 6f03 3b32 fec1 b032 499f 1c32
00000240: 5d1f a830 8dbc 9731 cca3 6831 c8fc e530
00000250: e837 ae31 774e 5331 f6ff 0031 8a5d a831
00000260: 3d55 0931 e6d3 0a2f 731e 852f e642 c82f
00000270: 1f02 122f 34be a72f adfc 8f2f 3d68 3c30
00000280: c89e 3930 e620 902f 8843 922f 9601 9230
00000290: f6db 4830 ee2e f22f 6706 a730 6f72 3a30
000002a0: 68f7 0c30 b2e5 a030 e896 f82f 0bf2 bd2f
000002b0: 1810 d62f e368 dc2f 71ad f72f 6534 e42f
000002c0: d86e d42f b363 fe2f 7ff4 d12f bbb4 bc2f
000002d0: 3643 0f30 7775 8b30 d99c 8630 86b0 3130
000002e0: 45c0 9f30 abfd 8d30 5fae 2d30 84d6 a230
000002f0: 718a 7b30 1f75 1231 e451 a031 a241 4131
00000300: be38 3f31 3fc5 ae31 8c10 3031 5a77 4431
00000310: 77e9 ab31 2740 f730 d7a9 e82e ac43 1130
00000320: 6231 932f 8100 662f b915 2630 d1b6 942f
00000330: 1ff0 8b2f e031 3a30 d980 5e2f 5b9e 542e
00000340: ea28 b22e 0d51 fa2d 35b1 452e d01f 0d2f
00000350: 22d5 7d2d bbcc b52e 2659 ee2e f2ad 012d
00000360: f707 a32e 8c5b ea2f 88b2 d82f d5fb 052f
00000370: 8b00 0f30 e930 b62f d0ad 4a2f bb10 0b30
00000380: fb4e 5d2f 3404 a32f dc73 0030 61ba 372f
00000390: 606f a62f aa25 1530 ca51 152f 1b36 9d2f
000003a0: 5e7b e52f 22a1 ea2e 2bdb 151f 1b75 d81c
000003b0: f5f3 571f f910 a41d fb50 771e 7369 f21b
000003c0: 730e 7d1f f785 b41d 4569 da1f 3ca1 af2f
000003d0: d665 a130 b255 ee2f c322 0330 3f09 bc30
000003e0: e65c f12f 603d 0230 295f d130 fd5f a62f
000003f0: ca84 902d 19a0 9c2f f786 0530 dc3a 752e
6.451433e-09 2.33153e-08 1.811275e-08 8.738204e-09 2.6027319e-08 1.6415235e-08 8.827124e-09 2.5087486e-08
1.0394609e-08 3.0594954e-10 6.533446e-10 5.322114e-10 2.4921998e-10 4.9762744e-10 3.6021616e-10 5.224444e-10
3.3100875e-10 4.0806894e-10 1.3263214e-09 5.4210987e-09 3.7748844e-09 2.2071538e-09 6.059059e-09 3.4821415e-09
2.3687847e-09 5.809894e-09 2.2107287e-09 1.7780094e-09 1.8473375e-09 1.9753967e-09 1.9487927e-09 1.742741e-09
1.8563214e-09 1.991481e-09 1.7232034e-09 1.7207255e-09 2.7168188e-09 5.1591513e-09 5.0120716e-09 3.0907827e-09
5.570497e-09 5.2951346e-09 2.9616252e-09 5.7707004e-09 4.825441e-09 1.1483889e-08 2.444077e-08 1.5022897e-08
1.4713536e-08 2.5990177e-08 1.3603247e-08 1.4531677e-08 2.5633515e-08 9.495227e-09 4.5271234e-10 2.6100124e-09
1.2399171e-09 9.592089e-10 2.8825307e-09 1.2285322e-09 9.420867e-10 3.1227816e-09 7.775208e-10 1.9534513e-10
3.0745873e-10 3.5496262e-11 1.6390658e-10 3.6871112e-10 3.0519504e-11 1.4375386e-10 2.1734055e-10 1.9301408e-11
3.3836378e-10 2.0773216e-09 1.9929707e-09 5.483706e-10 2.4812792e-09 1.6510582e-09 6.268891e-10 2.2930406e-09
9.225519e-10 1.5674668e-09 2.266023e-09 8.098698e-10 1.4665783e-09 2.4521953e-09 6.5902483e-10 1.284158e-09
1.95138e-09 5.3930693e-10 1.4738562e-19 6.0481673e-21 2.9307425e-19 6.520996e-20 3.0052373e-20 1.8251687e-22
1.2444343e-20 4.387693e-21 3.329858e-19 1.5098923e-09 6.0053567e-09 2.0998894e-09 2.3347133e-09 6.6844903e-09
2.0283766e-09 1.8618577e-09 7.2716317e-09 1.2332612e-09 5.8717066e-11 1.3203508e-09 2.3593971e-09 2.4333008e-10
2.3383226e-09 2.431484e-09 3.1354483e-10 2.222608e-09 1.3092868e-09 1.6161548e-10 2.3487068e-10 4.858263e-10
1.5475886e-10 2.3578015e-10 3.7806544e-10 1.5704081e-10 2.3048836e-10 2.4728602e-10 1.1532581e-10 1.5764574e-10
1.6440205e-10 9.2781956e-11 1.1551572e-10 1.261843e-10 9.1629385e-11 8.511035e-11 9.674859e-11 8.774182e-09
2.0089102e-08 1.3036756e-08 1.1094636e-08 2.085518e-08 1.232121e-08 1.0885613e-08 2.0577314e-08 9.116612e-09
1.2232523e-09 4.416114e-09 3.385355e-09 1.6733788e-09 5.0704223e-09 3.0749143e-09 1.8771948e-09 4.9000777e-09
1.9984576e-09 1.2626308e-10 2.4214195e-10 3.6427322e-10 1.3279376e-10 3.051227e-10 2.6191085e-10 6.8542133e-10
6.752825e-10 2.6216823e-10 2.660523e-10 1.0623349e-09 7.307216e-10 4.405289e-10 1.2152669e-09 6.7829026e-10
5.128329e-10 1.1706816e-09 4.5218163e-10 3.4550882e-10 3.8937809e-10 4.0092293e-10 4.5052276e-10 4.1510187e-10
3.8641335e-10 4.6273171e-10 3.8190603e-10 3.4325418e-10 5.211861e-10 1.0146967e-09 9.794362e-10 6.464308e-10
1.1623419e-09 1.0331197e-09 6.318483e-10 1.184802e-09 9.1510005e-10 2.1312372e-09 4.6659228e-09 2.8122504e-09
2.7826412e-09 5.086491e-09 2.5620777e-09 2.8589597e-09 5.003297e-09 1.7989848e-09 1.0580308e-10 5.284686e-10
2.6774233e-10 2.0918557e-10 6.042132e-10 2.7050942e-10 2.545457e-10 6.773728e-10 2.0236558e-10 4.8343867e-11
8.1017706e-11 2.8457703e-11 4.4950006e-11 1.2835177e-10 1.442871e-11 8.2672945e-11 1.0838823e-10 7.371425e-12
7.413797e-11 4.26294e-10 3.9417025e-10 1.2185748e-10 5.202387e-10 3.314036e-10 1.8433544e-10 5.059168e-10
2.0127892e-10 2.9652514e-10 4.6730775e-10 1.6709968e-10 3.027436e-10 5.425941e-10 1.3580528e-10 2.8596578e-10
4.1742515e-10 1.0669711e-10 3.173327e-20 1.4323952e-21 4.5729817e-20 4.3427988e-21 1.30928175e-20 4.0103687e-22
5.3586786e-20 4.778412e-21 9.2500745e-20 3.1946878e-10 1.1743235e-09 4.3352838e-10 4.770692e-10 1.3681428e-09
4.3903653e-10 4.7380944e-10 1.5233798e-09 3.0263428e-10 1.6429875e-11 2.848999e-10 4.8576915e-10 5.5758828e-11

exp_avg f4 [8]
00000000: 76a7 8937 6813 ffb5 06c3 9237 4f2c 89b7
00000010: 2067 bcb5 2fe8 5d37 17be 0c38 32a2 0d37
1.6409653e-05 -1.9004628e-06 1.7495371e-05 -1.6352305e-05 -1.4037105e-06 1.3226686e-05 3.3555636e-05 8.442019e-06

exp_avg_sq f4 [8]
00000000: a868 d132 3037 a431 cff1 fb31 be85 0032
00000010: 58b9 0033 3e11 9332 f04e 1432 02fb 0b33
2.4378394e-08 4.7793023e-09 7.332552e-09 7.48099e-09 2.997089e-08 1.7120893e-08 8.632682e-09 3.259175e-08
