models/20221206-cnn-2/model.ckpt (torch, 29691 bytes, 13 tensors)

encoder.0.weight f4 [16, 1, 3, 3]
0	0x3e8d4302	0.27590185
1	0x3ee2ecb9	0.4432123
2	0x3d9a3ee3	0.07531526
3	0x3ecd8bd5	0.40145746
4	0x3e3dfe6f	0.1855409
5	0xbf096e7f	-0.5368423
6	0x3f1c02b9	0.60941654
7	0x3e26bb3e	0.16282365
8	0xbf22a5b4	-0.6353409
9	0xbfa56ae2	-1.2923243
10	0xbe1fde3a	-0.15612116
11	0xbe926c2f	-0.28598163
12	0x3c08eb8a	0.008356938
13	0x3e95b20d	0.29237404
14	0xbd974ad6	-0.07387321
15	0xbe11b0d8	-0.14227617
16	0x3d0d100e	0.03443914
17	0xbf27fc6e	-0.6561955
18	0xbea5764d	-0.3231682
19	0x3ea6d17d	0.32581702
20	0xbd6b653f	-0.057469603
21	0xbe8a9ce4	-0.27072823
22	0xbd917232	-0.07101859
23	0xbe4e7f12	-0.20165661
24	0x3e77fde1	0.24217941
25	0x3eeca0be	0.46216387
26	0x3ebf2328	0.3733151
27	0x3f1bf31f	0.6091785
28	0x3f55e6b3	0.83555144
29	0x3f7186bc	0.94346213
30	0xbc5a84a6	-0.01333729
31	0xbe9ee5fb	-0.31034836
32	0x3d1d1067	0.03834572
33	0xbdc42d14	-0.095789105
34	0xbee93064	-0.45544732
35	0xbf03765b	-0.5135247
36	0xbf51fb89	-0.8202444
37	0xbe914a3e	-0.28376955
38	0x3ef6c139	0.48194292
39	0xbe069160	-0.13141394
40	0x3e91adfc	0.28453052
41	0x3ed1afa5	0.4095432
42	0x3ec79a77	0.38985035
43	0x3f177269	0.5915895
44	0x3f49ee2a	0.78879035
45	0xbd97e161	-0.074160345
46	0xbd982635	-0.074291624
47	0x3f13064d	0.5743149
48	0xbe74b743	-0.23898034
49	0x3dd3893a	0.10328908
50	0x3e839eef	0.25707194
51	0xbec55310	-0.38539934
52	0xbee8a796	-0.45440358
53	0x3f203735	0.6258424
54	0xbf86d9f1	-1.053526
55	0xbf9e82a5	-1.238362
56	0xbf098157	-0.5371298
57	0xbf369ce4	-0.71333146
58	0xbe426366	-0.1898323
59	0x3e79a44e	0.24379084
60	0xbf278bd0	-0.6544771
61	0x3e73524e	0.23761865
62	0x3f7d835b	0.9902856
63	0x3d2e17f5	0.042503316
64	0xbe083aff	-0.13303755
65	0x3d4fc3e3	0.05072392
66	0x3e07626c	0.13221139
67	0xbda4c735	-0.08045808
68	0x3d885736	0.06657259
69	0x3ef6d205	0.48207107
70	0xbe8feb8b	-0.28109393
71	0xbe8085e3	-0.25102147
72	0x3db291ad	0.08719192
73	0x3eeb6031	0.45971826
74	0x3f435f62	0.7631742
75	0x3e1aba30	0.15110087
76	0x3eba0043	0.36328325
77	0x3e28672c	0.16445607
78	0x3f35a823	0.7095968
79	0x3e911406	0.2833559
80	0xbe54c738	-0.20779121
81	0xbee252e2	-0.4420386
82	0xbe94281b	-0.28936848
83	0xbe2dda60	-0.16977835
84	0xbe95d995	-0.29267564
85	0xbe58e699	-0.21181716
86	0xbe8d1957	-0.27558395
87	0x3f2e67e3	0.6812727
88	0x3f148627	0.580172
89	0x3ee677d1	0.45013288
90	0x3c00a2d2	0.007851319
91	0x3db5aab0	0.08870447
92	0x3f11cc74	0.56952596
93	0x3e180c0d	0.14848347
94	0x3e264d8a	0.16240516
95	0x3e520f69	0.20513691
96	0x3eaaa9a4	0.3333255
97	0x3ed3b58e	0.41349453
98	0xbd0adc50	-0.033901513
99	0x3f40e69b	0.75351876
100	0xbe006739	-0.12539376
101	0x3e7df1af	0.24799226
102	0xbd33e569	-0.043919954
103	0xbe174d94	-0.14775687
104	0x3e01baee	0.12668964
105	0x3ed30fbd	0.41222945
106	0xbe98176a	-0.29705364
107	0x3ece39fa	0.40278608
108	0xbf3f685b	-0.7476861
109	0x3df7b400	0.12094879
110	0xbe96c498	-0.29446864
111	0xbed231bf	-0.41053578
112	0xbe6c85e0	-0.23097944
113	0xbf096f27	-0.5368523
114	0xbedcf200	-0.4315338
115	0xbe8a827c	-0.27052677
116	0x3f0963af	0.5366773
117	0x3dfe7940	0.1242547
118	0x3e96e1dc	0.29469192
119	0xbcce2430	-0.02516374
120	0x3ec521b1	0.38502267
121	0x3c0901d7	0.008362255
122	0x3f095376	0.53642976
123	0x3ea77b6d	0.32711354
124	0x3f1842cf	0.5947694
125	0x3f6b01e3	0.91799754
126	0x3e6db82a	0.23214784
127	0xbe971a2b	-0.29512152
128	0xbf45249c	-0.77008986
129	0x3edddb99	0.43331602
130	0xbe440be5	-0.19145162
131	0xbe5c84c3	-0.2153502
132	0x3f5cf917	0.8631758
133	0x3f0fac20	0.56122017
134	0x3c00252e	0.007821364
135	0x3f2621d9	0.648954
136	0x3d38582e	0.04500597
137	0xbefec559	-0.4975994
138	0x3df1fc9a	0.11815758
139	0xbd57e0e1	-0.052704696
140	0xbe77cb17	-0.24198566
141	0x3e679fdc	0.22619575
142	0xbf20fe9f	-0.6288852
143	0xbe1b0c97	-0.15141521

encoder.0.bias f4 [16]
0	0x3dfd2d62	0.12362172
1	0x3f8fba8c	1.1228805
2	0x3f27ef40	0.6559944
3	0x3a8531ff	0.0010161995
4	0x3a18ed14	0.0005833667
5	0x3de02915	0.10945336
6	0x3e63c1cc	0.22241896
7	0x3f4a20f2	0.7895652
8	0x394887e2	0.00019124107
9	0x3e0b5980	0.1360836
10	0x3e6178f6	0.22018799
11	0x3f5520a0	0.83252907
12	0x3edabc17	0.42721626
13	0x3865dcd6	5.4803524e-05
14	0x3ee70d0f	0.4512715
15	0xb9cc84df	-0.0003900891

encoder.3.weight f4 [8, 16, 3, 3]
0	0xbd6e2d77	-0.058148827
1	0x3e53362b	0.20626132
2	0xbd208dce	-0.039197735
3	0x3e4d5edf	0.20055722
4	0xbe01f85f	-0.12692402
5	0x3e678098	0.22607648
6	0x3dccadde	0.099941
7	0x3e5aecc5	0.21379383
8	0x3e2590cf	0.16168521
9	0x3eaf903e	0.34289736
10	0x3cc3b454	0.023889698
11	0x3da513a3	0.08060386
12	0xbefc66f0	-0.49297285
13	0x3f14eab8	0.5817065
14	0xbea587ff	-0.3233032
15	0xbf16b698	-0.58872366
16	0xbe933aa3	-0.28755674
17	0x3e098b3d	0.13432021
18	0x3df06687	0.117383055
19	0x3e2e0bda	0.16996709
20	0x3e04c6d2	0.12966469
21	0x3e67718d	0.2260191
22	0xbea3d8df	-0.32001397
23	0x3e3a0a36	0.18167958
24	0x3ec5f74a	0.3866523
25	0x3ef20873	0.4727207
26	0xbe9b51e7	-0.30335924
27	0xbed839cb	-0.42231593
28	0x3e533e20	0.20629168
29	0x3ece0419	0.402375
30	0x3e0cd183	0.13751797
31	0xbd280e03	-0.041028988
32	0x3e0325a2	0.12807325
33	0xbd769db9	-0.06020901
34	0x3e9bba6b	0.30415663
35	0x3e77defa	0.24206153
36	0xbd8c1263	-0.068394445
37	0x3e645030	0.22296214
38	0x3b34c2b8	0.0027581882
39	0x3de4ac71	0.11165703
40	0xbe52c0b9	-0.2058133
41	0x3ea65666	0.32487792
42	0x3dfa21ca	0.12213476
43	0x3e85d211	0.2613683
44	0x3dc4cc3b	0.09609266
45	0xbe171455	-0.1475385
46	0xbd180957	-0.037118282
47	0x3ec82548	0.39090943
48	0x3e54aca7	0.20768987
49	0xbebf4971	-0.3736072
50	0x3f0a5531	0.5403624
51	0x3da71e37	0.0816006
52	0xbdad63d9	-0.0846631
53	0xbe8c9cac	-0.2746328
54	0x3d8784e3	0.06617143
55	0x3eae0fef	0.3399653
56	0xbdb97351	-0.09055198
57	0xbc9c9b9f	-0.019117175
58	0xbcb57f7d	-0.022155518
59	0x3ea2ba79	0.31782892
60	0xbebcb1e3	-0.36854467
61	0x3e8c0c8a	0.27353317
62	0xbe1918b1	-0.14950825
63	0x3e02422e	0.12720558
64	0x3e458cfb	0.19292061
65	0x3e242f19	0.16033591
66	0x3e92c10e	0.28662914
67	0xbe0b2b25	-0.13590677
68	0x3d95519b	0.07290956
69	0x3e9d5936	0.30732125
70	0x3e53c599	0.20680846
71	0xbe55f8ab	-0.2089564
72	0xbe5e668b	-0.21718805
73	0x3e240c3f	0.16020297
74	0x3df6cd8b	0.12050923
75	0x3ea0f879	0.3143957
76	0xbc54f90f	-0.012998833
77	0x3ec3e146	0.38257807
78	0xbce84d15	-0.028357068
79	0x3e6d9357	0.23200737
80	0x3d27e1d9	0.04098687
81	0x3de9d318	0.11417216
82	0x3ea18279	0.31544855
83	0x3d991f84	0.07476714
84	0x3d4c4aba	0.049875952
85	0xbe254893	-0.16140966
86	0x3e28b17d	0.16473956
87	0x3e65fae8	0.22458994
88	0x3e8a99e5	0.27070537
89	0x3c5622ac	0.01306979
90	0xbdc491e5	-0.0959814
91	0x3e86e2ec	0.26345003
92	0x3d5927be	0.053016417
93	0x3e26d554	0.16292316
94	0xbd64efe9	-0.05589286
95	0x3e19d2b7	0.15021788
96	0x3e122a43	0.14273934
97	0x3eba9ef3	0.36449394
98	0xbc1f7b42	-0.009733977
99	0x3e38141c	0.17976421
100	0x3eb9791e	0.36225218
101	0x3e4020d6	0.18762526
102	0x3dd80734	0.10548249
103	0xbe795905	-0.24350365
104	0x3eb44d01	0.35215
105	0x3e4170f5	0.18890746
106	0x3e94c4e9	0.2905648
107	0x3c4d4a45	0.012529914
108	0x3e91b8cc	0.284613
109	0x3d960782	0.07325651
110	0xbe136761	-0.14394905
111	0xbe763423	-0.24043326
112	0xbd03de44	-0.03219439
113	0x3e5ec9ff	0.21756743
114	0xbd8fc210	-0.07019436
115	0x3e3d5a35	0.18491443
116	0xbd7873f8	-0.06065747
117	0xbe4d0ce7	-0.20024453
118	0x3d5346e1	0.051581267
119	0x3e2b5fbd	0.1673574
120	0x3e75be74	0.23998433
121	0xbea3ce6c	-0.31993425
122	0x3f03c73b	0.51475877
123	0x3e38a723	0.18032508
124	0x3e9acb2a	0.30233127
125	0x3d1ec67a	0.0387635
126	0x3d829ce4	0.06377581
127	0x3e03fe17	0.12889896
128	0x3e855eab	0.26048788
129	0xbc0dbe3c	-0.008651312
130	0xbb70ef18	-0.0036763605
131	0x3ca5dade	0.020245966
132	0x3ebe8047	0.37207243
133	0x3cafef72	0.021476481
134	0xbddab61a	-0.10679264
135	0xbef06804	-0.46954358
136	0x3e77fbb2	0.24217108
137	0xbe50e4e1	-0.2039981
138	0x3ec21329	0.37905243
139	0x3ebda5ab	0.37040457
140	0x3e1a3452	0.15059021
141	0xbda7e311	-0.08197606
142	0xbdae4834	-0.085098654
143	0x3eb4fc0a	0.3534854
144	0xbeec51b3	-0.46156082
145	0x3e0d74f6	0.13814148
146	0xbf25a6a6	-0.6470741
147	0x3e28d983	0.16489224
148	0x3c93b6af	0.018031446
149	0xbf33b4e5	-0.701979
150	0xbede6677	-0.4343755
151	0x3e5d7d9b	0.21629946
152	0xbdc68b76	-0.09694569
153	0x3f1d32e4	0.6140578
154	0xbe03314f	-0.12811778
155	0x3f58712e	0.845477
156	0xbe9c0dbf	-0.30479237
157	0xbe1b7bda	-0.15183964
158	0x3e11e6cf	0.14248203
159	0xbe8511bf	-0.25990102
160	0xbef62db0	-0.48081732
161	0x3f156782	0.58361065
162	0xbc837f3a	-0.016051877
163	0x3e17da78	0.14829433
164	0x3e600230	0.21875834
165	0x3c074f69	0.008258679
166	0xbeb9a087	-0.36255285
167	0xbdd3f538	-0.10349506
168	0xbdca32ff	-0.09873008
169	0x3cf5d125	0.030006954
170	0x3e21dc41	0.15806676
171	0x3f05a7e7	0.52209324
172	0xbd19861b	-0.03748141
173	0xbf591ffa	-0.8481442
174	0x3d9e0ea4	0.07717636
175	0x3c819284	0.015816934
176	0xbeb3aae1	-0.35091308
177	0xbf952bd3	-1.1653999
178	0x3e0379ca	0.12839428
179	0xbf19349e	-0.5984591
180	0xbe483d6c	-0.1955468
181	0x3edb59d8	0.42841983
182	0xbf1a42fb	-0.60258454
183	0x3f0b6804	0.5445559
184	0xbf2c3b19	-0.67277676
185	0xbf6a08fc	-0.9141996
186	0x3d9b173d	0.07572792
187	0xbda7420d	-0.08166895
188	0xbecc15f9	-0.39860514
189	0xbf035f1e	-0.5131701
190	0x3e88e15d	0.2673444
191	0xbf2fd3ac	-0.6868236
192	0xbe62e39b	-0.22157137
193	0xbeb93c07	-0.3617861
194	0xbf1b1e50	-0.6059313
195	0xbf2ac27c	-0.6670301
196	0x3f019004	0.50610375
197	0x3ebb17ab	0.36541495
198	0x3d99c3b4	0.075080305
199	0xbcb1710c	-0.02166035
200	0xbecd0b09	-0.40047482
201	0x3eac188f	0.33612487
202	0xbec87776	-0.3915364
203	0xbf1dfdd4	-0.61715436
204	0xbed9f2d8	-0.42568088
205	0x3e0d7ed5	0.13817914
206	0x3f23960e	0.6390084
207	0xbcdbe29d	-0.026841456
208	0x3ee170ef	0.44031474
209	0x3e245c2f	0.1605079
210	0xbd898f09	-0.06716735
211	0xbe327cd4	-0.1743043
212	0xbdf716af	-0.120648734
213	0xbe973417	-0.2953193
214	0x3e5c1ee9	0.21496166
215	0x3eb10b69	0.34579018
216	0xbe848558	-0.25882983
217	0x3e786ce0	0.24260283
218	0xbf8d29b9	-1.1028358
219	0x3e8415ea	0.2579797
220	0xbd536bf0	-0.05161661
221	0xbfbad364	-1.4595761
222	0xbf1fc100	-0.6240387
223	0x3e2eb7bf	0.17062281
224	0xbf5365cd	-0.8257721
225	0x3d475843	0.048668157
226	0xbdc1e5d6	-0.09467666
227	0xbeab9333	-0.33510742
228	0x3e8bea07	0.27326986
229	0xbf9e0040	-1.2343826
230	0xbf4b439c	-0.7940004
231	0xbd5cd814	-0.053917006
232	0xbeb820fb	-0.35962662
233	0xbdf8a67c	-0.121411294
234	0x3d66c596	0.056340776
235	0x3e775c59	0.24156322
236	0xbe8d196e	-0.27558464
237	0x3e354043	0.17700295
238	0xbdc49bfc	-0.09600064
239	0xbea59b11	-0.3234487
240	0xbe8a6bf0	-0.27035475
241	0x3e1f1c86	0.15538225
242	0xbe75a6b0	-0.23989367
243	0x3e8f802c	0.28027475
244	0x3e9dce10	0.30821276
245	0x3d9ee8c6	0.07759242
246	0xbe2a3516	-0.16621813
247	0x3d987a34	0.074451834
248	0xbe28548b	-0.164385
249	0xbee54d0a	-0.4478534
250	0x3ef5ba07	0.4799349
251	0x3e5b87c1	0.21438505
252	0x3ebcd013	0.36877498
253	0x3c4e61c4	0.012596551
254	0x3ee70658	0.45122027
255	0xbd7978a9	-0.060906086

encoder.3.bias f4 [8]
0	0xbe4f51be	-0.20246026
1	0xbd60940a	-0.05482868
2	0xbdd84fe5	-0.10562114
3	0xbe3ca782	-0.18423274
4	0xbf0ee304	-0.5581515
5	0xbd3dc332	-0.04632873
6	0xbcaa7ee5	-0.020812461
7	0x3cf0d9f4	0.029400803

encoder.7.weight f4 [2, 32]
0	0xbe597a5b	-0.21238081
1	0xbe31b379	-0.1735362
2	0xbd96abae	-0.07356964
3	0xbe00a34c	-0.12562293
4	0x3f505c47	0.81390804
5	0x3ef7fbb6	0.48434228
6	0xbd809b11	-0.062795766
7	0x3e2de5ff	0.16982268
8	0x3cfc04bb	0.030763974
9	0x3e0fd3d1	0.14045645
10	0x3ecc3f2d	0.3989195
11	0x3f054e47	0.52072567
12	0xbe9c2921	-0.3050013
13	0xbd4d451e	-0.050114743
14	0xbf17817c	-0.5918195
15	0xbf16d8d6	-0.58924615
16	0xbd88406c	-0.066529125
17	0xbe6687f4	-0.225128
18	0xbdcc3588	-0.09971148
19	0xbcd43bcc	-0.02590742
20	0xbe8f40f2	-0.27979237
21	0xbe2690c5	-0.16266163
22	0xbe931c49	-0.28732517
23	0xbf01df61	-0.50731474
24	0xbcb4c8b2	-0.022068355
25	0x3e0d90e6	0.13824806
26	0xbe50a169	-0.20374073
27	0xbe4de45d	-0.20106645
28	0xc000f755	-2.015096
29	0xbf006234	-0.50149846
30	0x3ef493ef	0.47769114
31	0xbeb5a4c7	-0.35477278
32	0xbede3425	-0.43399158
33	0xbe29eee0	-0.1659503
34	0xbf03f37c	-0.515434
35	0x3b88941f	0.004168048
36	0x3ebcd74a	0.36883003
37	0x3eeb5c4f	0.45968863
38	0x3f99dd1a	1.20206
39	0x3ecb58bd	0.3971614
40	0x3e083431	0.1330116
41	0xbd8329b3	-0.06404438
42	0x3e48ad82	0.19597438
43	0x3e21c317	0.15797077
44	0xbbdaa853	-0.006672898
45	0x3f1760e5	0.59132224
46	0x3ebb3980	0.36567307
47	0x3e693423	0.22773795
48	0x3e9d8de4	0.30772316
49	0xbd1ddc33	-0.038540076
50	0x3f94d582	1.1627657
51	0x3f86331f	1.0484351
52	0x3e594ab9	0.2121991
53	0x3dec3794	0.11534038
54	0x3d5091b7	0.050920215
55	0xbe269682	-0.16268352
56	0x3e196e3e	0.1498346
57	0x3e801b66	0.25020903
58	0x3e9b7d0b	0.30368838
59	0x3e4fde7a	0.20299712
60	0x3f3a6851	0.72815424
61	0x3eda807d	0.42676154
62	0xbd8d48f7	-0.068986826
63	0x3dbeb0cd	0.09311066

encoder.7.bias f4 [2]
0	0xbe3b4040	-0.18286228
1	0xbdc8c379	-0.098029085

decoder.0.weight f4 [32, 2]
0	0x3ee064df	0.4382696
1	0x3f39353d	0.7234686
2	0xbf21cf9c	-0.6320741
3	0xbf086ebd	-0.53293973
4	0x3e3d52c5	0.18488605
5	0xbcf06513	-0.029345071
6	0xbe90d171	-0.2828479
7	0x3f276752	0.6539203
8	0x3f337a96	0.70108926
9	0xbe533501	-0.20625688
10	0xbec022d2	-0.37526566
11	0xbf25eea8	-0.64817286
12	0xbe96b5bc	-0.29435527
13	0x3f6006b1	0.8751021
14	0x3f20fe7a	0.628883
15	0xbf5e28db	-0.8678109
16	0x3dfef1cd	0.124484636
17	0xbe5b068c	-0.21389216
18	0x3f16e2c0	0.58939743
19	0xbf5aaa31	-0.8541594
20	0xbf35d70a	-0.7103125
21	0x3e390f16	0.18072161
22	0xbf098914	-0.5372479
23	0x3dcd3eba	0.1002173
24	0xbed26733	-0.4109436
25	0x3f1bdf8a	0.6088797
26	0x3efd4b00	0.49471283
27	0xbefdf1c3	-0.49598512
28	0x3f28aa15	0.65884525
29	0x3e389e1f	0.18029068
30	0x3f53e80e	0.8277596
31	0x3f171b43	0.59025973
32	0xbeff5407	-0.49868795
33	0x3dc437f0	0.09580982
34	0xbe4cafdf	-0.19988964
35	0xbec21494	-0.37906325
36	0x3e89fecb	0.26952204
37	0x3f0f5730	0.5599241
38	0xbdb203be	-0.0869212
39	0xbf2fdb0f	-0.6869363
40	0x3f1d8037	0.61523765
41	0x3e9090c1	0.28235438
42	0x3f1407dd	0.578245
43	0xbe422af1	-0.18961693
44	0x3f54f7a0	0.83190346
45	0xbf5227f1	-0.82092196
46	0xbf3810bc	-0.71900535
47	0x3f13540e	0.5755013
48	0x3f334338	0.7002444
49	0xbea71f2f	-0.3264098
50	0xbec35daa	-0.38157398
51	0x3de27045	0.1105657
52	0x3f021c05	0.50824004
53	0x3f0038d4	0.5008671
54	0xbe73ca8e	-0.23807737
55	0xbdbf64ba	-0.09345384
56	0x3e8cbcde	0.27487844
57	0xbf145238	-0.57937956
58	0x3efba1a5	0.49146762
59	0xbf0a9c25	-0.5414451
60	0xbcffa684	-0.03120733
61	0xbdae842b	-0.08521303
62	0x3f1abb52	0.6044208
63	0x3e86d9bb	0.2633799

decoder.0.bias f4 [32]
0	0x3e5a2646	0.21303663
1	0xbff879d8	-1.9412184
2	0x4027875c	2.6176367
3	0x3f3a27c9	0.7271696
4	0x3f8d83f1	1.105589
5	0x3fa19323	1.2623028
6	0x3fd9b14e	1.7007234
7	0x3e77449d	0.24147268
8	0xbe5aba85	-0.21360214
9	0xbfc476df	-1.5348777
10	0xbf8b8368	-1.0899477
11	0xbfaba5da	-1.3409989
12	0xbfd05b92	-1.6277945
13	0xbe87030f	-0.2636952
14	0xbecf936c	-0.4054216
15	0xc0118502	-2.2737432
16	0x3f43a493	0.76422995
17	0xc010cd5f	-2.2625349
18	0x3f359514	0.709306
19	0x3f4d05d9	0.8008705
20	0xbf395e1f	-0.7240924
21	0x3f0af4b9	0.5427967
22	0xbf42b6a2	-0.76059926
23	0xc002b370	-2.042202
24	0xbfa90f69	-1.3207828
25	0x3fa1b524	1.2633405
26	0xbfd327e9	-1.6496555
27	0xc0159eb3	-2.3378112
28	0xbf1f71af	-0.6228284
29	0x3d1d0c98	0.03834209
30	0xbfbd6038	-1.4794989
31	0xbf96160f	-1.1725482

decoder.2.weight f4 [8, 16, 3, 3]
0	0xbe44fbfb	-0.19236748
1	0x3eaf759a	0.3426941
2	0xbe0d9360	-0.1382575
3	0xbe125f4d	-0.14294167
4	0xbd2cae58	-0.042158455
5	0xbe29da6d	-0.16587229
6	0x3e875185	0.26429382
7	0x3d6fe273	0.05856557
8	0x3c942d37	0.018087966
9	0x3daed210	0.0853616
10	0xbe378bce	-0.17924425
11	0x3e696122	0.2279096
12	0x3ea27a35	0.31733862
13	0xbe9f6f76	-0.31139725
14	0x3ec0e60d	0.37675515
15	0x3c0b1786	0.008489495
16	0x3e04a4ee	0.1295354
17	0x3e512cae	0.204272
18	0x3d17afd9	0.037032936
19	0xbd84c9e5	-0.06483821
20	0x3dade46e	0.08490835
21	0x3e8c6316	0.27419347
22	0x3d4b100b	0.049575847
23	0x3e1c160d	0.15242787
24	0x3e33be28	0.17553008
25	0xbd67a624	-0.05655493
26	0xbe39ce4d	-0.18145104
27	0xbe420019	-0.1894535
28	0x3ddb4ba3	0.10707786
29	0x3d821b04	0.06352809
30	0x3eb6bdf2	0.35691792
31	0x3d91b8ad	0.07115302
32	0x3d6c8991	0.05774838
33	0x3df84e5d	0.121243216
34	0x3e592acd	0.21207733
35	0xbb9dfc3f	-0.00482133
36	0x3dc1eef1	0.094694026
37	0xbd026f1e	-0.03184425
38	0xbf416709	-0.75547844
39	0x3cb592e5	0.022164771
40	0x3e95be10	0.2924657
41	0x3dd77fae	0.105224
42	0xbe50035d	-0.20313783
43	0x3d29a4b7	0.04141685
44	0x3e87136d	0.26382008
45	0xbf199589	-0.599938
46	0xbe4b203f	-0.1983652
47	0x3d83469a	0.064099506
48	0xbddb328b	-0.10703
49	0xbb9da48c	-0.0048108753
50	0x3e60821b	0.21924631
51	0x3e390535	0.18068393
52	0x3e8028e7	0.25031206
53	0x3ed5fb56	0.41793317
54	0xbdd1a0a8	-0.10235721
55	0x3e47946f	0.19490217
56	0x3e7a260d	0.24428578
57	0x3e2181e1	0.15772201
58	0xbf091f3f	-0.535633
59	0xbea118d0	-0.31464243
60	0x3e51fdad	0.20506926
61	0xbef93777	-0.4867513
62	0xbd821e18	-0.06353396
63	0xbec42657	-0.383105
64	0x3e1971b8	0.14984787
65	0x3e50bee7	0.20385323
66	0xbf1bbf45	-0.6083873
67	0x3e05d8c9	0.13070978
68	0x3df34f1d	0.11880324
69	0x3df10027	0.11767607
70	0x3e2f1a9b	0.17099993
71	0x3d91c980	0.07118511
72	0xbc81a619	-0.015826272
73	0x3e161870	0.1465776
74	0x3d416479	0.04721496
75	0x3ecb6487	0.39725134
76	0x3edb450c	0.42826116
77	0xbcbe78b5	-0.023250917
78	0x3e2bc7fb	0.16775505
79	0x3e1ca7cd	0.15298386
80	0x3e49f4d2	0.19722298
81	0x3e079fb8	0.13244522
82	0x3e6d7062	0.23187402
83	0x3e98bfb0	0.29833746
84	0xbe263eda	-0.16234913
85	0x3e1cf7cb	0.153289
86	0x3e7be492	0.24598911
87	0xbe3c2bb3	-0.18376045
88	0xbe17265f	-0.14760731
89	0xbe09491b	-0.13406794
90	0x3e674afb	0.22587197
91	0x3dab6a35	0.08369867
92	0x3e6d921e	0.2320027
93	0xbdac5374	-0.08414355
94	0xbe1c4cef	-0.15263723
95	0x3db141f4	0.08655158
96	0xbdbbb138	-0.09164661
97	0x3dec0e16	0.11526124
98	0xbeb54ca7	-0.35410044
99	0xbf0739d2	-0.528226
100	0x3e2a44d9	0.16627826
101	0xbcd9b2fe	-0.026574608
102	0xbd84907b	-0.0647287
103	0x3e345934	0.17612153
104	0x3ea7db4a	0.32784492
105	0x3d9e7f32	0.07739104
106	0xbe73425e	-0.23755786
107	0x3e2e8043	0.17041115
108	0xbe22aad8	-0.15885484
109	0x3e900633	0.2812973
110	0x3e72cc16	0.23710665
111	0x3c5988ab	0.013277213
112	0xbf0a47e3	-0.5401594
113	0x3ec7780e	0.38958782
114	0x3df34d16	0.11879937
115	0x3db66fb2	0.08908023
116	0x3e84e84b	0.25958475
117	0xbf2f5825	-0.6849387
118	0xbe2c6984	-0.16837126
119	0x3cfd4f60	0.030921638
120	0x3e04b634	0.1296013
121	0x3e9ef051	0.31042722
122	0x3e27ab8e	0.16374037
123	0x3d3d4a62	0.046213515
124	0x3df363c8	0.11884266
125	0x3c96a497	0.01838903
126	0x3e3239cb	0.17404859
127	0xbedae6f7	-0.42754337
128	0xbf0218dd	-0.5081919
129	0xbccfa09f	-0.025345145
130	0xbc5bf58a	-0.01342524
131	0xbd6726eb	-0.0564336
132	0x3eb5e888	0.3552897
133	0x3e2b2110	0.16711831
134	0xbe51762d	-0.20455237
135	0x3e51ac0f	0.20475791
136	0xbe2780b1	-0.16357686
137	0x3c03e1e5	0.008049463
138	0x3d9a142d	0.075233795
139	0xbcb2b170	-0.021813124
140	0x3ed08d91	0.40733007
141	0x3e0e615a	0.13904324
142	0xbd2c6399	-0.04208717
143	0xbe33f6bf	-0.17574595
144	0x3e43cf23	0.19121985
145	0xbd9781ca	-0.07397802
146	0xbe239ed6	-0.1597856
147	0x3e49ee06	0.19719705
148	0xbe5c2665	-0.21499021
149	0x3eaa6a6c	0.33284318
150	0xbb976a30	-0.004620813
151	0xbe225462	-0.15852502
152	0x3e24ca01	0.16092683
153	0xbce9baae	-0.028531399
154	0x3e0856e2	0.13314393
155	0x3c626500	0.013818026
156	0x3e32709d	0.17425771
157	0xbe920530	-0.28519583
158	0xbd22594a	-0.039635934
159	0x3dbaa0df	0.09112715
160	0x3ec09249	0.37611607
161	0xbdab9a14	-0.083789974
162	0x3d82dc76	0.06389706
163	0xbd396ed4	-0.04527171
164	0x3d947776	0.07249348
165	0x3d734de9	0.059400473
166	0x3e06a7cd	0.13149948
167	0xbe142240	-0.1446619
168	0x3e049159	0.1294607
169	0xbde183b7	-0.11011451
170	0xbc01db22	-0.0079257805
171	0x3ddb721b	0.10715123
172	0x3e5f1df9	0.21788777
173	0xbd7ea309	-0.0621672
174	0x3c3e8a0c	0.011629593
175	0x3d4a05ed	0.049322058
176	0xbcb4aed4	-0.02205602
177	0x3eaf4139	0.34229448
178	0xbe082a84	-0.13297468
179	0xbe8029f0	-0.25031996
180	0x3ebaadb8	0.36460662
181	0x3d2271f3	0.03965945
182	0x3da4609a	0.08026238
183	0xbe106ef5	-0.14104827
184	0xbe91479a	-0.2837494
185	0xbd90fb74	-0.07079211
186	0x3d741ce3	0.05959786
187	0xbe80e22c	-0.25172555
188	0xbd95f766	-0.07322578
189	0xbd16b37f	-0.036792275
190	0x3e6da0e3	0.23205905
191	0xbd6201dd	-0.05517756
192	0x3ee21963	0.44159994
193	0x3e261c46	0.16221723
194	0x3e4d2b91	0.2003615
195	0xbd7c1b62	-0.06154955
196	0x3e9e78bd	0.3095149
197	0xbe0f2b25	-0.13981302
198	0xbdba5ae6	-0.09099369
199	0x3dddcf65	0.10830573
200	0xbccacf41	-0.02475703
201	0x3e344bad	0.17606993
202	0x3e03f25d	0.12885423
203	0x3e3f09ec	0.18656129
204	0x3e36f91c	0.17868465
205	0x3e4c60db	0.19958822
206	0x3e193e86	0.14965257
207	0x3eba7a4c	0.3642143
208	0xbdfe18a2	-0.12407042
209	0x3e127af1	0.14304711
210	0x3d2d4578	0.04230258
211	0x3da6e830	0.08149755
212	0x3e9389c8	0.28816056
213	0x3e8f9c73	0.2804905
214	0xbdfa5e55	-0.12225024
215	0xbe830896	-0.25592488
216	0x3cb30673	0.021853661
217	0xbe32cbf2	-0.17460611
218	0x3e20da51	0.15708281
219	0x3ea33459	0.31875876
220	0x3e5dbfe8	0.21655238
221	0xbd2a0c22	-0.041515477
222	0xbe13f472	-0.14448717
223	0xbe5a3e6f	-0.21312879
224	0xbd9c67a3	-0.07636955
225	0x3ce89edc	0.028396063
226	0xbd93cf05	-0.0721722
227	0x3d7393c8	0.059467107
228	0x3c000a3a	0.007814938
229	0xbe46991e	-0.19394347
230	0xbdffb29e	-0.124852404
231	0x3e643cd3	0.22288828
232	0xbe2879dd	-0.16452737
233	0x3caa0048	0.020752087
234	0xbe0cde7f	-0.1375675
235	0x3dee84ca	0.11646421
236	0xbe355634	-0.17708665
237	0x3db1e47b	0.08686157
238	0x3cfd6a1f	0.030934392
239	0x3e457d51	0.19286086
240	0x3e181f69	0.14855732
241	0x3daba817	0.0838167
242	0x3ea6bfa6	0.3256809
243	0x3e9bb166	0.30408782
244	0xbb391f28	-0.002824733
245	0x3e1488c6	0.145053
246	0x3dbd42d2	0.092412606
247	0xbc8d1eb1	-0.017226549
248	0x3cf0b5e3	0.029383605
249	0xbe5a987a	-0.21347228
250	0x3ebb5fc1	0.36596492
251	0xbdcccc54	-0.0999991
252	0x3da07006	0.07833867
253	0xbd7beed2	-0.061507054
254	0x3ceafa82	0.028683905
255	0x3c07d0e1	0.008289547

decoder.2.bias f4 [16]
0	0x3e22a8a8	0.1588465
1	0x3f275ce1	0.65376097
2	0x3e1c4033	0.15258865
3	0x3eb2c531	0.3491607
4	0xbf2b87f0	-0.670043
5	0x3f724f4f	0.94652265
6	0x3ee226a2	0.441701
7	0x3f0bb47f	0.5457229
8	0x3f263ab2	0.6493331
9	0x3d7e3ae5	0.062067885
10	0x3e916312	0.28395897
11	0x3e876d59	0.26450613
12	0x3d20cb54	0.03925641
13	0xbe799db2	-0.24376562
14	0xbe46aedb	-0.1940264
15	0x3e8f301f	0.279664

decoder.4.weight f4 [16, 8, 5, 5]
0	0x3d9457a2	0.07243277
1	0xbdc24a56	-0.09486835
2	0x3b09f21b	0.0021048847
3	0x3e6deaac	0.23234051
4	0xbe52fb0f	-0.20603584
5	0x3d5f9b00	0.05459118
6	0xbda627d4	-0.08113065
7	0x3c433468	0.01191435
8	0x3e07c555	0.1325887
9	0x3d05b6dc	0.03264509
10	0x3b2a51d5	0.0025988717
11	0xbd8a4197	-0.067507915
12	0xbf01e75f	-0.5074367
13	0xbe26f825	-0.16305597
14	0xbdb89432	-0.09012641
15	0xbe415750	-0.18880963
16	0xbd22dee9	-0.039763365
17	0xbe6ec2c5	-0.23316486
18	0x3ddd5e09	0.108089514
19	0xbc477cb9	-0.012175732
20	0xbd986367	-0.074408345
21	0xbc829086	-0.015938055
22	0x3e033931	0.12814786
23	0x3c9339af	0.017971842
24	0x3b8cc402	0.004295827
25	0xbc37d2e4	-0.011219714
26	0x3b93b3f2	0.004507535
27	0x3c09d727	0.008413113
28	0xbd11d3b3	-0.035602283
29	0x3cc5c4ad	0.024141634
30	0xbd45168c	-0.048117206
31	0xbd29576d	-0.04134314
32	0xbbb15895	-0.005412171
33	0xbd06bd52	-0.032895394
34	0xbd8a2f57	-0.067473106
35	0xbdac96a3	-0.08427169
36	0xbda70712	-0.081556454
37	0xbd1db179	-0.03849933
38	0xbda41b80	-0.08013058
39	0x3d06503e	0.03279137
40	0xbd835766	-0.06413154
41	0xbc163752	-0.009168463
42	0xbd782301	-0.060580257
43	0x3cc982f8	0.024598584
44	0xbc511b76	-0.012762895
45	0xbd9981c1	-0.07495452
46	0xbd269fe5	-0.04067983
47	0x3c2f99e9	0.010717847
48	0x3d1d9d77	0.03848025
49	0xbcdd8fe4	-0.027046151
50	0x3df90ba0	0.121604204
51	0x3dacd857	0.08439701
52	0xbc7c1e0d	-0.015388024
53	0x3e1400ec	0.14453477
54	0x3e2648ee	0.16238758
55	0x3e4cd538	0.20003211
56	0x3c72982b	0.0148067875
57	0x3c9044eb	0.017610988
58	0x3e6ccc7a	0.23124877
59	0xbdecd7fe	-0.11564635
60	0xbb63b244	-0.0034743706
61	0xbcedab85	-0.029012451
62	0xbf22a219	-0.6352859
63	0x3eaad73f	0.33367345
64	0xbe0bfaba	-0.13669863
65	0xbe11bf22	-0.14233068
66	0xbde51501	-0.11185647
67	0xbb918c2b	-0.004441758
68	0x3d632652	0.055456467
69	0x3d915f00	0.07098198
70	0x3d0a00fe	0.033692352
71	0x3c97e2b6	0.018540721
72	0xbe8a4dc8	-0.27012467
73	0x3df519ea	0.11967833
74	0x3c8359d9	0.016034054
75	0xbd12b3d4	-0.03581603
76	0xbd8bd368	-0.06827432
77	0xbdd183b4	-0.102301985
78	0xbe6c6205	-0.23084266
79	0xbeb50eb3	-0.35362777
80	0xbd813771	-0.06309403
81	0xbd9dd3bc	-0.07706401
82	0xbe81055c	-0.251994
83	0x3d04d4ff	0.03242969
84	0xbd626ba7	-0.055278447
85	0xbd94cf97	-0.07266157
86	0xbbc16c69	-0.005902816
87	0xbd09fe02	-0.033689506
88	0x3e9dca46	0.30818385
89	0x3e84618e	0.25855678
90	0xbe26855b	-0.16261809
91	0x3dd7fd48	0.105463564
92	0xbe058f3f	-0.13042925
93	0x3e48cb8a	0.19608894
94	0x3e17f01f	0.14837693
95	0xbd811539	-0.06302876
96	0x3d9d3d9d	0.076777674
97	0xbd0f20c8	-0.034943372
98	0x3d7da914	0.061928824
99	0x3d6ffd51	0.05859119
100	0xbd7c9c70	-0.061672628
101	0xbce7d2d7	-0.028298778
102	0x3dcf72b9	0.101293035
103	0x3d20d0b6	0.039261542
104	0x3e180aba	0.14847842
105	0x3d6fd876	0.058556043
106	0x3d86fceb	0.06591209
107	0x3e2fae05	0.17156227
108	0x3e14406e	0.14477703
109	0x3e2cd97c	0.16879839
110	0x3d82a25c	0.06378624
111	0x3b835f89	0.0040091914
112	0x3d866455	0.065621056
113	0x3d2c1946	0.04201629
114	0xbd3db1dd	-0.0463122
115	0x3d0e96bb	0.034811717
116	0xbe505cdd	-0.20347925
117	0xbe23a6ab	-0.15981548
118	0x3b95bcf2	0.004569643
119	0xbb9bab73	-0.004750663
120	0xbd08de23	-0.03341497
121	0xbe590029	-0.21191467
122	0xbdfd3cb6	-0.12365095
123	0x3d08768f	0.03331619
124	0x3de1da1f	0.110279314
125	0xbc65a13a	-0.01401549
126	0x39a3c8ac	0.00031239295
127	0xbd80c953	-0.062883995
128	0xbe6bde5f	-0.23034047
129	0xbe9f8409	-0.31155422
130	0xbddd5837	-0.10807841
131	0x3e89b811	0.26898244
132	0x3c4ef7c6	0.012632316
133	0x3db0a914	0.08625999
134	0x3d5fe411	0.05466086
135	0x3e4a287c	0.19742006
136	0x3eb9de0e	0.36302227
137	0x3df73a20	0.12071633
138	0x3df5f86b	0.120102726
139	0x3e921cf4	0.28537714
140	0x3e67f89b	0.22653429
141	0x3e63693f	0.22208117
142	0x3eea01c6	0.45704478
143	0x3e451e55	0.19249852
144	0x3df3638a	0.1188422
145	0x3d7a8b49	0.06116799
146	0x3e678ad7	0.22611557
147	0x3d24412f	0.040101226
148	0xbd14bcc3	-0.03631283
149	0x3d52269f	0.051306363
150	0x3e1f63d0	0.15565419
151	0xbd74e2b0	-0.0597865
152	0xbf3ca121	-0.73683363
153	0xbd7dae56	-0.061933838
154	0x3d886676	0.06660168
155	0xbe10186f	-0.1407182
156	0xbccc6018	-0.024948165
157	0x3d813226	0.06308393
158	0x3e51d03f	0.20489596
159	0xbcd730d1	-0.026268395
160	0x3dbba47e	0.09162234
161	0xbe3c7d5d	-0.18407197
162	0xbe94baa2	-0.2904864
163	0xbe1112f5	-0.14167388
164	0x3eb4153b	0.35172448
165	0x3d5aec8a	0.053448237
166	0x3e1b9416	0.15193209
167	0x3e027b99	0.12742461
168	0xbc8aba23	-0.01693446
169	0xbc87e6df	-0.01658958
170	0xbe1981a5	-0.14990862
171	0xbe5397a6	-0.20663318
172	0xbf3b3500	-0.73127747
173	0xbe3df407	-0.1855012
174	0xbe42e17d	-0.1903133
175	0xbdafbe16	-0.08581178
176	0xbd9d1e34	-0.076717764
177	0xbc8a11b7	-0.01685415
178	0xbdbdc27f	-0.09265613
179	0xbda538a1	-0.08067442
180	0xbd1e133b	-0.03859256
181	0x3d46178b	0.048362296
182	0xbd5ff1ba	-0.054673888
183	0x3ddeac0d	0.1087266
184	0x3d31a6ff	0.04337215
185	0x3de81f17	0.11334055
186	0x3d84575d	0.06461976
187	0xbe2244e4	-0.15846592
188	0xbe7a7b46	-0.24461088
189	0xbec3ab0c	-0.38216436
190	0xbbf3bd56	-0.007438342
191	0x3be5676b	0.007000854
192	0x3e8d32c4	0.27577794
193	0xbbbcf758	-0.0057667904
194	0xbd3fe4bc	-0.046848997
195	0xbdeb0c50	-0.11476958
196	0x3bd14efb	0.006387589
197	0x3e956cdd	0.2918462
198	0x3e47f560	0.19527197
199	0xbd879a5f	-0.06621241
200	0x3e0c025b	0.13672774
201	0x3b8d71f4	0.004316563
202	0xbe0a3f62	-0.13500741
203	0xbc772b08	-0.015085943
204	0xbd8c62ae	-0.06854759
205	0xbd74f150	-0.059800446
206	0xbdab9187	-0.083773665
207	0xbe80ce5f	-0.2515745
208	0x3e91db45	0.28487602
209	0xbcac5a01	-0.021039011
210	0x3e13943f	0.1441202
211	0xbd8f1d1c	-0.06987974
212	0xbd88ea23	-0.06685283
213	0xbf39e974	-0.72621846
214	0xbc1267fb	-0.008935924
215	0xbe12b698	-0.14327466
216	0x3cb94c8d	0.02261951
217	0xbefc9ad3	-0.49336872
218	0xbeba8320	-0.36428165
219	0xbce7f964	-0.02831716
220	0x3dba5796	0.09098737
221	0x3d474f94	0.048659876
222	0xbeea2e95	-0.45738664
223	0xbc97be0a	-0.018523235
224	0x3c88dbed	0.016706431
225	0x3d31607e	0.043304913
226	0xbc8ef5b5	-0.017451147
227	0xbd98e3ba	-0.074653104
228	0xbdbf9417	-0.09354418
229	0xbdf72ae4	-0.120687276
230	0xbda085d0	-0.07838023
231	0x3c97d9be	0.018536445
232	0xbd8d37be	-0.068953976
233	0xbdb17892	-0.08665575
234	0xbc15d99f	-0.009146123
235	0xbd356d35	-0.0442936
236	0xbbd0c745	-0.006371411
237	0x3d7def82	0.06199599
238	0xbd50058b	-0.050786536
239	0x3c832439	0.016008483
240	0xbdb22c5e	-0.086998686
241	0xbd5e5abd	-0.054285754
242	0xbd13ca25	-0.036081452
243	0xbcfd62b8	-0.030930862
244	0xbc4e13b5	-0.012577941
245	0x3cc2c067	0.023773385
246	0xbd272897	-0.040810194
247	0xbdaa8de6	-0.08327846
248	0xbd13763d	-0.036001433
249	0x3a59cfff	0.0008308887
250	0x3d8c313e	0.0684533
251	0x3e843384	0.25820553
252	0x3e6102fb	0.21973793
253	0xbd8dc5d4	-0.06922498
254	0x3ea8c837	0.32965252
255	0x3e0fbee8	0.14037669

decoder.4.bias f4 [8]
0	0x3ec05be2	0.375701
1	0xbca506c5	-0.02014483
2	0xbeb8af5f	-0.36071298
3	0x3df6092c	0.12013468
4	0x3ee996ae	0.45622772
5	0x3e1f0d7d	0.15532489
6	0x3eedd43c	0.46450984
7	0x3eddb443	0.4330159

decoder.6.weight f4 [8, 1, 2, 2]
0	0x3f1cfc0e	0.61322105
1	0x3f38a0b1	0.72120196
2	0x3f2d33a6	0.67656934
3	0x3f4425ab	0.76619977
4	0x3ebe3f30	0.37157583
5	0xbf145c96	-0.57953775
6	0xbf0bcd39	-0.5461002
7	0x3e847264	0.25868523
8	0x3f51059b	0.8164918
9	0x3f6b8bbd	0.920101
10	0x3f63ff1b	0.89061135
11	0x3f77cfc3	0.96801394
12	0xbf12b10d	-0.5730141
13	0xbe801439	-0.2501543
14	0xbe893ee9	-0.2680581
15	0x3dab586e	0.08366476
16	0x3ebdee11	0.37095693
17	0x3e310886	0.17288408
18	0xbec27d2e	-0.3798613
19	0xbf1fd0b9	-0.6242786
20	0xbe8dc081	-0.2768593
21	0xbef96d05	-0.48715988
22	0xbebc763e	-0.36808962
23	0xbf138208	-0.57620287
24	0xbf3723cb	-0.7153899
25	0xbefce47b	-0.49393067
26	0xbf3b0ffb	-0.7307126
27	0xbef37d81	-0.4755669
28	0x3f4e5996	0.8060545
29	0x3f5b20c6	0.85596883
30	0x3f33f4ea	0.70295584
31	0x3f38519e	0.7199954
