models/20221206-cnn-3/model.ckpt (torch, 29947 bytes, 13 tensors)

encoder.0.weight f4 [16, 1, 3, 3]
000000 91 ef a7 be 78 ab 0b 3e 46 8a 9b 3d 9c ff eb 3d
       -0.32799962 0.13639629 0.07594733 0.11523363
000010 90 ae b7 3d 0c 51 a8 3e 3d 98 11 3f cd ea 95 3d
       0.08968842 0.32874334 0.5687292 0.07320175
000020 49 55 18 3f 03 23 94 bd 70 ee ce be 38 fd 02 bf
       0.59505135 -0.072332405 -0.40416288 -0.5116763
000030 90 e5 51 3e 9b f0 a4 be d9 40 28 be f7 b4 c0 3e
       0.20497727 -0.32214817 -0.16430987 0.37638065
000040 6a af 2d be ea 92 aa bd a0 6d 9c 3e 55 b2 7d bd
       -0.16961446 -0.08328803 0.30552387 -0.06193765
000050 08 35 d1 be 82 da ae 39 3b 19 57 3e 7d 97 df 3c
       -0.40860772 0.00033350667 0.21005718 0.027293915
000060 42 ad 33 3f b7 82 01 3f 78 65 30 be 2e 66 b0 3e
       0.70186245 0.5059008 -0.17226207 0.34452957
000070 bd 36 14 bd ee 45 ba 3e a8 bf 7a 3e 32 0c 79 be
       -0.036185015 0.36381477 0.24487174 -0.24321058
000080 ed 76 4c 3e 3d f0 90 3e 0b a4 3b 3e 40 51 63 3c
       0.19967242 0.28308287 0.18324296 0.013874352
000090 eb 5a 92 3e c4 a4 f1 3e e1 72 6e 3e 70 82 8b 3e
       0.2858499 0.4719602 0.2328601 0.27247953
0000a0 5e dd 38 3d 40 17 94 3e 01 1b 36 bf fe 70 01 bf
       0.045132987 0.28923988 -0.71134955 -0.5056304
0000b0 61 cb 5a be 66 e8 00 bf 74 94 a7 3d fe c3 f6 3e
       -0.21366645 -0.5035461 0.08182612 0.48196405
0000c0 74 b0 b7 3c 7d 14 7f 3e 56 e1 e4 3d 01 07 1c 3f
       0.022423007 0.2491016 0.11175792 0.6094819
0000d0 5c 97 08 3f 19 f2 ea be ed 32 76 3d 41 91 bf 3e
       0.53355956 -0.4588783 0.06010716 0.37415507
0000e0 9c 16 b8 3e 1b 85 d3 3e 79 af 10 3e fb 92 63 be
       0.3595475 0.4131249 0.14129438 -0.22224037
0000f0 cb 3a da 3e 84 c0 db bc c5 81 3b bf 50 a6 f0 be
       0.4262298 -0.026825197 -0.7324489 -0.47001886
000100 9f 49 04 bf 4a c6 91 be d7 eb cb be f4 ad 23 3e
       -0.51674837 -0.28471595 -0.3982837 0.15984327
000110 e4 98 09 3f e8 45 a9 bf 4e 06 0e bf d5 08 a9 bd
       0.5374892 -1.3224459 -0.5547837 -0.08253638
000120 85 48 10 c0 72 5d 2d bd b8 36 54 be 5c bf 10 be
       -2.2544262 -0.042325445 -0.20723999 -0.14135498
000130 87 2e fe 3d 53 b5 cf bd 88 0b 13 be af c9 a4 3d
       0.12411218 -0.10142007 -0.14359868 0.080462806
000140 f8 26 aa be 07 dc 9d be 14 ff 0c bf ca 53 05 3e
       -0.33232856 -0.3083193 -0.5507672 0.13020244
000150 af e3 1d bf f8 e2 f2 bd 58 92 ff bd 85 cc 96 3c
       -0.6167554 -0.11859697 -0.12479085 0.01840807
000160 9d c0 d2 3e 61 86 68 3f 7f 1a 31 3d 7c a6 b1 be
       0.41162577 0.90830046 0.04323816 -0.3469733
000170 01 48 3d bf 6f 0e c5 3e 72 10 0c bd d2 b7 98 be
       -0.73937994 0.38487574 -0.03419537 -0.29827744
000180 e1 97 26 3f 40 d9 d3 3e 2e b2 35 3e e2 82 a0 3c
       0.650755 0.41376686 0.17743751 0.01959366
000190 a5 a6 da 3c 26 ac 4b 3e fc 9c 6d be 6d e0 9d 3d
       0.02669079 0.19889888 -0.23204416 0.077088214
0001a0 ef 76 fe bd 09 94 25 be ab a8 00 3f 45 ff 9e 3f
       -0.124250285 -0.16169752 0.50257367 1.2421652
0001b0 47 1a bf 3e a8 cb d2 3e ab a4 a2 3e 82 b8 ab 3e
       0.37324736 0.41171002 0.31766257 0.33539206
0001c0 25 d8 f2 3d fc 26 72 3e 10 fa 63 bd fe 58 03 3e
       0.118576325 0.23647684 -0.0556584 0.12826917
0001d0 a0 a0 14 3f 1e ea d2 3c fd b6 46 be 12 95 07 3c
       0.58057594 0.025746401 -0.19405742 0.008275287
0001e0 26 8c 12 3e 48 fc b3 be 24 8e 89 3e 86 35 4c 3e
       0.14311275 -0.35153413 0.26866257 0.19942293
0001f0 a4 e2 c1 be f8 a9 27 3f a7 e4 37 3f 93 4f af be
       -0.37868226 0.65493727 0.7183327 -0.34240398
000200 fc c2 8b be 9f a4 19 3f 77 15 87 be bf 75 a3 be
       -0.272972 0.60016817 -0.26383564 -0.3192577
000210 81 73 6c 3e b2 0e f0 be d9 27 c0 3d 54 06 ee 3c
       0.23090936 -0.46886212 0.093826 0.029055752
000220 8f 89 8e be 7e a8 3b 3f ef 05 54 be a6 13 35 be
       -0.27839324 0.73303974 -0.20705388 -0.17683277
000230 73 e0 b9 3e 00 ea d0 be ff 2a ac be cf 88 6e 3e
       0.36304054 -0.40803528 -0.33626553 0.23294376

encoder.0.bias f4 [16]
000000 8a c1 8e 3d df 14 e4 3e 8c 57 c4 3e b3 bf 1d 3b
       0.069705084 0.44547173 0.38348043 0.002407056
000010 26 de b2 3a 22 fc c7 3e 16 53 1f 3e f5 9a 32 3f
       0.0013646528 0.3905955 0.15559039 0.69767696
000020 11 67 13 3f 80 e7 8a ba 82 d1 85 38 0f b0 1a 3e
       0.5757914 -0.0010597557 6.380958e-05 0.15106224
000030 3a 66 a1 3e a6 ef 01 3f 53 96 b8 3e 1f 29 a0 3d
       0.31523305 0.507563 0.36052188 0.07820343

encoder.3.weight f4 [8, 16, 3, 3]
000000 38 64 ff bd 91 2f 2a 3e f5 5e 0a 3e 26 d7 df bc
       -0.12470287 0.16619708 0.13512786 -0.02732427
000010 4c 56 e5 3d dc a8 e9 bb 31 0d 42 3d d1 21 b6 3d
       0.111981004 -0.0071307253 0.04737586 0.08893169
000020 22 10 5a be 77 63 4c 3e 03 de 40 be 0b 2e d9 bc
       -0.21295217 0.19959818 -0.18834691 -0.026511213
000030 76 02 aa 3d 16 0a c8 bd f1 87 0d bd 42 f5 0f be
       0.08301251 -0.09767549 -0.034553472 -0.14058402
000040 68 d9 8b 3c 2d 8e 9d 3d ee eb 5b 3d b0 c3 a4 3d
       0.01707144 0.076931335 0.053691797 0.08045137
000050 30 08 19 3e 88 46 99 3d d1 c4 35 3d cb 05 a1 3d
       0.1494453 0.07484156 0.044377152 0.07862433
000060 fc a8 aa 3e 1c d8 0e 3d 5f 64 4a bd 85 bf 57 bc
       0.3333205 0.034874067 -0.049412128 -0.01316822
000070 fd 3a c5 3e 9e 61 f7 3e 4d 36 3f 3d 45 9c c8 3e
       0.38521567 0.48316664 0.046682645 0.39181724
000080 e0 7a a2 3e e1 06 cd bd 9a 03 c2 3e d6 e0 cb be
       0.3173437 -0.10011078 0.37893373 -0.39819974
000090 2e 21 c1 bc 5a 77 a3 3b b4 cb 13 3e e5 9d 3b 3e
       -0.023575392 0.004988593 0.14433175 0.1832195
0000a0 ec 87 fd 3e b5 4a 1f bd 44 31 48 bd 59 df 86 3b
       0.49517763 -0.038889606 -0.04887511 0.0041159806
0000b0 7b d7 90 bd ea 46 bd 3d 4d 48 80 3d 2d 87 8b 3d
       -0.0707235 0.092420414 0.0626379 0.06812892
0000c0 ea ee 6a 3d 0a 4c 2e 3d 5e 18 1f 3e 75 ac b4 3c
       0.057356752 0.042552985 0.15536639 0.02205489
0000d0 65 8d c7 3c c4 4c 7d be 72 21 7d bd e8 a6 03 3d
       0.024359414 -0.24736315 -0.061799474 0.032141596
0000e0 52 18 95 3e ef ae 00 3e f3 f8 25 3e 3a 1f 93 3d
       0.29120117 0.12566732 0.16208248 0.0718369
0000f0 a8 8b 22 3e 7b 64 92 3e c6 2a 85 be 20 9e 45 3e
       0.15873587 0.28592286 -0.26009196 0.19298601
000100 27 b0 bf bd 94 cc 23 be 4b 18 57 3e 9c fe 31 3d
       -0.0935977 -0.15996009 0.21005361 0.043455705
000110 b2 36 75 3d e1 4b 51 be 79 72 ce 3d 58 c6 b0 3c
       0.059866615 -0.20439102 0.10080428 0.021578953
000120 fa 09 b8 3e d0 bf 0a be aa 0f d0 be 15 7c 98 3e
       0.35945112 -0.13549733 -0.4063695 0.29782167
000130 ae 39 46 3e 1d 92 78 be 74 8e 47 bf 8c 09 18 bf
       0.1935794 -0.24274488 -0.7795174 -0.5938957
000140 7f 75 e8 bd 04 cb 47 3d 03 78 5c 3d ce 9c 40 3c
       -0.113505356 0.048777595 0.05382539 0.011756135
000150 c5 a1 86 3d e8 c5 ab 3c 4f dd 57 bd 65 84 db 3b
       0.06573824 0.020968392 -0.05270129 0.0066991323
000160 79 a6 7c bd ee 6d d8 be 37 2c b4 3c 08 cf c9 3d
       -0.0616822 -0.4227137 0.02199374 0.09853941
000170 05 1f 06 3e 69 f8 f3 3c 34 82 1b bd 0c e3 4c be
       0.1309777 0.029781537 -0.03796597 -0.20008487
000180 42 b3 c6 3b 99 75 70 be 9a 5f 30 bd fa ef a0 bd
       0.0060638497 -0.2348236 -0.043059923 -0.07858272
000190 a1 8f a5 3c ad 23 38 3e b8 e0 38 be 92 d1 16 bc
       0.02021009 0.17982359 -0.18054473 -0.009205239
0001a0 d3 d5 f4 3d 72 69 9b 3d 79 6d a9 3d 99 ac b4 3d
       0.11954846 0.075884715 0.082728334 0.08821983
0001b0 a9 8e 68 3c 43 2e ed 3d 18 61 9a 3e fb 82 89 3d
       0.014194169 0.11581089 0.30152202 0.06714436
0001c0 b9 93 75 3e 5e 99 1f bd fd aa ae 3d c4 98 73 3d
       0.23982133 -0.03896462 0.08528707 0.05947186
0001d0 07 f4 12 bd 9a 48 82 3d c5 5e 7b 3c f0 f3 cd 3d
       -0.035877254 0.06361504 0.015342419 0.10056293
0001e0 71 d0 b5 bd d2 e4 8f 3d 00 1e 62 bd 20 82 15 3d
       -0.08877648 0.07026066 -0.05520439 0.03650105
0001f0 20 04 83 bd 7e e9 7d be 75 f7 2a be 8a 1f 79 be
       -0.06397271 -0.24796101 -0.1669596 -0.24328437
000200 b7 ac 82 3e 24 cc 8e be 95 6e 3c be 4a df 11 3e
       0.25522396 -0.27890122 -0.18401559 0.14245334
000210 5b 7a 26 3e d4 39 a7 3e bb 25 94 be d1 8e d1 3d
       0.16257612 0.32661307 -0.28935036 0.10232318
000220 a6 54 3d 3c 26 45 7f 3d 2a 49 76 3d 51 ad 9f 3d
       0.011555826 0.062321804 0.06012837 0.07796729
000230 50 0c db bd 66 4f 7f be 23 eb 5f bd 6e 52 ab 3e
       -0.10695708 -0.24932632 -0.054667603 0.33461326
000240 9f 3d ab 3d c4 cd 55 3e 15 b4 df 3d 9f 69 9c 3d
       0.08361363 0.20879275 0.1092302 0.07637333
000250 59 92 d1 3d a7 8b 05 3e 19 c3 f2 3c c3 fb 26 3e
       0.10232992 0.13041554 0.029634045 0.16306977
000260 95 92 ae be 18 be 6e 3d b7 59 d8 be 82 46 8f bd
       -0.34096208 0.058286756 -0.42255947 -0.0699587
000270 6c 90 bb 3b 2c 2e 29 be 52 0c 51 3d 00 fd 3b be
       0.0057240035 -0.1652152 0.05103714 -0.1835823
000280 a0 7e 76 3d c2 af 33 3e 7f 22 06 3d f4 e1 f3 bc
       0.060179353 0.17547515 0.03274774 -0.029770829
000290 8b 52 15 3e 8a fa b8 3d 85 8a aa 3d 92 52 3c 3e
       0.14582269 0.090321615 0.08327202 0.18390873
0002a0 d9 43 89 3e e0 4f c1 3c 2b 78 a3 3d d9 c8 9d be
       0.26809576 0.023597658 0.079819046 -0.30817297
0002b0 8a b5 02 3f cb 37 b6 3e 0f b4 25 3d f7 93 4a 3e
       0.51058257 0.35589442 0.04045492 0.19783007
0002c0 06 1c 33 3f 69 9b 7f bd 70 ef cc 3e 75 3e a6 be
       0.69964635 -0.06240407 0.40026426 -0.32469526
0002d0 59 09 00 3e b3 3c af 3e aa e8 28 3e bb 73 03 3e
       0.12503566 0.34225997 0.16495004 0.12837116
0002e0 d4 c4 c4 3d 0c 09 77 bd 46 63 28 be 98 97 ec bd
       0.096078545 -0.060311362 -0.1644412 -0.11552352
0002f0 c5 b2 91 be 0a 82 c2 3d 6f 3b 4a 3e 63 e9 d5 3d
       -0.28456703 0.09497459 0.19749235 0.104449056
000300 79 2d 60 3d 45 de df 3d 90 bb 57 3e c2 ad d6 3d
       0.054730866 0.109310664 0.21067643 0.104823604
000310 67 64 ef 3d 25 33 22 be 83 9d 1b be 7f 52 6b 3e
       0.11689072 -0.15839823 -0.15196805 0.22980689
000320 fd e5 5a 3d 1f 99 03 be 43 1f a3 bd 18 c8 90 3e
       0.05344199 -0.1285138 -0.07964947 0.2827766
000330 45 ce 09 3e 9b cd 1f 3e c8 b2 8f bd c7 05 6c 3e
       0.13457592 0.15605776 -0.07016522 0.23049079
000340 58 fd 1c be 77 a1 b0 bd 7f 4c c6 3e 56 d4 88 be
       -0.15331018 -0.08624547 0.38730237 -0.267245
000350 5c 77 61 3d 8f ad a6 bd c3 b5 dd bd 2b 25 fb bb
       0.05504547 -0.081385724 -0.10825684 -0.007664343
000360 81 f0 e5 3e ce 71 f7 be 27 7d 97 be 32 f9 d1 3e
       0.44910052 -0.48329014 -0.2958767 0.41010433
000370 5f 3b db 3b 5e fd 2a be ea 1d 2e bf c9 64 e4 be
       0.006690427 -0.16698214 -0.68014395 -0.44608143
000380 e8 cd 65 be 1e 82 d2 3d 99 bb 7e 3a df 38 8f be
       -0.22441828 0.10278724 0.0009717285 -0.27973077
000390 71 d5 93 3e ce 86 cb bc cb 9b 8b be fc 9f 99 3d
       0.2887378 -0.024844553 -0.27267298 0.07501218
0003a0 0a 18 43 3e ce 70 de be aa ca c1 be 45 b1 33 be
       0.19052139 -0.43445438 -0.37849933 -0.17548092
0003b0 57 d6 ea 3d ac 3c 9f bd e0 c7 14 3e 48 db 07 3e
       0.11466663 -0.07775244 0.14529371 0.13267243
0003c0 ba cd 35 bd a5 65 46 bb 8d 37 a8 3d f2 3d 7a 3d
       -0.04438565 -0.0030272987 0.082137205 0.061094232
0003d0 95 23 d9 3d eb ba 6e 3e fc 6f b6 3d e2 98 60 3d
       0.1060249 0.23313491 0.08908078 0.0548333
0003e0 97 5a 99 3d 21 73 27 3e 87 0c f2 3d 7d 6f 7c 3c
       0.07487982 0.16352512 0.11818796 0.01540744
0003f0 6c e9 4c 3d 72 b0 38 3e 27 34 29 3e e2 1c 8d 3b
       0.050027296 0.18036059 0.16523801 0.0043064216

encoder.3.bias f4 [8]
000000 f5 fb 9e 3d ec 6c 5e 3d fe 9f 12 3d 70 7b 4b be
       0.07762901 0.054303095 0.03579711 -0.19871306
000010 d6 0c 38 bd bf 90 71 bd 09 fd 3e 3d 86 af dc 3d
       -0.044934116 -0.05897593 0.046628032 0.10775666

encoder.7.weight f4 [3, 32]
000000 44 ef b0 3d 3f 82 0f 3e 8d dd 92 bd d2 ab 25 3e
       0.08639386 0.14014529 -0.07171164 0.16178825
000010 e8 02 db 3d df 5d 4d bd 71 1a 3f 3e 38 a9 2c 3e
       0.10693914 -0.05013835 0.1866243 0.16861427
000020 9f a5 cf 3e 97 c0 25 3f 4f 78 c4 3e 1b a3 be 3e
       0.40556046 0.64746994 0.38373038 0.37233815
000030 f1 e0 b4 bd 71 c5 b7 bd 3c 2b 9f 3c 13 b1 41 3e
       -0.08831967 -0.08973206 0.019429795 0.18915205
000040 77 90 23 be c7 d5 01 3e cf 43 6d 3d e1 1f e3 3d
       -0.15973078 0.12679206 0.057925995 0.11090065
000050 84 b1 c0 3e 8d 21 c1 3e 55 2f 18 3f 51 12 f3 3e
       0.37635434 0.3772091 0.5944722 0.47474912
000060 55 06 e1 3e 0c c3 f3 be d2 06 54 bf 28 cd 0e bf
       0.43950143 -0.47609746 -0.82822907 -0.55781794
000070 91 3b 3e be 61 27 81 bd 0a f1 13 3f 7c 3d 06 3f
       -0.1857741 -0.06306339 0.5778967 0.5243757
000080 69 10 8f be 90 5e 7d be 28 98 5c bd a0 d5 4f be
       -0.27942207 -0.24743104 -0.053856045 -0.20296335
000090 74 1c 8b be 42 d2 8e be 99 cf e9 bd a1 c6 42 3c
       -0.27170146 -0.2789479 -0.11416549 0.011888177
0000a0 c2 cc 69 3e 91 ea 72 3e 4e 90 a7 bd d7 4f ea bc
       0.22832015 0.23722292 -0.08181821 -0.028602524
0000b0 8e b1 aa 3e f2 52 b3 3e 2f 88 fb 3e 72 6a 23 3f
       0.33338588 0.3502422 0.49127337 0.638343
0000c0 8e b3 08 3c c2 c8 32 bd 1b 3a 00 3e fc 32 9d bd
       0.00834359 -0.04364849 0.12522165 -0.0767574
0000d0 15 a2 26 be 72 37 3d be 90 9e 41 be b0 43 cb be
       -0.16272767 -0.18478182 -0.18908143 -0.3970008
0000e0 0e 36 76 bf 9f 6d 18 bf 3f 45 0e bf b0 eb 3f bf
       -0.9617623 -0.5954227 -0.5557441 -0.74969006
0000f0 f7 5f 44 bd a5 37 a4 bd af c5 9c be a4 08 d4 bd
       -0.04794308 -0.08018426 -0.3061957 -0.103532106
000100 00 0b 06 be e1 65 91 bd a2 1d c1 be 42 11 be bd
       -0.13090134 -0.0709951 -0.3771792 -0.092806354
000110 c0 5a d1 be cd d7 bd be 70 db 4b be 56 2d 47 be
       -0.4088955 -0.37078705 -0.19907928 -0.19450888
000120 89 0b be 3e 51 58 10 3f 7d 87 62 3d 97 21 86 3e
       0.37118176 0.5638476 0.055304993 0.26197502
000130 e2 88 be be d3 15 29 bf a1 a0 f0 be 49 b0 08 bf
       -0.37213808 -0.66048926 -0.4699755 -0.5339399
000140 20 15 c9 3d 95 a5 21 be 2c 2a 4a bd c0 11 04 be
       0.098184824 -0.15785821 -0.049356624 -0.12897396
000150 e9 6f 22 3e 70 e2 49 bd 2a 18 88 bc 98 66 4c bd
       0.15863003 -0.049288213 -0.016613085 -0.04990253
000160 2b ee fd 3e 02 3b 09 3f 5d e8 94 be b4 4f b2 be
       0.4959577 0.53605664 -0.2908353 -0.34826434
000170 31 a1 7a bd 43 60 26 3c f8 23 17 3f f2 19 15 3f
       -0.06118888 0.0101547865 0.5903926 0.58242714

encoder.7.bias f4 [3]
000000 ae e3 bf 3d 5e 1e e6 3c e8 f7 66 3e
       0.09369598 0.028090652 0.22555506

decoder.0.weight f4 [32, 3]
000000 5c 9d 71 bd 0e 57 6f 3e 1f 77 3a 3f ee 33 b8 3d
       -0.05898796 0.23373052 0.72838014 0.0899428
000010 41 2a 8b 3d 98 d3 f2 3d 0b 3a d4 3e b2 48 06 be
       0.06795169 0.118567646 0.41450533 -0.13113669
000020 81 70 2e 3f 13 29 25 bf 96 d0 01 3f 4b df 54 be
       0.6814042 -0.645158 0.507089 -0.20788305
000030 a1 85 a9 3d d5 45 cf 3e 26 45 f9 3e 20 b0 52 3e
       0.08277441 0.40482965 0.4868557 0.20574999
000040 f9 0d 08 3e 25 ba 38 bf 2f ca 04 bf a7 06 c2 3e
       0.1328658 -0.72159034 -0.5187101 0.378957
000050 4b 52 e9 be 61 77 5a 3e 10 74 0d bf ec c0 b4 be
       -0.45570597 0.21334602 -0.5525522 -0.35303438
000060 ea 12 40 3e e4 c7 9a be ac 47 da 3c 6e fe 89 be
       0.18757215 -0.3023063 0.026645504 -0.26951927
000070 a3 8e 06 3c 9f bb 50 3f 98 56 e8 3e 2a 35 0a bf
       0.008212718 0.8153629 0.45378566 -0.5398737
000080 06 b8 36 3e 75 72 06 bf 72 19 28 bf 07 62 69 bf
       0.17843637 -0.525184 -0.65663826 -0.911652
000090 f3 82 99 be c6 a2 f2 3e 7b 4c 30 3f ff 23 15 bf
       -0.2998272 0.4738981 0.688667 -0.5825805
0000a0 ed ed 0c 3f ef 8b 00 be e1 94 0a 3f 2a 17 50 3f
       0.55050546 -0.1255338 0.5413342 0.81285346
0000b0 35 c7 33 be b2 d0 04 3e 71 32 0f bf 50 4e 9c 3e
       -0.1755646 0.12970236 -0.5593634 0.30528498
0000c0 8f f0 55 be 04 06 a4 be a2 dc ff be 77 a9 82 3e
       -0.20892547 -0.3203584 -0.49973017 0.25519916
0000d0 6c 16 ff bd df a5 fa 3e f8 91 b4 be 87 05 87 3e
       -0.124554485 0.48954675 -0.35267615 0.26371405
0000e0 05 b0 fe 3e 31 06 45 bd 03 eb 97 bf 07 52 78 3e
       0.49743667 -0.048101608 -1.1868595 0.24250041
0000f0 30 a4 b1 3e 75 af 4d bf ba c8 77 be f5 98 11 be
       0.34695578 -0.8034585 -0.24197665 -0.14218505
000100 39 91 00 bf 65 fe 04 be 1f d6 2a 3f ad 63 d6 3e
       -0.5022159 -0.12987669 0.6673297 0.41872922
000110 4a 6d 65 3f 92 16 38 3f 55 9c dc be 8e 30 83 be
       0.89619887 0.7190944 -0.43088022 -0.25622982
000120 37 01 c5 3e 69 eb 01 3e 33 7b 18 3f 0e a5 b5 3e
       0.3847749 0.12687458 0.5956299 0.3547749
000130 66 94 4d 3f df 5f 39 bd f7 50 8e 3e ee 68 05 bf
       0.80304563 -0.045257445 0.27796146 -0.52113235
000140 a8 6f 35 3e b0 06 bb be 4b 2e e7 3d 23 93 0b 3f
       0.17718375 -0.3652854 0.112881266 0.5452139
000150 d4 5c 4e 3f 2a 88 71 3d 75 40 23 bf 96 27 2a be
       0.80610394 0.058967747 -0.6377023 -0.16616663
000160 b8 c7 cb 3e 91 1a 00 be 3c 12 0e 3f 5b c9 64 be
       0.3980081 -0.12510134 0.55496573 -0.22342436
000170 5c 8c dc be 31 ce 39 be 91 94 8e 3e 20 04 68 bc
       -0.43075836 -0.18145062 0.27847722 -0.01416114

decoder.0.bias f4 [32]
000000 9b 7e 07 3f e9 13 84 3e 15 7e cc be b1 f0 8b bf
       0.5292756 0.2579644 -0.39939943 -1.0932828
000010 c2 72 8b bf 5d ed a3 bf 85 8d 45 bf cc 3c 7f bf
       -1.0894396 -1.2806813 -0.77169067 -0.99702144
000020 85 f6 04 bf 0a 2f 16 3f f5 24 04 3e 3d 16 81 3f
       -0.5193866 0.58665526 0.12904723 1.0084912
000030 4b 0b fc be de 1e 84 3e c6 4e 6c 3f a8 bb d1 3d
       -0.49227366 0.258048 0.923077 0.10240871
000040 58 cb 81 bf 6c 56 67 bf 21 1a c6 3f 01 b6 5f be
       -1.014018 -0.90366244 1.5476724 -0.21846773
000050 ed 52 7f 3f ba cf 6e 3f 76 6b 44 bf 25 6d a9 3e
       0.9973591 0.93285716 -0.7672647 0.33091083
000060 0f 98 17 3f 7f 0a b9 3e e8 2c bb 3f 45 55 89 3e
       0.592164 0.3614082 1.4623079 0.26822868
000070 26 4f 94 bf 3e 97 02 c0 1d c9 da 3e 48 64 46 bf
       -1.1586654 -2.040481 0.42731562 -0.7749677

decoder.2.weight f4 [8, 16, 3, 3]
000000 93 e2 3f 3c 23 f5 92 3d 33 9b a4 bd cf 3f 08 3c
       0.011711734 0.07175662 -0.080374144 0.008315994
000010 72 6a 1e 3e 3c f1 8e bd c3 4e e9 bd f3 e2 4c 3d
       0.15470293 -0.069796056 -0.11391976 0.050021123
000020 0f 13 d0 be b4 d2 3b 3c 28 c5 72 bd 96 e1 83 be
       -0.4063954 0.01146381 -0.059270054 -0.25758046
000030 ce f5 06 3e 44 57 9f 3e 7a af ee bd d0 be 87 bd
       0.13179705 0.31121266 -0.11654563 -0.066281915
000040 b2 6a 15 3e f3 50 08 3e f9 ca bc 3c 15 07 0a 3e
       0.14591482 0.1331213 0.023046004 0.13479264
000050 7d 5b 1f bd 96 ec e3 bc 26 5b 83 3d 33 dd c4 3d
       -0.03890561 -0.027822774 0.064138696 0.09612503
000060 5d 8d 1c be a6 4c c9 3e 96 ab 49 bd 08 74 4e be
       -0.15288301 0.3931629 -0.049235903 -0.2016145
000070 41 55 b4 3d c9 4e 59 be 83 33 d9 bd 55 08 8c bd
       0.088053234 -0.2122146 -0.10605528 -0.06837527
000080 ab ac c1 3d 3e 9c 4e 3e 04 7b 78 3d 0f fc 1b be
       0.09456762 0.20176789 0.06066419 -0.15232871
000090 03 ea 8a 3c 06 9b 84 3d 00 b0 4f bd cf d1 1b be
       0.016957289 0.06474881 -0.050704956 -0.15216754
0000a0 57 6a c1 3e e9 74 82 3c b2 58 c5 bd ff ca f0 bc
       0.37776443 0.015924888 -0.09636058 -0.029393671
0000b0 0d 9d 7a bd ec 28 81 3e 7f 1d b4 bd d0 48 4d bb
       -0.06118493 0.25226533 -0.087946884 -0.0031323917
0000c0 b4 2b 8e bc 2b 48 8e 3e 21 96 ec 3d 25 d2 80 3d
       -0.017354824 0.27789435 0.11552072 0.06290082
0000d0 59 63 44 bd bb a4 e4 3c 0d 49 54 bc 57 9d 71 be
       -0.047946308 0.02791058 -0.01295687 -0.23595177
0000e0 bf 78 be bd f1 ae 89 3d 69 c0 cb bb c4 d4 be 3d
       -0.09300374 0.067228206 -0.0062180054 0.093179256
0000f0 92 4a aa bd ca 58 bc bd 07 31 13 be a1 ad 0d 3e
       -0.083150044 -0.09196623 -0.14374171 0.13835765
000100 ce d3 07 be 6c b4 de bd d0 4f 59 3d 04 f9 31 bd
       -0.13264391 -0.108742565 0.05305463 -0.04345037
000110 95 22 10 be 45 02 81 3e 0c fb 09 be c0 b1 69 be
       -0.14075692 0.25197044 -0.13474673 -0.22821712
000120 33 d4 8b bc 9e 47 0b bc 31 ec b9 bd 9b b8 40 3d
       -0.017068958 -0.008500962 -0.09078253 0.047051053
000130 b2 ab 4d 3e d8 7b 5c 3d 61 3b 20 be 1d a1 8b bd
       0.20085028 0.053829044 -0.15647651 -0.06817839
000140 8d 41 66 bd ce 41 0c 3b 38 07 e4 3d 34 34 bd bd
       -0.056214858 0.0021401527 0.11134189 -0.092384726
000150 e1 c8 16 3b 25 b6 62 3d 19 32 a2 3d 39 c5 35 be
       0.0023007917 0.055349488 0.079197116 -0.17751016
000160 d7 c0 a9 3d d2 d1 db bd 9f 11 77 3d 63 04 0b be
       0.082887344 -0.107333794 0.06031954 -0.13575892
000170 75 44 49 3c 7b 06 ce 3d 72 e4 95 3d a7 18 bc bd
       0.012284388 0.1005983 0.07318963 -0.091843896
000180 33 a6 1c 3b 4d 89 6c 3d 5c bf e2 bc 38 eb ec bd
       0.0023902773 0.057748128 -0.027679138 -0.11568302
000190 61 62 18 3e 26 97 c4 3c 8a 6f 50 bd 08 fb f8 bd
       0.14881279 0.023997854 -0.050887622 -0.121572554
0001a0 49 c0 07 be 58 13 ae 3c 94 1d b1 3d 62 1d 07 bd
       -0.13256945 0.021249458 0.0864822 -0.032987006
0001b0 05 46 39 3d b5 55 24 be 23 31 e8 3d 78 79 9d 3d
       0.04523279 -0.1604832 0.11337497 0.07689184
0001c0 46 fe d4 bd f5 a2 80 3b e0 98 ed bd 0a 7f fe 3c
       -0.10400061 0.003925676 -0.11601424 0.031066436
0001d0 d6 4d ae bd db c2 c7 3c c3 54 17 3f b1 82 71 bd
       -0.0851094 0.024384907 0.5911371 -0.058962528
0001e0 21 b5 c5 bd 0a da 14 3e 83 e8 99 bd f9 0f 07 be
       -0.09653688 0.145363 -0.07515051 -0.13189687
0001f0 a7 08 48 3b f2 f3 d0 bc dd ac af 3c fa dc 2b be
       0.0030522735 -0.025506947 0.021444732 -0.16783515
000200 52 7e 01 3d 5f fb 63 3e 29 55 77 3d 92 c7 d4 bb
       0.03161461 0.22263859 0.06038395 -0.006493517
000210 c9 b7 18 bc db b7 7c 3d ba c2 fc bc 9e 2e 93 bc
       -0.009321162 0.061698776 -0.030854572 -0.017966565
000220 4a 9d 81 3d 51 10 1b bd 4c 3e 16 be df ba df 3c
       0.06328829 -0.037857357 -0.14672202 0.027310787
000230 8e 3a 81 3e c5 76 61 be 02 f1 18 3e c9 96 97 3d
       0.25239986 -0.22017963 0.14935687 0.07401807
000240 f3 32 a2 bc e6 df 53 3d 3e f1 bd ba 7e e0 66 bd
       -0.019799685 0.051727198 -0.0014491451 -0.056366436
000250 c5 17 1a bd 9c 44 ee bb bc 6c 5a be a5 d3 70 be
       -0.037620325 -0.0072713625 -0.21330541 -0.23518236
000260 cf 54 5a 3d 28 bb 7e 3c 86 50 30 be 2a f7 85 bd
       0.053303536 0.015547551 -0.17218217 -0.065412834
000270 e8 8e bb bd 5e cc ba 3d 65 80 e4 3d 7e 83 2e be
       -0.091581166 0.09121011 0.11157302 -0.17042348
000280 8c 5c c5 bd a1 86 17 be dc 23 39 be b1 9a 1e 3e
       -0.096367925 -0.1479745 -0.18080086 0.15488698
000290 37 dc 59 3d 15 9f 54 be 5d 87 05 be 73 44 51 3d
       0.05318853 -0.2076381 -0.13039918 0.05109067
0002a0 e0 db 8d bd 1d d9 18 3c 66 15 6b bc 2c a2 ef 3c
       -0.069267035 0.009329108 -0.0143483635 0.029252134
0002b0 a4 1f 32 be fb 97 53 bd 3a b3 61 be b7 fd 30 be
       -0.17394882 -0.05165861 -0.22041026 -0.17284285
0002c0 e8 66 18 3e 9e 08 0f be eb 9c 1d be bc 64 28 3e
       0.14883006 -0.13968131 -0.1539189 0.16444677
0002d0 09 73 cb bd 67 2d a5 bd 47 48 57 3e 6d 3f 8a 3d
       -0.099340506 -0.080653004 0.21023665 0.06750379
0002e0 43 b8 1c be b8 e6 6c 3c de 0b 12 be 93 81 6f bd
       -0.15304665 0.0144593045 -0.1426234 -0.05847318
0002f0 a7 50 14 3e 54 28 dc bd da 80 16 3e 6a 65 b4 bc
       0.14483891 -0.107498795 0.1469759 -0.022021014
000300 f1 5e ac bd e6 73 97 be d5 d7 f2 bd 81 05 1a bc
       -0.08416546 -0.2958061 -0.11857573 -0.009400726
000310 0f e0 3d be e7 65 84 bd 5a 6c 57 bd c1 8a 12 3e
       -0.18542503 -0.06464749 -0.052593566 0.14310743
000320 f7 6f ad 3e 54 b0 13 3e 05 43 b4 bc 9b 89 ef 3d
       0.33874485 0.14422733 -0.022004614 0.11696168
000330 31 32 90 be cf 6e 8f be 96 86 63 bd a2 8f 1f be
       -0.28163293 -0.28014228 -0.055548273 -0.15582135
000340 a6 82 8b 3c d9 35 7d 3c 56 e5 fa be 32 b4 c0 be
       0.017030071 0.015454733 -0.49003094 -0.37637478
000350 d3 ec 3c 3e 49 c4 56 be b9 a2 28 3e 79 c2 d9 3d
       0.18449716 -0.20973314 0.16468324 0.10632796
000360 b3 07 b1 bc ba 21 2e bd d6 7f be 3b 33 12 01 be
       -0.021610117 -0.042512633 0.005813579 -0.12604599
000370 6c 02 83 be f8 eb 04 bc 70 38 e0 3d 0b 2c ca 3d
       -0.25587785 -0.0081129 0.109482646 0.09871682
000380 1a 50 c7 3d fc df 71 bc fe ce c8 bd 32 a1 b2 3e
       0.09732075 -0.014762875 -0.098051056 0.34888607
000390 70 03 b1 3d c3 db a0 be 8f 36 69 3d 00 8a 13 3d
       0.08643234 -0.31417665 0.056936797 0.03602028
0003a0 a2 46 89 be c1 50 49 3e 28 3d 25 3d d1 7e a3 3d
       -0.268117 0.19659711 0.040341526 0.07983173
0003b0 c6 c3 a4 3e ec fc d2 bd 81 1e c7 3c cb 97 50 3e
       0.32180613 -0.10302147 0.024306538 0.20370404
0003c0 50 09 16 bd 73 e8 0a 3e 4a 77 80 3e 53 b9 86 bd
       -0.036629975 0.13565235 0.2509101 -0.065783165
0003d0 32 71 62 be af b7 79 3d e2 ba 1a 3d f3 7e 2c 3c
       -0.22113493 0.06096619 0.03777588 0.010528314
0003e0 b5 2d d2 3d 05 4a 26 be 2c 4c 67 bd 15 15 cc 3d
       0.10262624 -0.16239174 -0.056469128 0.099649586
0003f0 f1 97 8d bc a6 22 59 3a e0 ee 8e 3e 85 ba 43 be
       -0.017284365 0.0008283056 0.27916622 -0.1911412

decoder.2.bias f4 [16]
000000 a8 e0 45 3f eb d7 ca be e2 44 9e 3e d2 95 1f 3f
       0.77295923 -0.39617857 0.30911928 0.6233798
000010 11 fa 9f 3f 0b 1b a5 be e4 ed ec 3e d7 af 27 3e
       1.2498189 -0.32247195 0.46275246 0.16375671
000020 81 59 5f be ae 26 29 3f 84 3e 80 be b1 33 ec be
       -0.21811487 0.66074646 -0.25047696 -0.46133187
000030 04 bf 19 be a1 22 ff be 00 bd 91 be df ef 23 3e
       -0.15014273 -0.49831107 -0.28464508 0.16009472

decoder.4.weight f4 [16, 8, 5, 5]
000000 da dc ab 3d 12 ce ee bb a9 ea 88 3d cf fb 32 be
       0.083917335 -0.007287749 0.06685383 -0.1747887
000010 13 6d 86 3d 85 e0 1e 3e 15 97 2d 3d f0 61 16 3f
       0.06563773 0.15515335 0.04238041 0.5874319
000020 98 d5 19 3d 94 2a 1d bd 33 e4 67 3e 38 48 36 3e
       0.037557214 -0.038370684 0.22645645 0.17800987
000030 ea f5 b2 3d ab 54 36 3d b6 cb 43 be 4a d8 6d 3d
       0.08738311 0.04451434 -0.19120678 0.058067597
000040 8f 25 32 bc e5 2b 9e 3e bc ec 93 bd 67 47 2c 3d
       -0.0108732125 0.30892864 -0.07222888 0.042060282
000050 df e8 81 3d 77 02 0e 3e 45 18 16 bd 80 6b b7 bd
       0.06343245 0.13868128 -0.03664424 -0.08956051
000060 1a e7 06 3b 87 ab 98 bc c8 fe 83 ba be 03 8d 3e
       0.0020584525 -0.018636478 -0.0010070438 0.27541918
000070 a0 b3 d0 bd 7f 4c 29 3d aa 3b d6 3d 8e 2e 7c 3e
       -0.10190511 0.041332718 0.10460599 0.24627134
000080 16 2a 6b 3f 96 30 00 3e a9 f7 ac 3d 55 85 46 3e
       0.91861093 0.12518534 0.08445675 0.193868
000090 b8 9f 2b bd 02 b9 b5 3e e7 9f b4 3e 85 98 d9 bd
       -0.041900367 0.35492712 0.35278246 -0.10624794
0000a0 ff a3 e0 3c ad 7e d8 3c 90 09 b8 3e a9 9d 67 3e
       0.02742195 0.026427591 0.35944796 0.22618736
0000b0 b4 87 08 bc 3b 57 cb 3d 13 78 69 3e 61 3c 9e 3e
       -0.008333135 0.09928747 0.22799711 0.3090544
0000c0 43 17 8e 3d 27 4b aa bc 8e dc 49 3c c3 de 84 bd
       0.069380306 -0.020787789 0.012320651 -0.06487801
0000d0 45 17 cc bd 05 e8 32 bc 34 2a 4f bd 94 14 03 bd
       -0.09965376 -0.010919576 -0.050577357 -0.032002047
0000e0 73 01 44 3d 02 e3 d5 3d 69 4b 93 bb e2 47 ad 3d
       0.047852945 0.10443689 -0.0044950736 0.08460976
0000f0 77 c3 95 be 9f 6f c3 bd 0e c1 93 bf cc b2 a2 3e
       -0.2925069 -0.095427744 -1.1543291 0.31777036
000100 da 75 b8 bd d2 7b 8b be ae 0b 1f 3d 3e 41 90 3c
       -0.090068534 -0.27242905 0.038829498 0.017609235
000110 e8 95 b9 3d 14 53 be bd 48 bd 3b be 91 f3 45 be
       0.090617955 -0.0929319 -0.18333924 -0.19331194
000120 f4 1f 0a be 46 28 3e bd b4 ec a6 bd e8 77 95 3e
       -0.13488752 -0.046425126 -0.08150616 0.29193044
000130 7f c4 ab 3e 77 0e 98 3e 01 97 91 3d 01 4e bd 3d
       0.33548352 0.29698536 0.0710888 0.09243394
000140 05 a7 6a 3e 7e 75 8b 3d a4 e5 35 3f 23 c4 28 3e
       0.22915275 0.06809519 0.7105353 0.1648107
000150 a5 10 90 3d 11 76 95 3e fe 6e a6 3e ea f1 ab 3e
       0.07034425 0.2919164 0.32506555 0.33583003
000160 56 28 df 3d 78 17 a3 be 2c dd 9f 3e ec 5a 0f bb
       0.10896365 -0.31853843 0.31223428 -0.0021874262
000170 96 39 de 3d 54 2a f2 3c 4f ab 40 be 33 e8 84 3e
       0.108508274 0.0295612 -0.18815349 0.25958404
000180 95 6e 3d 3a 79 a7 af 3d 73 31 36 bd aa 60 7a 3d
       0.0007226256 0.08576865 -0.044480752 0.061127342
000190 ec 74 57 be 39 97 4e be 34 c7 a0 3c 83 e1 15 bf
       -0.21040696 -0.20174874 0.019626237 -0.5854723
0001a0 da 15 89 3d 6e db 34 3e 2a f0 2a 3e f7 c4 03 3f
       0.06693621 0.17661831 0.16693178 0.5147242
0001b0 c1 b0 cd bd f7 28 49 3d 5d 40 ee 3e cb 18 88 3e
       -0.10043479 0.049111333 0.4653348 0.26581416
0001c0 3d 14 a3 3e bb 0e f1 be a3 98 43 bf 34 0d ca 3e
       0.31851378 -0.4708155 -0.7640478 0.39463198
0001d0 cf 47 bd 3d 76 c1 a9 3e a9 0c c3 bd 86 b3 71 39
       0.09242212 0.3315541 -0.09523899 0.00023050429
0001e0 ff af 4a 3e a5 3d e8 3d 3c 4b 1e 3e 02 52 40 bd
       0.197937 0.11339883 0.15458387 -0.04695321
0001f0 a6 e5 98 3b 7c b5 16 be 8f 4a cf bd d2 e3 12 3e
       0.004666048 -0.14717668 -0.10121643 0.14344719
000200 b0 a4 03 3d ba 1d 2e 3c d6 8c 15 be f6 bc 9c be
       0.03213948 0.010627205 -0.14604506 -0.30612916
000210 8b 6a ff bd 05 27 6c be 35 ee 8c bd 42 43 21 bf
       -0.12471493 -0.2306176 -0.06881372 -0.6299325
000220 f1 71 2e bf 5c 39 81 bf c5 87 e7 be 8e 40 88 be
       -0.6814261 -1.009563 -0.4522077 -0.2661175
000230 f7 2e dc be c6 f5 e4 be c2 f8 5c bf a9 f2 7e be
       -0.4300458 -0.4471876 -0.86317074 -0.24897255
000240 61 ac ed 3d f3 06 5f be d3 c5 ef bb f1 ec 14 bf
       0.11605144 -0.21779995 -0.0073172837 -0.58174044
000250 ab 2a 09 3e 86 cc d9 3d f9 99 43 bd f6 14 3c 3e
       0.13395183 0.10634713 -0.04775426 0.18367371
000260 da 3b cc 3e 4d 91 0f bc 69 e4 8e 3d aa 8d 24 3e
       0.39889413 -0.00876267 0.069771595 0.16069666
000270 e8 85 83 3e 1f 68 dd 3d e7 ad be 3e 3d 35 65 bc
       0.256881 0.10810875 0.37242052 -0.013989744
000280 ef 27 90 3e 28 e4 86 3e 7e d2 ae 3e 12 a3 de 3e
       0.28155467 0.26345944 0.34144968 0.43483788
000290 8e 53 dc bc b1 c1 3c 3e e7 39 f8 3d 89 14 6b 3e
       -0.02689531 0.18433262 0.12120419 0.22957052
0002a0 16 cc 1a 3e b1 f2 3e bc 63 ad 6e 3e ac b1 13 3e
       0.15116915 -0.011654542 0.2330833 0.14423245
0002b0 49 0c 0d 3e a9 81 8f 3d 06 a8 7f bd 40 18 bd bd
       0.13774218 0.070071526 -0.0624161 -0.09233141
0002c0 c8 2b c6 3d 8a 98 91 3c 27 d8 f7 3d 73 93 ab bd
       0.09676319 0.017772932 0.12101775 -0.08377733
0002d0 80 d2 2b 3e 3e 7a 98 3d 9d 5f a1 be de 1f 58 be
       0.16779518 0.07445191 -0.3151826 -0.21105906
0002e0 82 eb 25 3e db 4a 94 3e 79 a0 b0 3e ff 65 a3 3e
       0.1620312 0.2896336 0.3449743 0.31913754
0002f0 37 d5 22 3f 1b 2f 2e be 03 7e 79 3e ec 3d cc 3d
       0.6360659 -0.17010157 0.24364476 0.09972748
000300 32 5f 7c 3e 48 eb 7d 3d af 9a d9 bc 79 db 47 3e
       0.24645689 0.06199196 -0.026563017 0.19517316
000310 2e da 1d 3a 63 f6 69 be 7f 03 23 3d db 02 bf bd
       0.0006021586 -0.22847895 0.039798256 -0.093267165
000320 a2 a9 bc bc e7 4f 3d be 29 51 7a bb 24 e5 a0 bd
       -0.023030106 -0.18487512 -0.0038195348 -0.07856205
000330 a1 11 db bd 5d f4 7e be 94 c3 c4 3c 69 8e 69 be
       -0.10696722 -0.24897905 0.02401904 -0.22808231
000340 46 3c 6b ba d9 c3 bb bd ab 56 8c 3b 46 61 48 3e
       -0.000897352 -0.09168214 0.0042827926 0.19568357
000350 e9 8e 88 be a0 e1 ed 3d 85 56 56 3d 01 66 de bd
       -0.26671532 0.116153 0.052328605 -0.108592995
000360 32 d8 cc 3d b5 1b c6 3d c0 41 fb 3b 48 dc e0 3c
       0.100021735 0.096732534 0.00766775 0.027448788
000370 d1 97 8e bd fc e8 78 3e d0 6c 9d 3d f2 39 9c bd
       -0.069625504 0.24307626 0.0768677 -0.0762824
000380 93 fc 9d bc 2b 63 4b 3d f4 a4 3a 3e 85 74 6f 3e
       -0.019285476 0.04965512 0.18226987 0.23384292
000390 5b f6 3f 3c 5e 93 c3 3d 13 0e 62 3d f3 0a 14 3e
       0.011716451 0.095495924 0.055189203 0.14457302
0003a0 44 e7 ed 3d b5 31 8e bc 3b be f1 bd 28 03 3c 3d
       0.11616376 -0.017357687 -0.11803862 0.045901448
0003b0 1e a9 11 3e ac 4f 83 bc d2 df 3f 3d 27 e4 95 bd
       0.1422467 -0.016029201 0.04684431 -0.07318907
0003c0 d1 33 a0 3b b2 59 a7 bd 82 5c d7 3c 58 f8 03 3e
       0.0048889895 -0.08171405 0.026289228 0.12887704
0003d0 8e 1e 28 bd 1b 44 e2 bd 60 bf 84 3e eb ee 0c 3d
       -0.041044764 -0.11048146 0.25927258 0.034407537
0003e0 cb 0b e6 3d 62 e2 13 be 71 f6 ad 3d 95 20 7a 3e
       0.11232718 -0.14441827 0.084942706 0.24426492
0003f0 a4 13 89 3e 51 6e 2c 3e be 01 0e bf 51 46 34 bf
       0.26772797 0.16838957 -0.5547141 -0.70419794

decoder.4.bias f4 [8]
000000 08 d8 d6 3d aa 4a 46 3e a7 63 44 be ff da 3f bd
       0.104904234 0.1936442 -0.1917864 -0.04683971
000010 3c 72 e4 3e 0d 3f a6 bf a3 1f a3 3d dc 7b e8 3c
       0.44618404 -1.2987992 0.079650186 0.028379373

decoder.6.weight f4 [8, 1, 2, 2]
000000 73 fa a9 3e 71 87 2a be d2 25 02 bf 3e a4 79 bf
       0.3319889 -0.1665323 -0.5083896 -0.9751624
000010 6c c1 29 bf 03 73 64 3e a1 c7 0f bf 59 70 8c 3e
       -0.66310763 0.22309498 -0.56163985 0.27429464
000020 2e d2 2e 3f 18 2b 5f 3f 0b 52 4f 3f 14 f7 76 3f
       0.6828946 0.8717513 0.8098456 0.9647076
000030 97 8c bb be b4 b9 1c bf 21 e6 2b bf 97 b9 6e bf
       -0.366307 -0.6122086 -0.67148024 -0.9325194
000040 25 30 e4 be 48 76 54 bf 25 50 31 3e 68 66 39 be
       -0.4456798 -0.8299298 0.17315729 -0.18105471
000050 8f e3 89 3f 22 4c 80 3f 30 fa 93 3f cd a5 82 3f
       1.077257 1.0023234 1.1560726 1.0206848
000060 80 66 00 bf c5 e9 b9 be 45 eb 1b bf de 19 ba be
       -0.501564 -0.36311164 -0.6090587 -0.3634786
000070 97 87 34 bf 1c 5b 3e bf 53 a5 2b bf a5 9e 41 bf
       -0.70519394 -0.7435777 -0.6704914 -0.756327
