models/cnn/lightning_logs/version_2/checkpoints/epoch=99-step=2700.ckpt (torch, 89591 bytes, 39 tensors)

encoder.0.weight f4 [16, 1, 3, 3]
0.18967344 -0.23913491 0.23835413 0.12923507 -0.06342437 0.31696442 0.057586316 0.4805755
0.70256627 0.5411546 0.33538306 -0.0016960788 0.31478757 0.31929395 0.13114844 0.24542563
0.048522435 -0.52769285 0.28791016 0.1653535 0.21682304 0.49468324 -0.34005716 -0.5591641
0.66945994 0.30846834 -0.26334745 -0.53229815 0.212277 -0.44164443 -0.08595701 -0.162379
-0.32406923 -0.63163507 -0.06133557 -0.40838775 0.2942272 0.15031733 0.21691884 0.12654826
-0.17606777 -0.06609462 0.1085354 0.2242667 0.32568392 0.0410144 0.267014 0.10316765
0.0008771545 0.24586944 0.23645021 0.24791707 -0.02422498 0.17548388 -0.6082058 -0.3753235
0.19686452 -0.3806631 -0.233076 0.24760535 0.4764718 0.4338246 0.34590262 -0.30316716
0.43783993 0.56264806 -0.036112 0.10099311 0.23481047 0.27610874 0.23311232 0.26472798
-0.18384905 -0.6891442 -0.22322756 -0.061506763 -0.3665439 0.3389374 -0.48518673 -0.34393713
0.82097006 0.029019395 0.2141558 0.55701965 -0.34948665 -0.056764524 0.116901286 -0.51265675
-0.1854602 0.33501926 0.27270028 0.1826469 -0.45575967 0.3207685 0.07275834 0.18635917
0.52199304 0.24550168 0.45075864 -0.017894806 -0.17136344 0.030624455 0.016492853 -0.21332473
0.045710776 0.17077067 -0.12710433 0.27196404 0.021198839 0.020595342 -0.18534963 -0.047668457
0.09981242 -0.018971682 -0.16661851 -0.112644166 -0.12839632 0.6223048 0.07093123 0.52120906
0.16847965 -0.018246872 -0.023605162 -0.26954174 -0.513087 -0.014745581 0.07655022 0.38181728
0.08979312 -0.06088402 0.27010036 0.048578806 0.48645967 0.35173133 -0.0597524 0.5022014
-0.26664925 -0.19362007 0.105846405 0.056769475 -0.1547051 0.14201339 -0.3917459 -0.2628685
00000000: c139 423e c8df 74be 1b13 743e 3356 043e
00000010: a3e4 81bd 2949 a23e a1df 6b3d fe0d f63e
00000020: 62db 333f 1c89 0a3f 54b7 ab3e f64e deba
00000030: d62b a13e 7f7a a33e c74b 063e db50 7b3e
00000040: 76bf 463d e116 07bf f668 933e 6e52 293e
00000050: dc06 5e3e 1f47 fd3e f91b aebe 6125 0fbf
00000060: ba61 2b3f 90ef 9d3e 7ad5 86be b144 08bf
00000070: 245f 593e 381f e2be 3b0a b0bd ae46 26be
00000080: 67ec a5be d6b2 21bf 023b 7bbd 3318 d1be
00000090: f3a4 963e c9ec 193e f91f 5e3e de95 013e
000000a0: 1c4b 34be 9e5c 87bd cf47 de3d 2ba6 653e
000000b0: 0bc0 a63e b7fe 273d 0fb6 883e 9049 d33d
000000c0: d8f0 653a 33c5 7b3e 0120 723e f9dd 7d3e
000000d0: 7773 c6bc 0cb2 333e 60b3 1bbf 672a c0be
000000e0: da96 493e 46e6 c2be 7aab 6ebe 428c 7d3e
000000f0: 1df4 f33e 421e de3e 261a b13e ba38 9bbe
00000100: 8e2c e03e b409 103f 2dea 13bd 7ad5 ce3d
00000110: 2872 703e 205e 8d3e ffb4 6e3e 6d8a 873e
00000120: ed42 3cbe c16b 30bf c495 64be 84ee 7bbd
00000130: a4ab bbbe 3489 ad3e 656a f8be 8718 b0be
00000140: 182b 523f 15ba ed3c a84b 5b3e d798 0e3f
00000150: eaef b2be eb81 68bd f169 ef3d 793d 03bf
00000160: 47e9 3dbe a587 ab3e 5f9f 8b3e ca07 3b3e
00000170: 5559 e9be c53b a43e 5302 953d f0d4 3e3e
00000180: 56a1 053f cb64 7b3e d6c9 e63e 2198 92bc
00000190: e679 2fbe 23e0 fa3c 051c 873c cc71 5abe
000001a0: 393b 3b3d 82de 2e3e a327 02be df3e 8b3e
000001b0: 30a9 ad3c 90b7 a83c 4bcc 3dbe 0040 43bd
000001c0: 746a cc3d 806a 9bbc 0b9e 2abe fcb1 e6bd
000001d0: 537a 03be 5e4f 1f3f 6544 913d f56d 053f
000001e0: ee85 2c3e 777a 95bc 9d5f c1bc 6001 8abe
000001f0: ab59 03bf 7397 71bc 5dc6 9c3d 8e7d c33e
00000200: 75e5 b73d 8661 79bd 984a 8a3e 92fa 463d
00000210: 3e11 f93e 2116 b43e efbe 74bd 4590 003f
00000220: 4086 88be 5744 46be 00c6 d83d 1c87 683d
00000230: 046b 1ebe f56b 113e eb92 c8be b396 86be

encoder.0.bias f4 [16]
0.013938057 0.00059279514 0.0006340573 0.46094486 0.32073072 0.36923668 0.00044669333 -0.0044444427
0.0433234 0.0005998139 -0.23206638 0.5380023 -0.13722453 -0.00012435096 0.063892104 0.19406195
00000000: 735c 643c cf65 1b3a dd36 263a f700 ec3e
00000010: d136 a43e 970c bd3e 2a32 ea39 b0a2 91bb
00000020: e173 313d d43c 1d3a cfa2 6dbe 85ba 093f
00000030: 9684 0cbe 3564 02b9 ddd9 823d 2db8 463e

encoder.3.weight f4 [8, 16, 3, 3]
-0.16189602 0.33538538 0.13480215 -0.03129848 0.1558157 -0.19254316 -0.29496256 0.16562392
-0.33030075 -0.37876663 -0.06512739 0.15936568 -0.13140161 0.25280797 0.021539839 -0.032498445
0.1383953 -0.25423005 -0.12904993 0.08889576 0.21185893 -0.1017493 0.22680861 -0.045562625
-0.17424545 0.23688449 -0.36786255 0.61809653 1.0137166 0.6722478 0.3677001 -0.099003635
0.38339257 0.8689959 0.05522299 0.23148367 0.30197102 0.37302196 0.4492217 0.056313846
0.16937172 0.12907769 0.029875789 0.27932033 0.26712784 0.29579055 0.4326899 0.45286807
0.23733936 0.18225391 0.14689839 0.085364245 0.40530756 0.18408033 0.1337028 0.19895454
-0.24689439 -0.19892989 0.041153893 -0.23721895 -0.3048081 0.0593702 -0.3593309 -0.18957347
-0.095261574 0.0862407 -0.1328992 -0.047580827 -0.20243861 -0.3013318 0.1244823 -0.67042387
-0.047316745 0.31150734 -0.202369 -0.16586536 0.4281459 -0.46528822 -0.079616055 -0.012545555
-0.59740853 -0.1257427 0.2446332 0.22252856 0.11922957 0.023034358 0.1918775 -0.092041045
0.18326552 -0.14476556 -0.16945587 -0.025083601 0.08025938 -0.025740992 0.034527645 -0.3206835
-0.25417903 0.08325621 -0.10049681 0.4165881 0.21280897 0.6021651 0.16105627 0.12684284
0.17491516 0.046864953 0.3823892 0.23039155 -0.026307207 0.0016883984 0.035492755 0.038806967
0.058939375 -0.038130008 0.0739473 0.005157061 -0.070928425 -0.5368817 -0.52180946 -0.1212801
-0.11322226 0.16204925 -0.12661566 -0.39267427 -0.07482725 -0.52448833 -0.04938256 0.18118131
0.18782298 -0.07218396 0.17381845 -0.13238138 0.032189585 0.02478606 -0.23896998 0.42454192
0.011943377 0.30171382 0.11412207 0.34605023 0.27227163 -0.0015062732 0.42112076 0.07145881
-0.093070984 0.16052815 0.11937412 0.052449923 -0.52028775 0.25431904 0.39503345 0.0032511188
0.044030476 0.15455791 -0.04591934 -0.04935225 0.19493057 0.15434982 -0.30064583 0.18060201
0.074750185 0.07340361 0.113249816 0.17942376 -0.006560083 0.17270742 0.009438968 -0.48031893
0.34104615 -0.04208491 -0.028852418 0.027304707 -0.00320593 -0.76849943 -0.38210154 -0.023916263
0.25688088 -0.015793808 -0.15240532 0.5964246 -0.063440695 0.34914845 0.115878716 0.08312873
-0.17940667 0.14915343 0.17908204 0.2115915 0.089746095 -0.08268473 0.18749903 0.06988332
0.1552659 0.05633151 0.14770277 0.2094323 0.11874418 0.17512062 -0.1803226 0.02722686
-0.44465655 0.024882127 -0.66814566 0.11252804 0.091790736 0.06515231 0.29068926 -0.040355314
0.14488983 0.2051243 0.25189182 -0.05979705 0.31821397 0.25308216 -0.01524919 0.32811078
-0.2955025 -0.014655363 -0.30219662 -0.53482884 -0.29209512 0.6036112 -0.5456088 -0.29642937
0.5906961 -0.49892882 -0.16710527 0.21817687 -0.42860642 -0.27958688 0.4896156 0.39043167
-0.5239186 -0.5444753 -0.1419701 0.14731431 0.19538578 0.09864134 -0.3184855 -0.047275458
0.20871295 0.064899586 -0.20415506 -0.04056164 0.05783514 -0.23738842 -0.014926544 0.09496254
-0.4677186 0.19730029 0.18308705 0.17379536 0.03149014 0.056448497 0.069191344 0.072649814
00000000: 12c8 25be a2b7 ab3e 9309 0a3e d632 00bd
00000010: 278e 1f3e 092a 45be 5505 97be 5199 293e
00000020: 2e1d a9be b3ed c1be 8261 85bd c230 233e
00000030: 258e 06be 0c70 813e 5174 b03c 171d 05bd
00000040: 7fb7 0d3e 712a 82be aa25 04be fb0e b63d
00000050: 8cf1 583e f061 d0bd 8440 683e e09f 3abd
00000060: 666d 32be d991 723e 7b58 bcbe 933b 1e3f
00000070: 77c1 813f 6f18 2c3f 3043 bc3e 6bc2 cabd
00000080: 084c c43e 8476 5e3f 8131 623d 0e0a 6d3e
00000090: f29b 9a3e bcfc be3e 6300 e63e 59a9 663d
000000a0: c86f 2d3e f12c 043e 12be f43c 1303 8f3e
000000b0: fbc4 883e dc71 973e 8889 dd3e 53de e73e
000000c0: 1709 733e c5a0 3a3e 886c 163e 73d3 ae3d
000000d0: 7984 cf3e 8e7f 3c3e 63e9 083e bdba 4b3e
000000e0: e2d1 7cbe 47b4 4bbe fc90 283d 86e9 72be
000000f0: cf0f 9cbe 2b2e 733d 38fa b7be 8c1f 42be
00000100: 8018 c3bd f79e b03d ba16 08be 1de4 42bd
00000110: 114c 4fbe 2948 9abe 93f0 fe3d e6a0 2bbf
00000120: 34cf 41bd e47d 9f3e d239 4fbe 9cd8 29be
00000130: f035 db3e 423a eebe be0d a3bd df8b 4dbc
00000140: c4ef 18bf b2c2 00be 2081 7a3e 87de 633e
00000150: a22e f43d 8db2 bc3c 897b 443e 0480 bcbd
00000160: f5a9 3b3e 6c3d 14be d785 2dbe 207c cdbc
00000170: 085f a43d c6de d2bc dc6c 0d3d a130 a4be
00000180: c123 82be 3b82 aa3d 46d1 cdbd 094b d53e
00000190: 98ea 593e 7e27 1a3f efeb 243e 17e3 013e
000001a0: f61c 333e 77f5 3f3d 84c8 c33e c3eb 6b3e
000001b0: 3682 d7bc 404d dd3a da60 113d 0ef4 1e3d
000001c0: 6a6a 713d 362e 1cbd af71 973d 90fc a83b
000001d0: ec42 91bd 1471 09bf 4e95 05bf b361 f8bd
000001e0: 12e1 e7bd 3df0 253e 89a7 01be 9a0c c9be
000001f0: 073f 99bd de44 06bf 5e45 4abd 9887 393e
00000200: ab54 403e 2fd5 93bd 77fd 313e fc8e 07be
00000210: 3ad9 033d 230c cb3c 8cb4 74be 8f5d d93e
00000220: 27ae 433c 3c7a 9a3e d5b8 e93d 7f2d b13e
00000230: 3067 8b3e 246e c5ba 249d d73e ff58 923d
00000240: 009c bebd 7e61 243e 6b7a f43d bbd5 563d
00000250: 9431 05bf 1b36 823e d341 ca3e b910 553b
00000260: 4d59 343d 6e44 1e3e eb15 3cbd 9625 4abd
00000270: e19b 473e e10d 1e3e 40ee 99be bcef 383e
00000280: a016 993d a254 963d 85ef e73d ddba 373e
00000290: f7f5 d6bb 37da 303e e7a5 1a3c 5dec f5be
000002a0: 9a9d ae3e 3a61 2cbd e85b ecbc 1fae df3c
000002b0: 951a 52bb 61bc 44bf d0a2 c3be 0aec c3bc
000002c0: e485 833e 0462 81bc 2410 1cbe 48af 183f
000002d0: 32ed 81bd 96c3 b23e d251 ed3d 653f aa3d
000002e0: 62b6 37be adbb 183e 4861 373e 71ab 583e
000002f0: cdcc b73d 9d56 a9bd bfff 3f3e fc1e 8f3d
00000300: 06fe 1e3e dfbb 663d 653f 173e 6c75 563e
00000310: 2630 f33d d252 333e 7da6 38be dd0a df3c
00000320: 06aa e3be 9ad5 cb3c 980b 2bbf 1a75 e63d
00000330: c8fc bb3d 936e 853d 39d5 943e 9d4b 25bd
00000340: 005e 143e 1b0c 523e f7f7 803e c0ed 74bd
00000350: f1ec a23e fc93 813e bdd7 79bc 23fe a73e
00000360: 1b4c 97be 0c1d 70bc 84b9 9abe 8bea 08bf
00000370: 7e8d 95be 4386 1a3f 05ad 0bbf 97c5 97be
00000380: dc37 173f 9973 ffbe a51d 2bbe c269 5f3e
00000390: 4d72 dbbe 0326 8fbe e5ae fa3e a9e6 c73e
000003a0: 881f 06bf bc62 0bbf 9c60 11be 90d9 163e
000003b0: 3613 483e 7904 ca3d 8810 a3be e9a3 41bd
000003c0: d9b8 553e 13ea 843d 060e 51be f623 26bd
000003d0: 8ae4 6c3d f315 73be 778e 74bc b87b c23d
000003e0: d078 efbe 1609 4a3e 2c7b 3b3e 69f7 313e
000003f0: cefb 003d 8a36 673d 31b4 8d3d 6dc9 943d

encoder.3.bias f4 [8]
0.08855499 0.065580845 -0.06427799 0.097434595 -0.029940067 0.046241377 -0.44787818 -0.013562471
00000000: 525c b53d 404f 863d 2ea4 83bd ca8b c73d
00000010: df44 f5bc 9967 3d3d 4a50 e5be 2035 5ebc

encoder.7.weight f4 [2, 32]
0.09895979 -0.037665967 -0.1683133 -0.07818613 0.25340605 -0.019948252 -0.6410402 -0.14316273
-0.12339291 0.06959095 -0.12148164 -0.059095472 0.19071908 -0.059724383 0.18484223 0.26326373
0.4157422 0.25833037 0.32229453 0.31534424 -0.061888672 0.10170306 0.09965677 0.047322404
0.27263013 0.33603847 0.9466389 1.2145092 0.32013977 0.10840368 0.18256424 0.11086066
-0.4257505 -0.32167852 -0.3375832 -0.46160594 0.33601075 0.43917885 0.37359944 0.539684
-0.10168401 -0.14294547 0.09709684 -0.14630161 0.10002572 0.25779504 0.17410786 0.19243272
0.09098798 0.06966216 0.2657911 0.15942772 0.26553103 0.1503422 0.25383377 0.3342408
0.3288474 0.127862 0.01598221 0.02906152 -0.030637885 0.15024614 0.17313267 0.22344552
00000000: 6eab ca3d a147 1abd 525a 2cbe 0d20 a0bd
00000010: 70be 813e 846a a3bc 361b 24bf 4099 12be
00000020: 6cb5 fcbd b385 8e3d 5ecb f8bd 180e 72bd
00000030: dd4b 433e 8ea1 74bd 4847 3d3e 81ca 863e
00000040: 29dc d43e e143 843e ca03 a53e cd74 a13e
00000050: fa7e 7dbd b249 d03d d918 cc3d 23d5 413d
00000060: 2d96 8b3e 3c0d ac3e ed56 723f 0a75 9b3f
00000070: 5ce9 a33e c002 de3d 1ff2 3a3e ea0a e33d
00000080: f8fb d9be 0cb3 a4be b5d7 acbe 9d57 ecbe
00000090: 9a09 ac3e 0ddc e03e 6d48 bf3e bb28 0a3f
000000a0: b53f d0bd 4c60 12be b5da c63d 17d0 15be
000000b0: 49da cc3d b6fd 833e 5549 323e 150d 453e
000000c0: e857 ba3d 09ab 8e3d c515 883e 0541 233e
000000d0: aff3 873e 4ef3 193e 80f6 813e 9c21 ab3e
000000e0: b05e a83e 42ee 023e 20ed 823c 6d12 ee3c
000000f0: 4dfc fabc 20da 193e b149 313e e7ce 643e

encoder.7.bias f4 [2]
0.22377205 0.15970036
00000000: 8024 653e 7e88 233e

decoder.0.weight f4 [32, 2]
0.49932516 0.60562086 -0.77409667 -0.16099869 0.10066215 0.6222183 -0.662915 -0.3638888
-0.6609983 -0.2482503 -0.18972607 0.50111294 0.4347622 -0.20201874 -0.703516 -0.626306
0.8898687 -0.29949844 0.624004 -0.15006343 -0.54322976 -0.4704421 0.051475402 0.04391853
0.61333275 -0.5139163 0.3245726 -0.98079675 -0.8036985 -0.41211474 -0.6003509 0.23836486
-0.53949183 -0.5576594 0.768406 0.31455153 -0.60847294 0.29255813 0.5804716 -0.5484469
-0.1056275 0.7679839 0.1213195 0.208049 0.08701795 -0.42569372 0.38351643 -0.49585944
0.56231475 -0.4776823 -0.8975077 -0.0994671 -0.16699958 0.81803507 0.34479886 -0.6690576
0.089304835 0.27120712 0.57754385 0.9309441 -0.8750867 -0.412147 -0.8424605 -0.2748538
00000000: 8ca7 ff3e f809 1b3f 332b 46bf d7dc 24be
00000010: f527 ce3d b349 1f3f ccb4 29bf a24f babe
00000020: 2f37 29bf 5435 7ebe 8d47 42be f048 003f
00000030: 2799 de3e 00de 4ebe a019 34bf 9755 20bf
00000040: 6fce 633f dc57 99be babe 1f3f 3aaa 19be
00000050: 1b11 0bbf c9dd f0be dfd7 523d ebe3 333d
00000060: 6003 1d3f 0590 03bf 612e a63e 7f15 7bbf
00000070: 2fbf 4dbf b400 d3be 99b0 19bf eb15 743e
00000080: 231c 0abf c4c2 0ebf 41b6 443f e60c a13e
00000090: e2c4 1bbf 2eca 953e c999 143f 0467 0cbf
000000a0: 3b53 d8bd 989a 443f 5c76 f83d cc0a 553e
000000b0: 7836 b23d 87f4 d9be 445c c43e 4ae1 fdbe
000000c0: dcf3 0f3f c692 f4be 11c3 65bf 68b5 cbbd
000000d0: f001 2bbe bf6a 513f 7a89 b03e 5c47 2bbf
000000e0: 74e5 b63d a9db 8a3e ead9 133f 5a52 6e3f
000000f0: af05 60bf ee04 d3be 7eab 57bf a3b9 8cbe

decoder.0.bias f4 [32]
-0.6494896 -0.74255526 -1.8337592 -0.3311784 0.3572587 0.60481745 -1.9322238 0.04578693
1.0365607 0.9651185 -0.6527515 -0.044129264 0.29233152 -0.8406639 0.282566 -1.4272792
-0.9307284 1.0277032 -1.3770794 -1.1093217 0.021845551 -1.8664944 -1.6361653 -0.9239217
1.2730284 0.0078111687 -0.18596585 -1.2322495 -1.68055 -0.33871192 -0.8275515 0.41964906
00000000: f344 26bf 1a18 3ebf 9fb8 eabf 3790 a9be
00000010: 9dea b63e 51d5 1a3f 1c53 f7bf 138b 3b3d
00000020: 05ae 843f 0212 773f b91a 27bf e3c0 34bd
00000030: 7aac 953e c035 57bf 7eac 903e 16b1 b6bf
00000040: 3744 6ebf c78b 833f 2344 b0bf 41fe 8dbf
00000050: 71f5 b23c 4ae9 eebf dd6d d1bf 2286 6cbf
00000060: 98f2 a23f d5f4 ff3b d56d 3ebe 5aba 9dbf
00000070: 431c d7bf a66b adbe 6ada 53bf 3edc d63e

decoder.2.weight f4 [8, 16, 3, 3]
0.20128003 0.12459384 -0.05645213 0.20416643 -0.0031603621 -0.239229 0.20786396 -0.1632332
-0.020621968 -0.16338788 -0.21414918 0.017899074 0.010817566 -0.09463856 -0.13871624 -0.02500832
-0.07972111 -0.36387664 -0.005699692 -0.16394354 -0.049605824 0.11736646 -0.024650175 -0.41203132
0.021803066 -0.10258515 -0.23195545 0.02994965 0.093112454 -0.29283 0.008591198 -0.049914513
-0.27550036 0.031192623 -0.010914475 -0.20428927 0.04698671 0.30304617 -0.17537546 0.060636885
0.020461971 -0.14025778 0.19845639 0.12062765 -0.19297448 0.07531933 -0.15411268 0.023699593
0.065274216 -0.06762349 -0.3181466 0.09813567 -0.06713911 -0.28959805 0.18813853 -0.26295966
-0.08982753 0.21076785 0.07088825 -0.1163022 -0.022085859 -0.099685945 0.067504846 -0.040020067
0.11405685 -0.15004244 0.29661864 -0.027829131 -0.3025098 -0.08043285 -0.14091763 -0.20118673
0.19803615 0.10943982 -0.15698051 0.24922171 0.05193322 -0.12117934 0.14834401 -0.07165194
-0.21733525 -0.10662827 -0.23763788 -0.08031451 -0.051559072 -0.17983477 -0.34860682 -0.0011752562
-0.09663058 -0.087369666 0.17972852 0.14562011 -0.19906744 -0.096798606 -0.078139886 -0.202916
0.035246994 -0.24592659 -0.09347184 0.08867635 0.10118097 -0.25088528 0.041945703 0.28298098
0.12911369 -0.101266906 -0.07040413 -0.09459477 -0.10589026 0.10573697 -0.17599015 -0.027145188
-0.04663612 -0.050844774 0.034404356 0.04426173 -0.08222355 0.12738441 0.019456483 0.009640033
0.17305785 0.087551534 -0.07511332 0.01171558 -0.027931573 0.026561985 -0.039305594 -0.037755426
0.1444396 -0.10911005 0.17388795 -0.006011014 0.1807096 -0.08882837 0.1130926 -0.15214533
0.08173674 -0.153549 0.14608055 -0.15482274 -0.3733507 0.08776529 -0.07255275 -0.25754648
-0.09438143 -0.16620249 0.04924586 0.17373668 0.09819601 0.15207607 -0.16993038 0.017043844
-0.24312842 0.19450845 0.4289074 -0.031916752 -0.12959859 0.16294023 -0.072013706 0.11152525
-0.06054638 -0.41372108 -0.23783088 -0.21916512 -0.13982408 -0.076719165 0.23031539 -0.2511922
0.05622802 -0.095053464 -0.23945086 0.0010043298 -0.048649997 -0.058501262 0.11156342 0.026251325
-0.1814821 0.018041672 -0.003073806 -0.070680656 -0.05654671 -0.09795232 -0.03127992 0.112853296
-0.0050571603 -0.05015661 0.2633444 -0.056499884 0.0077672694 0.011983563 0.00629271 0.059828207
-0.051631175 0.32083684 -0.18777183 0.044239532 0.008825076 -0.14528893 -0.2094518 -0.03033231
-0.13303356 -0.084127255 0.26495868 0.25658765 -0.07282582 -0.12639411 -0.03875132 0.12508741
-0.0821721 -0.02389058 0.11067994 0.01537771 -0.21544027 -0.08763302 -0.06346261 0.077299826
-0.158121 0.004456264 0.03347192 0.09671903 0.027436452 -0.02080461 -0.051095676 -0.29356813
-0.18566355 0.03942917 0.112636045 0.054624178 -0.02046407 -0.14826572 -0.34897205 0.18735693
-0.0051740636 -0.20765024 -0.23885989 -0.220927 0.080881715 0.09971994 0.11829094 -0.15345693
-0.12803078 -0.11933588 -0.1410041 0.12446286 0.38534155 -0.063921444 -0.0231643 0.34287885
-0.11552374 -0.025241505 -0.1115813 0.020918915 0.04338883 -0.07012269 -0.13307644 -0.18453409
00000000: 5a1c 4e3e 0e2b ff3d 593a 67bd 0111 513e
00000010: 141e 4fbb 72f8 74be 4ada 543e 9b26 27be
00000020: 67ef a8bc 274f 27be ec49 5bbe 14a1 923c
00000030: 293c 313c ddd1 c1bd a10b 0ebe 40de ccbc
00000040: d244 a3bd 0a4e babe 7bc4 babb d1e0 27be
00000050: 7a2f 4bbd d45d f03d 2aef c9bc c5f5 d2be
00000060: 589c b23c 2a18 d2bd bb85 6dbe f858 f53c
00000070: beb1 be3d d0ed 95be 19c2 0c3c 2973 4cbd
00000080: 620e 8dbe ac87 ff3c a0d2 32bc 3531 51be
00000090: 2375 403d de28 9b3e a095 33be 625e 783d
000000a0: dd9f a73c bc9f 0fbe 2738 4b3e a10b f73d
000000b0: 1a9b 45be 0541 9a3d b7cf 1dbe a625 c23c
000000c0: 7dae 853d 2f7e 8abd 1ce4 a2be 5bfb c83d
000000d0: 3b80 89bd 3246 94be 63a7 403e a6a2 86be
000000e0: 7ff7 b7bd 87d3 573e dc2d 913d d92f eebd
000000f0: 67ed b4bc 2528 ccbd fb3f 8a3d 15ec 23bd
00000100: a396 e93d baa4 19be 66de 973e ebf9 e3bc
00000110: 91e2 9abe fab9 a4bd b64c 10be e503 4ebe
00000120: fdc9 4a3e fc21 e03d 80bf 20be fa33 7f3e
00000130: eeb7 543d e02c f8bd 7ee7 173e 41be 92bd
00000140: 228d 5ebe ec5f dabd 5857 73be ef7b a4bd
00000150: 9b2f 53bd 9b26 38be 987c b2be 0e0b 9aba
00000160: 41e6 c5bd deee b2bd c10a 383e 701d 153e
00000170: 56d8 4bbe 593e c6bd ce07 a0bd 36c9 4fbe
00000180: 275f 103d 2ed4 7bbe 2a6e bfbd f29b b53d
00000190: f837 cf3d 0974 80be 42cf 2b3d e2e2 903e
000001a0: 6136 043e 0665 cfbd 0a30 90bd e7ba c1bd
000001b0: fedc d8bd a08c d83d c336 34be 965f debc
000001c0: 8405 3fbd 9c42 50bd 95eb 0c3d ca4b 353d
000001d0: d264 a8bd 0f71 023e 3463 9f3c 3bf1 1d3c
000001e0: 1436 313e 384e b33d 03d5 99bd b4f2 3f3c
000001f0: c1d0 e4bc 8598 d93c e7fe 20bd 6fa5 1abd
00000200: f9e7 133e 1775 dfbd af0f 323e 0af8 c4bb
00000210: f00b 393e a6eb b5bd 189d e73d fccb 1bbe
00000220: 9865 a73d f33b 1dbe 2496 153e da89 1ebe
00000230: d327 bfbe 4abe b33d 8996 94bd 22dd 83be
00000240: 0d4b c1bd fc30 2abe 07b6 493d 07e8 313e
00000250: fd1a c93d d4b9 1b3e 3b02 2ebe 889f 8b3c
00000260: a8f6 78be 392d 473e c099 db3e 24bb 02bd
00000270: 7eb5 04be ced9 263e ec7b 93bd 5a67 e43d
00000280: 7bff 77bd 40d3 d3be f089 73be d26c 60be
00000290: 0b2e 0fbe f01e 9dbd ccd7 6b3e 449c 80be
000002a0: 5a4f 663d 64ab c2bd 9b32 75be b7a3 833a
000002b0: 3845 47bd 059f 6fbd 5d7b e43d 050d d73c
000002c0: 72d6 39be 21cc 933c e871 49bb 05c1 90bd
000002d0: 869d 67bd 3a9b c8bd 601f 00bd a11f e73d
000002e0: 89b6 a5bb 0471 4dbd 14d5 863e 6c6c 67bd
000002f0: 9484 fe3b b556 443c 1433 ce3b 6c0e 753d
00000300: 367b 53bd ba44 a43e 4247 40be 8334 353d
00000310: 0d97 103c 9fc6 14be 887a 56be 777b f8bc
00000320: f339 08be e94a acbd aaa8 873e 755f 833e
00000330: b425 95bd 756d 01be b4b9 1ebd ea16 003e
00000340: d949 a8bd 2db6 c3bc 2aac e23d caf2 7b3c
00000350: 609c 5cbe f178 b3bd aff8 81bd 5f4f 9e3d
00000360: 79ea 21be da05 923b da19 093d a014 c63d
00000370: 69c2 e03c 6e6e aabc b349 51bd 904e 96be
00000380: 961e 3ebe 7b80 213d baad e63d 9abd 5f3d
00000390: 44a4 a7bc f8d2 17be 77ac b2be 7fda 3f3e
000003a0: 318b a9bb 44a2 54be b097 74be b03a 62be
000003b0: 50a5 a53d f839 cc3d 8542 f23d d023 1dbe
000003c0: 801a 03be 5f66 f4bd 6163 10be 62e6 fe3d
000003d0: 7d4b c53e 3fe9 82bd 0fc3 bdbc d18d af3e
000003e0: b697 ecbd 46c7 cebc bd84 e4bd 255e ab3c
000003f0: 7cb8 313d 7c9c 8fbd 3145 08be 81f6 3cbe

decoder.2.bias f4 [16]
-0.037014373 0.21610342 0.27674484 0.10024005 -0.04888907 0.22494647 0.045191392 0.20514037
0.122219644 0.17474331 0.19858523 -1.0771722 0.13509773 0.16522928 -0.37476772 0.26104754
00000000: 629c 17bd 374a 5d3e 80b1 8d3e a84a cd3d
00000010: e83f 48bd 5e58 663e 9c1a 393d 5110 523e
00000020: 4b4e fa3d e9ef 323e ed59 4b3e c7e0 89bf
00000030: 0f57 0a3e dd31 293e 8ee1 bfbe 06a8 853e

decoder.4.weight f4 [16, 8, 5, 5]
0.07154076 -0.13328858 -0.15649928 0.026986504 -0.07470175 -0.10246647 0.09564776 0.3575939
-0.87227845 0.12742424 0.3014829 0.037392758 -0.06954547 0.009784993 0.2461558 0.101575285
-0.26980668 0.038859427 -0.19546604 0.049778722 -0.16907823 0.33791378 -0.30145836 0.034936078
0.05599406 0.028599685 0.022166235 0.04600789 0.044970624 0.027415482 0.012792449 0.116987824
-0.17638038 0.023632158 0.0113366665 0.10531165 0.03005403 -0.0104105845 0.14966232 -0.15234447
-0.043347765 0.0027583821 0.17256948 0.104554825 0.100831576 0.023427438 0.09659874 0.20195611
0.3063812 -0.0036001427 -0.005545739 -0.12556386 0.31527555 -0.019595642 0.005250475 0.009155975
0.14021811 0.36693007 -0.1212624 0.07289732 -0.08255704 0.19398199 0.21371846 0.030426154
-0.1814883 -0.0023301956 0.16438529 0.25517285 0.03009168 -0.0112422705 0.19925542 0.21861243
0.3762988 -0.058718093 -0.07331708 -0.022772346 0.14557233 0.009113636 -0.051217373 -0.067791246
0.41527057 0.15487866 0.26114282 0.00073420664 -0.2585863 -0.09201167 0.30968308 -0.5622758
-0.21337491 -0.3050743 0.2088497 -0.14288738 -0.09015766 -0.44427624 -0.07980058 0.07158877
-0.16416822 -0.29212177 -0.21483414 0.01698986 0.08651739 0.048276402 -0.04926769 -0.040791042
0.016669175 -0.004648992 0.06147414 0.084402956 -0.0357855 0.05035741 0.03631754 0.067851104
0.24759737 0.006556688 -0.10166443 -0.023862375 -0.014664251 0.14819945 0.01732033 0.0680278
-0.044058267 0.06944539 0.15534824 0.06922911 -0.010406191 -0.12412408 -0.11333105 -0.14305532
-0.0060914946 -0.03470841 0.022593796 0.11007172 0.12131903 0.06696285 0.049878947 -0.062093314
0.01284714 0.32215708 0.16408187 0.07298161 0.076329604 0.25642088 0.2694957 0.044784702
0.050142445 0.21921241 0.17550439 0.0511472 -0.038461912 -0.14643252 -0.011575287 0.034883928
-0.13287172 0.15091965 -0.018481921 0.16176403 0.07865154 -0.25017393 -0.25232756 0.077301964
0.24093743 0.3568887 0.06949563 -0.3672981 -0.10747748 0.018664008 0.4741223 0.001656284
-0.09649842 -0.03345914 0.10752271 0.2442455 0.07146762 -0.42455134 0.032744747 0.045243822
0.5039394 0.86110187 0.050552014 0.06769828 -0.073432155 0.20159659 -0.07376026 -0.5564118
0.0058715567 0.19670968 0.3934615 0.12487073 -0.9064289 0.24543554 0.121674255 0.03807589
-0.29765314 0.07058695 0.15116352 0.3568679 -0.19263843 -0.367417 -0.26678512 0.065219454
0.031204829 0.064803004 -0.029482586 0.07637263 -0.06680391 0.38014057 0.02852466 0.39869982
-0.31912714 0.026739374 -0.33963194 0.102967024 -0.9297927 -0.018878853 -0.40473333 -0.17188843
0.087036945 0.18980671 0.039837148 0.024542198 0.07964289 -0.20562677 -0.023095904 -0.10527617
-0.011533077 -0.013048182 -0.0007611501 -0.090710096 0.06802353 -0.07964093 -0.054751415 0.052530013
-0.098575816 0.010539597 -0.0008434054 0.23916203 0.17294163 0.2185978 0.070984185 0.09915309
0.15138277 0.17219989 0.24719101 0.109219745 0.13948192 -0.07348162 -0.0026175727 0.014332023
-0.027663562 0.02892365 0.05567043 0.09110234 -0.072925396 -0.06334209 0.035859477 0.0010020552
00000000: f683 923d cd7c 08be 5941 20be cd12 dd3c
00000010: 3bfd 98bd f1d9 d1bd f9e2 c33d 8c16 b73e
00000020: a44d 5fbf 807b 023e f75b 9a3e 2629 193d
00000030: db6d 8ebd 3c51 203c 4410 7c3e b406 d03d
00000040: 1a24 8abe 102b 1f3d 4028 48be c6e4 4b3d
00000050: d822 2dbe 0903 ad3e c058 9abe 2219 0f3d
00000060: 075a 653d e349 ea3c f795 b53c c572 3c3d
00000070: 1e33 383d 6f96 e03c 6c97 513c 5097 ef3d
00000080: 0f9d 34be 3a98 c13c 6dbd 393c a2ad d73d
00000090: de33 f63c 2891 2abc 1441 193e 3000 1cbe
000000a0: 6d8d 31bd f9c5 343b 0eb6 303e d720 d63d
000000b0: c980 ce3d e6ea bf3c 8fd5 c53d 95cd 4e3e
000000c0: ffdd 9c3e 5ff0 6bbb 08b9 b5bb d093 00be
000000d0: cc6b a13e 0a87 a0bc 2d0c ac3b f102 163c
000000e0: 5695 0f3e 42de bb3e 6c58 f8bd 314b 953d
000000f0: aa13 a9bd 37a3 463e 03d9 5a3e 4540 f93c
00000100: 12d8 39be 32b6 18bb 9e54 283e 04a6 823e
00000110: d482 f63c 8031 38bc 9d09 4c3e f0db 5f3e
00000120: 3caa c03e 6282 70bd 4427 96bd 128d babc
00000130: ea10 153e 5c51 153c 4fc9 51bd 23d6 8abd
00000140: 589e d43e 8398 1e3e 83b4 853e c677 403a
00000150: 6c65 84be 9d70 bcbd c88e 9e3e 4ff1 0fbf
00000160: f47e 5abe b332 9cbe b2dc 553e 1251 12be
00000170: 94a4 b8bd 2d78 e3be 7d6e a3bd 229d 923d
00000180: b71b 28be fc90 95be 7bfd 5bbe 522e 8b3c
00000190: 0830 b13d 7abd 453d ebcc 49bd 8214 27bd
000001a0: cb8d 883c 9256 98bb 4fcc 7b3d 75db ac3d
000001b0: d193 12bd 9243 4e3d b3c1 143d 85f5 8a3d
000001c0: 2a8a 7d3e 7cd9 d63b 7135 d0bd 077b c3bc
000001d0: 5442 70bc 99c1 173e 5de3 8d3c 2952 8b3d
000001e0: 7176 34bd 6239 8e3d 9c13 1f3e fec7 8d3d
000001f0: bb7e 2abc c434 febd 1c1a e8bd 187d 12be
00000200: 299b c7bb 682a 0ebd a016 b93c 486d e13d
00000210: 1d76 f83d d223 893d de4d 4c3d 8f55 7ebd
00000220: d07c 523c c6f1 a43e 1405 283e 6277 953d
00000230: b252 9c3d 9949 833e 57fb 893e 2a70 373d
00000240: 2a62 4d3d 3879 603e 6cb7 333e ba7f 513d
00000250: 3d8a 1dbd 68f2 15be 46a6 3dbc 73e2 0e3d
00000260: 860f 08be ae8a 1a3e 6667 97bc 78a5 253e
00000270: 0f14 a13d cc16 80be 1431 81be 7e50 9e3d
00000280: 4db8 763e 1eba b63e ba53 8e3d 7f0e bcbe
00000290: 271d dcbd 43e5 983c 28c0 f23e ab17 d93a
000002a0: f7a0 c5bd 740c 09bd de34 dc3d 7e1b 7a3e
000002b0: 9e5d 923d cb5e d9be 5b1f 063d 9651 393d
000002c0: 2c02 013f 2c71 5c3f a10f 4f3d 65a5 8a3d
000002d0: 9963 96bd 566f 4e3e 9f0f 97bd 0171 0ebf
000002e0: 3066 c03b 436e 493e c973 c93e 3abc ff3d
000002f0: b90b 68bf 7453 7b3e 5a30 f93d 77f5 1b3d
00000300: fe65 98be e48f 903d 9cca 1a3e 64b7 b63e
00000310: 0243 45be 151e bcbe 0f98 88be c791 853d
00000320: 45a1 ff3c 70b7 843d 7785 f1bc 4169 9c3d
00000330: 7dd0 88bd c9a1 c23e 8cac e93c 6222 cc3e
00000340: a264 a3be 880c db3c 3de4 adbe 60e0 d23d
00000350: e506 6ebf d3a7 9abc 3539 cfbe 8503 30be
00000360: 6d40 b23d b15c 423e 472c 233d b80c c93c
00000370: d01b a33d d38f 52be 9f33 bdbc 089b d7bd
00000380: 3bf5 3cbc 0bc8 55bc eb87 47ba 37c6 b9bd
00000390: ec4f 8b3d c91a a3bd 0543 60bd b629 573d
000003a0: 1ee2 c9bd 46ae 2c3c fa17 5dba e4e6 743e
000003b0: 9c17 313e 1ad8 5f3e 2860 913d c610 cb3d
000003c0: 1604 1b3e 2b55 303e a41f 7d3e 9aae df3d
000003d0: 59d4 0e3e 887d 96bd 958b 2bbb ddd0 6a3c
000003e0: b29e e2bc 4af1 ec3c ad06 643d dd93 ba3d
000003f0: e959 95bd 7fb9 81bd 63e1 123d 6557 833a

decoder.4.bias f4 [8]
-0.8306208 0.13373314 0.071149416 -0.17908882 0.038215168 0.047427077 -0.11869383 -0.11902055
00000000: 91a3 54bf 57f1 083e c9b6 913d 0f63 37be
00000010: 8287 1c3d e542 423d c015 f3bd 0cc1 f3bd

decoder.6.weight f4 [8, 1, 2, 2]
0.80829096 0.9698672 1.0709999 1.1807611 -0.7201225 -0.14348128 -0.6016275 0.15618166
-0.09192586 -0.56448287 -0.045540728 -0.6840932 0.6380253 0.63297826 0.7495479 0.7232953
-0.28772822 -0.80844694 0.33829093 -0.5117538 0.08405261 0.043392565 -0.64603144 -0.5585642
0.62606907 0.59136194 0.33715832 0.36788756 0.6247958 0.58963954 0.57676005 0.49007034
00000000: 28ec 4e3f 3849 783f 8616 893f 2e23 973f
00000010: f359 38bf c2ec 12be 4304 1abf 16ee 1f3e
00000020: a043 bcbd f381 10bf ea88 3abd bb20 2fbf
00000030: a055 233f dd0a 223f 5fe2 3f3f e129 393f
00000040: 1d51 93be 61f6 4ebf 7834 ad3e 4c02 03bf
00000050: c623 ac3d 67bc 313d 5162 25bf 10fe 0ebf
00000060: 1046 203f 7f63 173f 04a0 ac3e c25b bc3e
00000070: 9ef2 1f3f 9ef2 163f 8ca6 133f 80ea fa3e

exp_avg f4 [16, 1, 3, 3]
2.646633e-06 -4.855058e-06 -5.495376e-07 6.115938e-06 -1.3282106e-06 -2.9726955e-06 1.9123001e-05 4.4638905e-06
-2.231607e-05 -6.8809635e-07 1.0738238e-05 4.3664636e-06 9.351277e-06 1.1498625e-05 3.9087317e-07 4.4282842e-06
4.68814e-06 1.6438476e-06 -3.3108342e-06 7.1071486e-06 1.4070255e-06 7.3286856e-06 7.742567e-06 -2.1201263e-08
-2.5201705e-06 6.433752e-06 8.5972615e-06 2.4330146e-07 -4.63485e-06 4.939982e-06 5.268983e-06 -2.8602543e-07
2.8539512e-07 4.7515714e-06 -3.2413473e-06 1.4069093e-06 9.452083e-06 1.4089458e-05 1.3532626e-06 1.8842195e-05
2.3729657e-05 1.3161627e-05 6.3528814e-06 1.764447e-05 1.3223112e-05 -2.251151e-06 3.146242e-06 -4.1639973e-06
6.4255414e-06 1.5176222e-05 7.384581e-06 2.037717e-06 2.0450248e-06 -2.4352084e-06 -1.7639939e-05 -1.4446855e-05
9.148621e-07 8.329924e-06 -7.2795433e-06 3.9866923e-06 -2.573034e-06 -4.854743e-06 -5.5891883e-06 -2.2669471e-06
5.9525228e-06 7.023218e-06 1.4916575e-05 2.10253e-05 9.539354e-06 2.6813466e-05 1.7481529e-05 -4.125414e-06
2.7028252e-06 4.9286423e-06 3.779181e-06 2.5850738e-06 -3.0317324e-06 1.219222e-05 2.8479744e-06 4.167124e-06
-4.134808e-06 7.476558e-06 4.282313e-06 5.8889973e-06 1.0067996e-05 2.0204743e-06 4.6148166e-06 -1.34828415e-05
-6.7883357e-06 4.178548e-06 7.824996e-06 -1.5366123e-07 -4.8188595e-06 4.4512885e-06 -1.1909092e-06 -5.700337e-06
3.9703905e-06 -2.0035868e-06 -7.931925e-07 1.4016199e-05 -6.0786792e-06 -3.3406834e-06 1.1400327e-05 -9.7043485e-06
-7.650795e-07 9.402377e-06 -8.767539e-06 -1.4954725e-05 0.0 0.0 0.0 0.0
0.0 0.0 0.0 0.0 0.0 2.5867714e-05 9.655473e-06 2.5238654e-05
3.8427836e-05 3.5210556e-05 2.9873383e-05 1.039076e-05 9.384509e-06 6.438787e-06 -3.6701351e-06 2.0065959e-06
-1.9478327e-06 8.433975e-06 1.0949494e-05 7.5873118e-06 1.2539035e-05 5.49559e-06 7.041355e-06 -9.034159e-06
-1.6357224e-05 -1.8200773e-05 -1.1476566e-06 -3.0082056e-06 -5.2960445e-06 1.3268744e-05 4.967331e-06 -2.5640857e-06
00000000: cf9c 3136 a1e8 a2b6 f083 13b5 8237 cd36
00000010: f844 b2b5 857e 47b6 556a a037 87c8 9536
00000020: 6533 bbb7 9fb5 38b5 6228 3437 a383 9236
00000030: 6ee3 1c37 38ea 4037 33d9 d134 ac96 9436
00000040: d14e 9d36 2ca2 dc35 b32f 5eb6 f179 ee36
00000050: 07d9 bc35 eee8 f536 12e6 0137 121e b6b2
00000060: 3320 29b6 82e1 d736 f53c 1037 199f 8234
00000070: 0f85 9bb6 1fc2 a536 38cc b036 098f 99b4
00000080: 6838 9934 b06f 9f36 ec85 59b6 09d5 bc35
00000090: 6394 1e37 c361 6c37 c0a1 b535 4e0f 9e37
000000a0: 0d0f c737 c2d0 5c37 d62a d536 3603 9437
000000b0: d5d8 5d37 7b12 17b6 0724 5336 77b8 8bb6
000000c0: fb9a d736 619d 7e37 11c9 f736 b6bf 0836
000000d0: 423d 0936 906c 23b6 7bf9 93b7 c560 72b7
000000e0: d894 7535 c0c0 0b37 cd42 f4b6 6dc5 8536
000000f0: 63ac 2cb6 ede5 a2b6 c38a bbb6 db21 18b6
00000100: c8bb c736 fca8 eb36 3442 7a37 7d5f b037
00000110: 370b 2037 7bed e037 4ca5 9237 096d 8ab6
00000120: 2f62 3536 b760 a536 d69d 7d36 3b7b 2d36
00000130: c474 4bb6 308d 4c37 d41f 3f36 53d3 8b36
00000140: bbbd 8ab6 25df fa36 cab0 8f36 1a9a c536
00000150: b7e9 2837 7c97 0736 f9d8 9a36 5d34 62b7
00000160: 5cc7 e3b6 7435 8c36 1a48 0337 14fe 24b4
00000170: b0b1 a1b6 475c 9536 54d7 9fb5 8645 bfb6
00000180: 6539 8536 5c75 06b6 c6eb 54b5 1e27 6b37
00000190: 75f7 cbb6 8130 60b6 0844 3f37 dccf 22b7
000001a0: dd5f 4db5 e7be 1d37 4b18 13b7 0ee6 7ab7
000001b0: 0000 0000 0000 0000 0000 0000 0000 0000
000001c0: 0000 0000 0000 0000 0000 0000 0000 0000
000001d0: 0000 0000 7efe d837 f1fd 2137 99b7 d337
000001e0: 932d 2138 0caf 1338 9a98 fa37 f953 2e37
000001f0: 2972 1d37 c20c d836 714c 76b6 0ea9 0636
00000200: 83b7 02b6 a67f 0d37 b8b3 3737 8396 fe36
00000210: bf5e 5237 c266 b836 c744 ec36 6b91 17b7
00000220: df36 89b7 ddad 98b7 2e09 9ab5 94e0 49b6
00000230: adb4 b1b6 d29c 5e37 0cad a636 a812 2cb6

exp_avg_sq f4 [16, 1, 3, 3]
4.4998507e-09 4.3690056e-09 4.224827e-09 6.047357e-09 7.3852617e-09 7.03805e-09 6.4129786e-09 8.937058e-09
8.361317e-09 5.4278835e-09 6.4052874e-09 4.370322e-09 6.139078e-09 6.245992e-09 3.5270644e-09 4.491983e-09
3.6112682e-09 1.8559628e-09 3.3971623e-09 3.3058156e-09 2.2743356e-09 4.9234132e-09 3.4952559e-09 1.6187942e-09
5.625362e-09 3.4659444e-09 1.5000675e-09 1.0160404e-09 6.913542e-10 3.4603434e-10 1.0086462e-09 3.3221514e-10
1.6746603e-10 8.942995e-10 3.9651335e-10 9.522717e-10 1.0785501e-08 1.1858357e-08 1.0860144e-08 1.3188613e-08
1.44968775e-08 1.2860788e-08 1.175541e-08 1.4257696e-08 1.2665234e-08 9.642376e-09 1.465328e-08 1.4344438e-08
1.3213316e-08 1.7398987e-08 1.5052832e-08 1.2632221e-08 1.3181128e-08 9.931118e-09 5.5115035e-10 1.6168964e-09
3.6791843e-09 1.4961039e-09 2.7575728e-09 4.486372e-09 3.0412872e-09 4.2685038e-09 4.6829713e-09 1.2833473e-08
2.3474833e-08 2.2833046e-08 1.9042734e-08 2.740705e-08 2.2244274e-08 2.0438781e-08 2.2335703e-08 1.557126e-08
5.5004995e-10 8.248288e-10 2.2058075e-09 7.747283e-10 1.4875498e-09 4.0023354e-09 7.992606e-10 1.9682078e-09
4.943377e-09 6.6151955e-09 6.662792e-09 8.340365e-09 2.6011313e-09 3.3613454e-09 6.171129e-09 1.1178687e-09
2.758671e-09 5.557254e-09 8.069702e-09 8.010773e-09 4.8019286e-09 1.0599921e-08 1.0243843e-08 6.543418e-09
1.0271152e-08 9.810098e-09 6.8137327e-09 6.2845733e-09 2.8737053e-09 3.834013e-09 7.4148754e-09 2.6863738e-09
5.061017e-09 1.0888034e-08 6.6793295e-09 9.705466e-09 0.0 0.0 0.0 0.0
0.0 0.0 0.0 0.0 0.0 3.336464e-08 2.64494e-08 1.7769333e-08
1.7443263e-08 1.1504635e-08 7.602262e-09 6.0760676e-09 3.9716515e-09 3.813093e-09 6.177909e-09 9.142687e-09
7.0855686e-09 9.251481e-09 1.126158e-08 6.955959e-09 1.0331484e-08 9.579745e-09 4.514175e-09 1.5743703e-08
5.328011e-09 1.1527784e-09 9.5953245e-09 2.734247e-09 4.8245086e-10 5.4422293e-09 1.2299244e-09 1.7697016e-10
00000000: 1b9d 9a31 2e1e 9631 f929 9131 1dc9 cf31
00000010: 73c1 fd31 58d3 f131 2859 dc31 9989 1932
00000020: 76a5 0f32 2b80 ba31 8115 dc31 c229 9631
00000030: e7ef d231 549c d631 c660 7231 e657 9a31
00000040: 1a2a 7831 e314 ff30 8373 6931 862c 6331
00000050: 894a 1c31 cd2a a931 3131 7031 427c de30
00000060: 3549 c131 8a2d 6e31 ef2a ce30 bea4 8b30
00000070: ba09 3e30 013c be2f 95a0 8a30 20a3 b62f
00000080: 7f21 382f bcd2 7530 4bfc d92f 15e1 8230
00000090: 234b 3932 9bb9 4b32 6b93 3a32 2294 6232
000000a0: f10d 7932 58f2 5c32 d7f4 4932 03f2 7432
000000b0: 4a96 5932 9ea7 2532 cfbd 7b32 816f 7632
000000c0: c700 6332 c774 9532 874d 8132 1805 5932
000000d0: 3773 6232 859d 2a32 c27f 1730 7c39 de30
000000e0: e5d4 7c31 7a9f cd30 bc7f 3d31 8c26 9a31
000000f0: e4fe 5031 28aa 9231 dae7 a031 367a 5c32
00000100: b4a5 c932 6622 c432 6a93 a332 be6c eb32
00000110: ad13 bf32 5b91 af32 bbdc bf32 90c1 8532
00000120: 5332 1730 2bba 6230 fa94 1731 a8f4 5430
00000130: 8172 cc30 ea84 8931 f7b2 5b30 1441 0731
00000140: 67da a931 e04b e331 8aee e431 5049 0f32
00000150: 96bf 3231 6afd 6631 d309 d431 82a3 9930
00000160: 0e93 3d31 20f2 be31 eda2 0a32 c19f 0932
00000170: 36fe a431 f21a 3632 e6fc 2f32 83d4 e031
00000180: 0175 3032 4489 2832 3a1e ea31 b1ef d731
00000190: c27a 4531 56bc 8331 efc5 fe31 309b 3831
000001a0: 2de5 ad31 140e 3b32 0180 e531 17bd 2632
000001b0: 0000 0000 0000 0000 0000 0000 0000 0000
000001c0: 0000 0000 0000 0000 0000 0000 0000 0000
000001d0: 0000 0000 cf4c 0f33 d832 e332 2da3 9832
000001e0: 24d6 9532 eba5 4532 1a9b 0232 a8c5 d031
000001f0: 0477 8831 5204 8331 7645 d431 f611 1d32
00000200: 5275 f331 72f0 1e32 f478 4132 4301 ef31
00000210: 597e 3132 2a94 2432 1a1b 9b31 c53c 8732
00000220: ae11 b731 c96f 9e30 afd8 2432 62e5 3b31
00000230: 769d 0430 5bfe ba31 1e0a a930 ac94 422f

exp_avg f4 [16]
2.4252276e-05 1.8441853e-05 2.3200559e-05 -8.289155e-05 -6.804072e-07 -3.7261598e-06 -3.35276e-05 7.089448e-06
-2.3860534e-06 7.2879407e-06 1.1067915e-05 -2.1412821e-05 0.0 -4.5520062e-07 2.1198768e-05 -1.3108589e-05
00000000: 5e71 cb37 94b3 9a37 d29e c237 10d6 adb8
00000010: 3aa5 36b5 f00e 7ab6 fd9f 0cb8 e5e1 ed36
00000020: 1620 20b6 ef8a f436 55b0 3937 af9f b3b7
00000030: 0000 0000 4c62 f4b4 02d4 b137 f6ec 5bb7

exp_avg_sq f4 [16]
2.3813339e-08 1.5455885e-08 1.99025e-08 1.5720511e-07 3.9052473e-08 4.5419526e-08 1.9980355e-08 4.2976186e-08
1.94129e-08 4.2235484e-08 1.8866718e-08 1.0334166e-07 0.0 1.0474627e-07 3.433347e-08 8.277221e-08
00000000: 168e cc32 dac3 8432 0ff6 aa32 36cc 2834
00000010: a6ba 2733 4c13 4333 44a1 ab32 d194 3833
00000020: 6bc1 a632 6866 3533 5a10 a232 aeec dd33
00000030: 0000 0000 dff0 e033 0d76 1333 81c0 b133

exp_avg f4 [8, 16, 3, 3]
-1.106084e-05 -1.4311192e-05 -2.4958455e-05 -3.4203815e-06 -1.0599277e-05 3.4609698e-06 -9.11755e-06 -8.8991865e-06
-2.4913968e-06 -5.747372e-06 -7.9457095e-06 -1.5294287e-05 -3.3752694e-06 -3.628485e-05 -1.8849334e-05 -1.0058626e-05
-1.75065e-05 -4.4919498e-06 -1.1675136e-06 -6.0183334e-06 -7.916909e-06 1.4417973e-06 -2.0400994e-05 -8.926799e-06
-4.672428e-06 -1.6944892e-05 -6.1460337e-06 -7.2851876e-06 -3.892199e-06 2.8149373e-06 -1.1635828e-05 -3.92477e-06
-1.2806721e-05 -1.5286423e-06 -1.2838668e-06 4.130556e-06 -1.4499786e-05 -9.5408695e-06 -1.672201e-05 -4.394851e-06
-1.5590886e-05 -9.211199e-06 -5.5022015e-06 -7.9969195e-06 -1.7083843e-06 -1.0972143e-05 -6.7965457e-06 -2.145631e-05
-6.9580656e-06 -2.0151123e-05 -1.1122499e-05 -6.498461e-06 -9.714875e-06 1.7267542e-06 -2.7814306e-06 -1.6237695e-05
-7.947687e-06 1.6937281e-06 1.462096e-06 -2.9165155e-06 -1.2460179e-05 9.828667e-07 -4.826069e-06 -8.7986455e-06
-5.2503315e-06 -2.8476505e-05 -6.3922053e-06 -2.5233972e-05 -7.090714e-06 -1.6426447e-05 -1.6690521e-05 1.1463193e-06
-1.9794054e-06 -4.7550166e-06 3.083417e-06 3.2197437e-07 -9.708394e-06 -1.4089815e-06 -5.857956e-06 1.7681184e-06
-9.171049e-07 -8.4105695e-06 3.832359e-06 -6.3642683e-06 -1.0326683e-05 -8.215772e-06 -1.652855e-06 -9.886917e-06
-3.7067648e-06 2.883121e-06 -9.526794e-06 -9.70145e-06 -1.802625e-05 6.7235114e-06 -8.5464235e-06 3.541375e-07
-1.2582888e-05 -1.4847698e-05 -6.1302044e-06 -8.677302e-06 -9.2986165e-06 -7.4743775e-06 -6.1158257e-06 -6.1666706e-06
-6.2671184e-06 1.3816762e-06 3.4473699e-06 6.873435e-07 0.0 0.0 0.0 0.0
0.0 0.0 0.0 0.0 0.0 -5.3504505e-06 3.9177085e-06 -1.0723466e-05
-6.558207e-06 -1.9411353e-05 -2.1191236e-05 2.189513e-06 -3.236514e-06 -2.2310303e-06 -6.905809e-06 -9.568938e-06
-2.0583013e-05 -2.283474e-06 -1.6755033e-05 -1.1570688e-05 -1.2280239e-05 -1.499814e-05 5.304095e-07 -4.2111187e-06
-1.1335268e-06 -3.097643e-06 -2.3037014e-06 -1.058925e-05 -3.772523e-06 -3.1218879e-06 -3.240859e-06 -4.1334447e-06
1.1500501e-05 2.148341e-05 2.0033389e-05 1.9934207e-05 3.6068861e-06 -3.936842e-06 1.3056065e-06 2.1289357e-05
1.4114672e-05 5.0650374e-07 1.08112645e-05 1.5307754e-05 7.299234e-06 1.0409261e-05 6.328477e-07 6.8746826e-06
1.8356495e-05 7.4612494e-06 -2.0167995e-07 1.185282e-05 9.5797395e-06 1.1772199e-05 1.4674328e-05 4.866128e-06
3.1839152e-06 2.252183e-05 1.4944921e-05 2.9477246e-06 -5.225868e-07 2.4092805e-07 9.700466e-06 5.714738e-06
3.5498554e-06 3.406264e-07 1.04617375e-05 -2.010168e-06 7.1415398e-06 8.628429e-06 1.2235911e-05 8.030811e-06
1.01320975e-05 9.946289e-07 9.858124e-06 9.590105e-06 8.449203e-06 4.966697e-06 1.2868726e-05 1.3407157e-05
9.4459565e-06 1.0826246e-05 3.645078e-06 4.8492047e-06 1.5124379e-05 1.3890496e-05 2.4121102e-06 1.6410459e-05
4.810036e-06 2.1715703e-05 -4.6585365e-06 5.4086922e-06 1.0689975e-05 1.8213963e-05 8.6130385e-06 -2.7526767e-06
1.9882458e-05 1.2292753e-05 1.4935586e-05 8.894033e-06 5.9980434e-06 1.0013487e-05 2.1189951e-05 1.9848647e-05
1.1295765e-06 8.899509e-06 1.0651939e-06 1.2122111e-05 -1.7059725e-06 5.368237e-06 7.757295e-06 5.0842737e-06
1.1360688e-06 -2.2246281e-06 -3.599277e-07 4.855566e-06 1.1292813e-05 -3.835127e-06 9.298225e-06 1.825454e-05
1.1255723e-05 1.9322522e-06 9.55542e-06 1.31863235e-05 1.5261596e-05 3.0162214e-06 8.989227e-06 -8.405664e-06
1.0829872e-05 1.6225675e-05 1.37814e-05 8.183719e-06 4.9152286e-06 6.5860077e-06 1.4020061e-05 4.245354e-06
9.0254935e-06 6.1317387e-06 7.19311e-06 6.863321e-06 0.0 0.0 0.0 0.0
00000000: f291 39b7 1a1a 70b7 e05d d1b7 b589 65b6
00000010: 8cd3 31b7 0243 6836 94f7 18b7 b74d 15b7
00000020: df31 27b6 8dd9 c0b6 904e 05b7 3b4c 80b7
00000030: b082 62b6 9030 18b8 a31e 9eb7 78c1 28b7
00000040: ecda 92b7 8eb9 96b6 76b3 9cb5 17f1 c9b6
00000050: ded2 04b7 c783 c135 cd22 abb7 4fc4 15b7
00000060: dac7 9cb6 e124 8eb7 073a ceb6 4973 f4b6
00000070: bc99 82b6 41e8 3c36 8037 43b7 85b1 83b6
00000080: 73dc 56b7 c02b cdb5 5451 acb5 3599 8a36
00000090: 1b44 73b7 b911 20b7 3e46 8cb7 7c77 93b6
000000a0: 2cc9 82b7 cc89 1ab7 8d9f b8b6 822a 06b7
000000b0: a34b e5b5 ff14 38b7 e20d e4b6 13fd b3b7
000000c0: 5479 e9b6 350a a9b7 c59a 3ab7 5b0d dab6
000000d0: 12fd 22b7 d3c2 e735 9da8 3ab6 2f36 88b7
000000e0: 0e57 05b7 0e54 e335 3c3d c435 5bb9 43b6
000000f0: 100c 51b7 0beb 8335 9eef a1b6 e59d 13b7
00000100: 012c b0b6 d4e0 eeb7 a07c d6b6 8bad d3b7
00000110: c5ec edb6 87cb 89b7 9f02 8cb7 3bdb 9935
00000120: edd5 04b6 488d 9fb6 b3ec 4e36 d2db ac34
00000130: 3ce1 22b7 3c1c bdb5 758f c4b6 1650 ed35
00000140: f82e 76b5 1f1b 0db7 b797 8036 a68c d5b6
00000150: c440 2db7 79d6 09b7 aad7 ddb5 fcdf 25b7
00000160: bcc1 78b6 a47b 4136 45d5 1fb7 69c3 22b7
00000170: 1437 97b7 869a e136 9c62 0fb7 4a20 be34
00000180: 181b 53b7 611a 79b7 0eb2 cdb6 ba94 11b7
00000190: 4101 1cb7 6acc fab6 8b36 cdb6 4ceb ceb6
000001a0: 234a d2b6 0872 b935 5d59 6736 e381 3835
000001b0: 0000 0000 0000 0000 0000 0000 0000 0000
000001c0: 0000 0000 0000 0000 0000 0000 0000 0000
000001d0: 0000 0000 0588 b3b6 dc74 8336 f0e8 33b7
000001e0: 920e dcb6 90d5 a2b7 d5c3 b1b7 8cef 1236
000001f0: e332 59b6 cfb8 15b6 73b8 e7b6 478a 20b7
00000200: afa9 acb7 c93d 19b6 298d 8cb7 ba1f 42b7
00000210: 3a07 4eb7 85a0 7bb7 7761 0e35 3c4d 8db6
00000220: af23 98b5 1ae1 4fb6 4a99 1ab6 7ca8 31b7
00000230: 742b 7db6 a081 51b6 897d 59b6 05b2 8ab6
00000240: 47f2 4037 4637 b437 600d a837 6238 a737
00000250: d50d 7236 3719 84b6 4c3c af35 8c96 b237
00000260: 0ece 6c37 acf6 0735 0762 3537 2769 8037
00000270: f1eb f436 70a3 2e37 f6e0 2935 13ad e636
00000280: 46fc 9937 a55b fa36 5d8d 58b4 79db 4637
00000290: abb8 2037 3681 4537 c231 7637 b947 a336
000002a0: 3fab 5536 43ed bc37 f2bb 7a37 86d1 4536
000002b0: e447 0cb5 e658 8134 2fbf 2237 3ac1 bf36
000002c0: 0d3a 6e36 56df b634 d284 2f37 6ce6 06b6
000002d0: 5ca1 ef36 d2c2 1037 d648 4d37 12bc 0637
000002e0: 07fd 2937 307f 8535 5264 2537 30e5 2037
000002f0: 0dc1 0d37 9aa7 a636 c2e6 5737 4def 6037
00000300: 137a 1e37 5fa2 3537 f79d 7436 5ab6 a236
00000310: b7be 7d37 3a0b 6937 bddf 2136 31a9 8937
00000320: e565 a136 1e2a b637 8650 9cb6 507c b536
00000330: 1859 3337 30ca 9837 b880 1037 a0ba 38b6
00000340: 41c9 a637 f93c 4e37 da93 7a37 9537 1537
00000350: cd42 c936 99ff 2737 13c1 b137 a580 a637
00000360: f49b 9735 1a4f 1537 c9f7 8e35 1260 4b37
00000370: c5f8 e4b5 ce20 b436 5425 0237 9499 aa36
00000380: 077b 9835 d24a 15b6 163c c1b4 ffec a236
00000390: 4376 3d37 7daf 80b6 93ff 1b37 5321 9937
000003a0: f6d6 3c37 d7ab 0136 3750 2037 d43a 5d37
000003b0: 0706 8037 4a6a 4a36 70d0 1637 0d06 0db7
000003c0: f2b1 3537 5f1c 8837 aa36 6737 ce4c 0937
000003d0: 7eed a436 60fd dc36 b437 6b37 5073 8e36
000003e0: 336c 1737 3cbf cd36 585c f136 7a4b e636
000003f0: 0000 0000 0000 0000 0000 0000 0000 0000

exp_avg_sq f4 [8, 16, 3, 3]
7.0752915e-09 1.9553832e-08 1.4032715e-08 6.448157e-09 1.6028974e-08 7.32927e-09 5.5119913e-09 1.5594434e-08
3.551271e-09 2.530426e-09 1.51524e-08 1.4869668e-08 4.506602e-09 1.4794578e-08 1.0227912e-08 3.1565832e-09
1.527552e-08 5.0085562e-09 1.9760371e-09 1.0289204e-08 1.1918067e-08 3.2781275e-09 1.130744e-08 8.105453e-09
2.3237918e-09 1.1054964e-08 3.762026e-09 1.4975859e-09 7.8026224e-10 1.1447664e-09 1.4577235e-09 8.7264374e-10
1.4584701e-09 1.1398303e-09 5.2838917e-10 1.2355278e-09 4.8130655e-09 1.1274782e-08 9.737443e-09 5.29725e-09
1.0902712e-08 6.8718844e-09 4.1784185e-09 9.517496e-09 3.5083858e-09 6.941776e-09 1.69756e-08 1.3863098e-08
8.08385e-09 1.5368416e-08 9.558587e-09 5.6280696e-09 1.4437564e-08 4.927776e-09 3.3772058e-09 8.728993e-09
3.2873704e-09 2.4718552e-09 6.575075e-09 1.4307636e-09 1.9398902e-09 5.3682103e-09 6.4709904e-10 5.047219e-09
1.7168428e-08 1.1877978e-08 6.2329963e-09 1.5094123e-08 6.384227e-09 4.4011847e-09 1.6058845e-08 2.7717693e-09
9.357359e-10 1.1556647e-09 3.1585567e-10 6.9990486e-10 1.5782113e-09 1.5724731e-10 6.2050626e-10 8.720016e-10
6.530595e-11 1.625888e-09 2.929948e-09 1.3372143e-09 2.190918e-09 3.6629624e-09 6.6924966e-10 1.8865958e-09
2.7660756e-09 3.5582798e-10 4.5077866e-09 1.7146675e-08 1.544212e-08 5.2688907e-09 1.5057072e-08 8.83813e-09
4.407476e-09 1.4569527e-08 4.3094737e-09 2.7727776e-09 3.309859e-09 3.2771137e-09 2.785161e-09 3.425809e-09
3.0427045e-09 2.144366e-09 2.446172e-09 2.1166635e-09 0.0 0.0 0.0 0.0
0.0 0.0 0.0 0.0 0.0 5.6242655e-10 4.1187067e-09 2.9156606e-09
1.3348443e-09 3.5255074e-09 2.3012128e-09 9.783155e-10 3.2318395e-09 1.3546084e-09 5.3035776e-09 1.9401208e-08
1.6723318e-08 6.7140364e-09 1.7902797e-08 1.0100936e-08 4.6561186e-09 1.8166086e-08 4.637452e-09 3.1955327e-10
7.1572254e-10 1.8553384e-09 4.25557e-10 9.961849e-10 2.059756e-09 2.5008098e-10 1.1256273e-09 1.1018975e-09
5.5335057e-09 5.7004543e-09 5.096752e-09 9.632316e-09 3.437699e-09 5.04199e-09 1.20641985e-08 9.167753e-09
6.9221544e-09 2.908991e-09 4.886974e-09 4.2093427e-09 7.745714e-09 3.2346827e-09 3.845412e-09 9.130586e-09
7.19166e-09 6.952517e-09 2.2426454e-09 3.0290686e-09 2.9690228e-09 6.063387e-09 2.3626678e-09 3.0045317e-09
6.1014984e-09 4.5085016e-09 4.8715245e-09 8.7197116e-10 7.357848e-10 3.0343336e-10 1.3051713e-09 1.8662383e-09
5.4497407e-10 1.1501526e-09 1.2500798e-09 6.4915096e-10 3.6863457e-09 4.232439e-09 3.5199423e-09 7.279119e-09
4.11137e-09 3.964427e-09 8.59591e-09 7.0409314e-09 4.7223563e-09 5.0930438e-09 6.3375154e-09 4.851838e-09
1.0505158e-08 5.743063e-09 5.477434e-09 1.1561314e-08 1.043011e-08 6.9861184e-09 1.9578899e-09 2.1098154e-09
9.833979e-10 2.617335e-09 8.457108e-10 1.4475212e-09 2.0863011e-09 3.0802565e-09 1.5842507e-09 4.068685e-09
5.2178186e-09 4.279272e-09 9.0673e-09 3.043884e-09 4.9165942e-09 9.386554e-09 7.8887945e-09 6.782676e-09
5.650246e-10 2.604827e-10 1.0663014e-10 5.41406e-10 1.7713546e-10 1.9001527e-10 3.8980957e-10 2.5553176e-10
1.2880588e-10 6.1357536e-10 4.4840628e-10 7.231977e-10 1.3347299e-09 3.6014647e-10 8.9362995e-10 2.4080147e-09
8.465319e-10 4.909617e-10 3.990499e-09 4.7906803e-09 4.9067683e-09 8.299161e-09 3.1728098e-09 4.217747e-09
1.1001417e-08 7.745086e-09 5.9386047e-09 2.0369284e-09 2.0226398e-09 1.1217075e-09 3.4645833e-09 3.2746834e-09
1.60204e-09 3.334188e-09 3.5361838e-09 1.5148481e-09 0.0 0.0 0.0 0.0
00000000: ec1a f331 55f7 a732 8914 7132 978e dd31
00000010: 16b0 8932 f1d4 fb31 fd63 bd31 86f4 8532
00000020: 9f0a 7431 bae3 2d31 7b28 8232 7e75 7f32
00000030: 7ed8 9a31 3e2b 7e32 d5b6 2f32 33eb 5831
00000040: 3937 8332 ba17 ac31 d0ca 0731 66c4 3032
00000050: 37c0 4c32 6e45 6131 a642 4232 2940 0b32
00000060: 94b0 1f31 3fec 3d32 2143 8131 9fd3 cd30
00000070: 137a 5630 e355 9d30 1659 c830 d8de 6f30
00000080: 5b73 c830 37a8 9c30 153e 1130 45cf a930
00000090: 2c60 a531 04b3 4132 ba49 2732 1b03 b631
000000a0: a24e 3b32 bc1d ec31 c291 8f31 6482 2332
000000b0: 2d18 7131 8284 ee31 bdd1 9132 8d2a 6e32
000000c0: 26e1 0a32 8103 8432 1c37 2432 0661 c131
000000d0: 1409 7832 2d51 a931 6f14 6831 84f6 1532
000000e0: 08e8 6131 56dd 2931 f9ea e131 85a4 c430
000000f0: e94e 0531 4773 b831 8cdf 3130 cf6b ad31
00000100: c679 9332 e60f 4c32 042a d631 54a8 8132
00000110: 415c db31 3b39 9731 c6f1 8932 7b79 3e31
00000120: 489b 8030 56d5 9e30 bca4 ad2f 6d63 4030
00000130: 60e8 d830 2fe5 2c2f 3f90 2a30 a8b1 6f30
00000140: fb9b 8f2e d975 df30 3158 4931 0cc9 b730
00000150: 098f 1631 84b7 7b31 42f6 3730 58a5 0131
00000160: 5115 3e31 569e c32f e9e2 9a31 f049 9332
00000170: 95a5 8432 a709 b531 da56 8132 82d6 1732
00000180: 9270 9731 754d 7a32 8812 9431 388b 3e31
00000190: a873 6331 9833 6131 1265 3f31 786b 6b31
000001a0: d317 5131 165c 1331 8319 2831 bd74 1131
000001b0: 0000 0000 0000 0000 0000 0000 0000 0000
000001c0: 0000 0000 0000 0000 0000 0000 0000 0000
000001d0: 0000 0000 4099 1a30 8784 8d31 d85c 4831
000001e0: a975 b730 6245 7231 5d23 1e31 6b75 8630
000001f0: 1f17 5e31 0c2d ba30 c33a b631 b5a7 a632
00000200: f7a6 8f32 4ab1 e631 abc8 9932 6388 2d32
00000210: a7fb 9f31 a50b 9c32 7657 9f31 20ad af2f
00000220: 7fbc 4430 ebfe fe30 d3f3 e92f 24ea 8830
00000230: 9c8b 0d31 c57b 892f 7db4 9a30 9271 9730
00000240: 3b21 be31 badd c331 811f af31 607b 2532
00000250: a43c 6c31 d03d ad31 e842 4f32 3480 1d32
00000260: ead7 ed31 83e7 4731 47ea a731 c5a1 9031
00000270: 0312 0532 2449 5e31 9a20 8431 bedc 1c32
00000280: 831a f731 fce2 ee31 091d 1a31 f027 5031
00000290: 9a07 4c31 1e56 d031 7e5c 2231 4878 4e31
000002a0: 59a5 d131 33e9 9a31 6262 a731 84af 6f30
000002b0: 4140 4a30 73d0 a62f a261 b330 363f 0031
000002c0: 24cd 1530 6613 9e30 46cf ab30 f06f 3230
000002d0: e152 7d31 ed6c 9131 7be3 7131 cf1b fa31
000002e0: fe43 8d31 7837 8831 36ad 1332 b0ec f131
000002f0: 4942 a231 e3fe ae31 60c1 d931 38b5 a631
00000300: 2c7a 3432 8454 c531 0534 bc31 329f 4632
00000310: 1c30 3332 8c0a f031 908b 0631 44fc 1031
00000320: 3d28 8730 a5dc 3331 9b77 6830 20f2 c630
00000330: 995e 0f31 72ac 5331 debc d930 88cc 8b31
00000340: 6b48 b331 e008 9331 68c6 1b32 932c 5131
00000350: d2ee a831 8042 2132 4987 0732 0d0d e931
00000360: 1250 1b30 ae33 8f2f 6f7b ea2e 0fd2 1430
00000370: 33c3 422f 8bec 502f d24c d62f e67a 8c2f
00000380: a29f 0d2f 87a8 2830 9383 f62f 84ca 4630
00000390: a271 b730 1cfe c52f 9ea3 7530 3e7a 2531
000003a0: 63b1 6830 5cf4 0630 cd1c 8931 459b a431
000003b0: 6498 a831 1994 0e32 a908 5a31 b2eb 9031
000003c0: be00 3d32 400f 0532 850c cc31 06fa 0b31
000003d0: a8fe 0a31 932a 9a30 9815 6e31 d708 6131
000003e0: c52e dc30 a81f 6531 3401 7331 fb32 d030
000003f0: 0000 0000 0000 0000 0000 0000 0000 0000

exp_avg f4 [8]
-8.981364e-06 9.000352e-06 6e-45 6.880304e-06 1.412708e-05 6.2709e-06 1.4416934e-05 6.7786254e-06
00000000: aaae 16b7 3800 1737 0400 0000 5ddd e636
00000010: 5903 6d37 9f6a d236 43e0 7137 f373 e336

exp_avg_sq f4 [8]
1.1206499e-08 1.47941615e-08 2.094504e-14 1.04256985e-08 3.4198817e-09 7.3420505e-09 5.660141e-09 6.8997097e-09
00000000: b486 4032 6929 7e32 f9a7 bc28 b51c 3332
00000010: 3203 6b31 5c45 fc31 207b c231 7d12 ed31
